module {
  func.func @main(%arg0: tensor<131072x128xf32>, %arg1: tensor<131072x128xf32>, %arg2: tensor<131072x128xf32>, %arg3: tensor<131072x128xf32>, %arg4: tensor<131072x128xf32>, %arg5: tensor<131072x128xf32>, %arg6: tensor<131072x128xf32>, %arg7: tensor<131072x128xf32>, %arg8: tensor<131072x128xf32>, %arg9: tensor<131072x128xf32>, %arg10: tensor<131072x128xf32>, %arg11: tensor<131072x128xf32>, %arg12: tensor<131072x128xf32>, %arg13: tensor<131072x128xf32>, %arg14: tensor<131072x128xf32>, %arg15: tensor<131072x128xf32>, %arg16: tensor<131072x128xf32>, %arg17: tensor<131072x128xf32>, %arg18: tensor<131072x128xf32>, %arg19: tensor<131072x128xf32>, %arg20: tensor<131072x128xf32>, %arg21: tensor<131072x128xf32>, %arg22: tensor<131072x128xf32>, %arg23: tensor<131072x128xf32>, %arg24: tensor<131072x128xf32>, %arg25: tensor<131072x128xf32>, %arg26: tensor<131072x128xf32>, %arg27: tensor<131072x128xf32>, %arg28: tensor<131072x128xf32>, %arg29: tensor<131072x128xf32>, %arg30: tensor<131072x128xf32>, %arg31: tensor<131072x128xf32>, %arg32: tensor<131072x128xf32>, %arg33: tensor<131072x128xf32>, %arg34: tensor<131072x128xf32>, %arg35: tensor<131072x128xf32>, %arg36: tensor<131072x128xf32>, %arg37: tensor<131072x128xf32>, %arg38: tensor<131072x128xf32>, %arg39: tensor<131072x128xf32>, %arg40: tensor<131072x128xf32>, %arg41: tensor<131072x128xf32>, %arg42: tensor<131072x128xf32>, %arg43: tensor<131072x128xf32>, %arg44: tensor<131072x128xf32>, %arg45: tensor<131072x128xf32>, %arg46: tensor<131072x128xf32>, %arg47: tensor<131072x128xf32>, %arg48: tensor<131072x128xf32>, %arg49: tensor<131072x128xf32>, %arg50: tensor<131072x128xf32>, %arg51: tensor<131072x128xf32>, %arg52: tensor<131072x128xf32>, %arg53: tensor<131072x128xf32>, %arg54: tensor<131072x128xf32>, %arg55: tensor<131072x128xf32>, %arg56: tensor<131072x128xf32>, %arg57: tensor<131072x128xf32>, %arg58: tensor<131072x128xf32>, %arg59: tensor<131072x128xf32>, %arg60: tensor<131072x128xf32>, %arg61: tensor<131072x128xf32>, %arg62: tensor<131072x128xf32>, %arg63: tensor<131072x128xf32>, %arg64: tensor<3x1xi64>, %arg65: tensor<3x8x7x128xf32>, %arg66: tensor<3x8x7x128xf32>, %arg67: tensor<3x8x7x128xf32>, %arg68: tensor<3x8x7x128xf32>, %arg69: tensor<3x8x7x128xf32>, %arg70: tensor<3x8x7x128xf32>, %arg71: tensor<3x8x7x128xf32>, %arg72: tensor<3x8x7x128xf32>, %arg73: tensor<3x8x7x128xf32>, %arg74: tensor<3x8x7x128xf32>, %arg75: tensor<3x8x7x128xf32>, %arg76: tensor<3x8x7x128xf32>, %arg77: tensor<3x8x7x128xf32>, %arg78: tensor<3x8x7x128xf32>, %arg79: tensor<3x8x7x128xf32>, %arg80: tensor<3x8x7x128xf32>, %arg81: tensor<3x8x7x128xf32>, %arg82: tensor<3x8x7x128xf32>, %arg83: tensor<3x8x7x128xf32>, %arg84: tensor<3x8x7x128xf32>, %arg85: tensor<3x8x7x128xf32>, %arg86: tensor<3x8x7x128xf32>, %arg87: tensor<3x8x7x128xf32>, %arg88: tensor<3x8x7x128xf32>, %arg89: tensor<3x8x7x128xf32>, %arg90: tensor<3x8x7x128xf32>, %arg91: tensor<3x8x7x128xf32>, %arg92: tensor<3x8x7x128xf32>, %arg93: tensor<3x8x7x128xf32>, %arg94: tensor<3x8x7x128xf32>, %arg95: tensor<3x8x7x128xf32>, %arg96: tensor<3x8x7x128xf32>, %arg97: tensor<3x8x7x128xf32>, %arg98: tensor<3x8x7x128xf32>, %arg99: tensor<3x8x7x128xf32>, %arg100: tensor<3x8x7x128xf32>, %arg101: tensor<3x8x7x128xf32>, %arg102: tensor<3x8x7x128xf32>, %arg103: tensor<3x8x7x128xf32>, %arg104: tensor<3x8x7x128xf32>, %arg105: tensor<3x8x7x128xf32>, %arg106: tensor<3x8x7x128xf32>, %arg107: tensor<3x8x7x128xf32>, %arg108: tensor<3x8x7x128xf32>, %arg109: tensor<3x8x7x128xf32>, %arg110: tensor<3x8x7x128xf32>, %arg111: tensor<3x8x7x128xf32>, %arg112: tensor<3x8x7x128xf32>, %arg113: tensor<3x8x7x128xf32>, %arg114: tensor<3x8x7x128xf32>, %arg115: tensor<3x8x7x128xf32>, %arg116: tensor<3x8x7x128xf32>, %arg117: tensor<3x8x7x128xf32>, %arg118: tensor<3x8x7x128xf32>, %arg119: tensor<3x8x7x128xf32>, %arg120: tensor<3x8x7x128xf32>, %arg121: tensor<3x8x7x128xf32>, %arg122: tensor<3x8x7x128xf32>, %arg123: tensor<3x8x7x128xf32>, %arg124: tensor<3x8x7x128xf32>, %arg125: tensor<3x8x7x128xf32>, %arg126: tensor<3x8x7x128xf32>, %arg127: tensor<3x8x7x128xf32>, %arg128: tensor<3x8x7x128xf32>) -> (tensor<3x1x4096xf32>, tensor<3x8x8x128xf32>, tensor<3x8x8x128xf32>, tensor<3x8x8x128xf32>, tensor<3x8x8x128xf32>, tensor<3x8x8x128xf32>, tensor<3x8x8x128xf32>, tensor<3x8x8x128xf32>, tensor<3x8x8x128xf32>, tensor<3x8x8x128xf32>, tensor<3x8x8x128xf32>, tensor<3x8x8x128xf32>, tensor<3x8x8x128xf32>, tensor<3x8x8x128xf32>, tensor<3x8x8x128xf32>, tensor<3x8x8x128xf32>, tensor<3x8x8x128xf32>, tensor<3x8x8x128xf32>, tensor<3x8x8x128xf32>, tensor<3x8x8x128xf32>, tensor<3x8x8x128xf32>, tensor<3x8x8x128xf32>, tensor<3x8x8x128xf32>, tensor<3x8x8x128xf32>, tensor<3x8x8x128xf32>, tensor<3x8x8x128xf32>, tensor<3x8x8x128xf32>, tensor<3x8x8x128xf32>, tensor<3x8x8x128xf32>, tensor<3x8x8x128xf32>, tensor<3x8x8x128xf32>, tensor<3x8x8x128xf32>, tensor<3x8x8x128xf32>, tensor<3x8x8x128xf32>, tensor<3x8x8x128xf32>, tensor<3x8x8x128xf32>, tensor<3x8x8x128xf32>, tensor<3x8x8x128xf32>, tensor<3x8x8x128xf32>, tensor<3x8x8x128xf32>, tensor<3x8x8x128xf32>, tensor<3x8x8x128xf32>, tensor<3x8x8x128xf32>, tensor<3x8x8x128xf32>, tensor<3x8x8x128xf32>, tensor<3x8x8x128xf32>, tensor<3x8x8x128xf32>, tensor<3x8x8x128xf32>, tensor<3x8x8x128xf32>, tensor<3x8x8x128xf32>, tensor<3x8x8x128xf32>, tensor<3x8x8x128xf32>, tensor<3x8x8x128xf32>, tensor<3x8x8x128xf32>, tensor<3x8x8x128xf32>, tensor<3x8x8x128xf32>, tensor<3x8x8x128xf32>, tensor<3x8x8x128xf32>, tensor<3x8x8x128xf32>, tensor<3x8x8x128xf32>, tensor<3x8x8x128xf32>, tensor<3x8x8x128xf32>, tensor<3x8x8x128xf32>, tensor<3x8x8x128xf32>, tensor<3x8x8x128xf32>) {
    %cst = stablehlo.constant dense<1.000000e+00> : tensor<1xf32>
    %cst_0 = stablehlo.constant dense<4.096000e+03> : tensor<f64>
    %cst_1 = stablehlo.constant dense<8.000000e+00> : tensor<f64>
    %cst_2 = stablehlo.constant dense<0.000000e+00> : tensor<3x4096xf32>
    %cst_3 = stablehlo.constant dense<11.3137083> : tensor<1xf32>
    %cst_4 = stablehlo.constant dense<9.99999974E-6> : tensor<1xf32>
    %cst_5 = stablehlo.constant dense<4.096000e+03> : tensor<1xf32>
    %cst_6 = stablehlo.constant dense<2.000000e+00> : tensor<1xf32>
    %c = stablehlo.constant dense<0> : tensor<1xi64>
    %c_7 = stablehlo.constant dense<0> : tensor<4096xi64>
    %c_8 = stablehlo.constant dense<1> : tensor<4096xi64>
    %c_9 = stablehlo.constant dense<0> : tensor<8xi64>
    %c_10 = stablehlo.constant dense<1> : tensor<8xi64>
    %c_11 = stablehlo.constant dense<7> : tensor<1xi64>
    %c_12 = stablehlo.constant dense<1> : tensor<1xi64>
    %cst_13 = stablehlo.constant dense<0.000000e+00> : tensor<4096x14336xf32>
    %cst_14 = stablehlo.constant dense<0.000000e+00> : tensor<14336x4096xf32>
    %cst_15 = stablehlo.constant dense<0.000000e+00> : tensor<8x4096xf32>
    %cst_16 = stablehlo.constant dense<0.000000e+00> : tensor<1024x4096xf32>
    %cst_17 = stablehlo.constant dense<0.000000e+00> : tensor<4096x4096xf32>
    %cst_18 = stablehlo.constant dense<0.000000e+00> : tensor<4096xf32>
    %cst_19 = stablehlo.constant dense<0.000000e+00> : tensor<32000x4096xf32>
    %c1_i64 = arith.constant 1 : i64
    %c0 = arith.constant 0 : index
    %c1 = arith.constant 1 : index
    %cst_20 = stablehlo.constant dense<0.000000e+00> : tensor<f32>
    %c_21 = stablehlo.constant dense<1> : tensor<2xi64>
    %c_22 = stablehlo.constant dense<0> : tensor<2xi64>
    %c_23 = stablehlo.constant dense<[-1, 4096]> : tensor<2xi64>
    %c2_i64 = arith.constant 2 : i64
    %c_24 = stablehlo.constant dense<[0, 1]> : tensor<2xi64>
    %c4096_i64 = arith.constant 4096 : i64
    %c4096 = arith.constant 4096 : index
    %cst_25 = stablehlo.constant dense<1.000000e+00> : tensor<f64>
    %0 = stablehlo.divide %cst_25, %cst_25 : tensor<f64>
    %1 = stablehlo.ceil %0 : tensor<f64>
    %2 = stablehlo.convert %1 : (tensor<f64>) -> tensor<i64>
    %3 = stablehlo.reshape %2 : (tensor<i64>) -> tensor<1xi64>
    %4 = stablehlo.dynamic_iota %3, dim = 0 : (tensor<1xi64>) -> tensor<1xi64>
    %5 = stablehlo.broadcast_in_dim %4, dims = [0] : (tensor<1xi64>) -> tensor<1xi64>
    %6 = stablehlo.multiply %5, %c_12 : tensor<1xi64>
    %7 = stablehlo.broadcast_in_dim %6, dims = [0] : (tensor<1xi64>) -> tensor<1xi64>
    %8 = stablehlo.add %7, %c_11 : tensor<1xi64>
    %9 = stablehlo.reshape %8 : (tensor<1xi64>) -> tensor<1x1xi64>
    %10 = stablehlo.reshape %9 : (tensor<1x1xi64>) -> tensor<1x1xi64>
    %11 = "stablehlo.gather"(%cst_19, %arg64) <{dimension_numbers = #stablehlo.gather<offset_dims = [2], collapsed_slice_dims = [0], start_index_map = [0], index_vector_dim = 2>, indices_are_sorted = false, slice_sizes = array<i64: 1, 4096>}> : (tensor<32000x4096xf32>, tensor<3x1xi64>) -> tensor<3x1x4096xf32>
    %12 = stablehlo.convert %11 : tensor<3x1x4096xf32>
    %13 = stablehlo.reshape %cst_6 : (tensor<1xf32>) -> tensor<f32>
    %14 = stablehlo.broadcast_in_dim %12, dims = [0, 1, 2] : (tensor<3x1x4096xf32>) -> tensor<3x1x4096xf32>
    %15 = stablehlo.broadcast_in_dim %13, dims = [] : (tensor<f32>) -> tensor<3x1x4096xf32>
    %16 = stablehlo.power %14, %15 : tensor<3x1x4096xf32>
    %17 = stablehlo.reduce(%16 init: %cst_20) applies stablehlo.add across dimensions = [2] : (tensor<3x1x4096xf32>, tensor<f32>) -> tensor<3x1xf32>
    %18 = stablehlo.reshape %17 : (tensor<3x1xf32>) -> tensor<3x1x1xf32>
    %19 = stablehlo.reshape %cst_5 : (tensor<1xf32>) -> tensor<f32>
    %20 = stablehlo.broadcast_in_dim %18, dims = [0, 1, 2] : (tensor<3x1x1xf32>) -> tensor<3x1x1xf32>
    %21 = stablehlo.broadcast_in_dim %19, dims = [] : (tensor<f32>) -> tensor<3x1x1xf32>
    %22 = stablehlo.divide %20, %21 : tensor<3x1x1xf32>
    %23 = stablehlo.reshape %cst_4 : (tensor<1xf32>) -> tensor<f32>
    %24 = stablehlo.broadcast_in_dim %22, dims = [0, 1, 2] : (tensor<3x1x1xf32>) -> tensor<3x1x1xf32>
    %25 = stablehlo.broadcast_in_dim %23, dims = [] : (tensor<f32>) -> tensor<3x1x1xf32>
    %26 = stablehlo.add %24, %25 : tensor<3x1x1xf32>
    %27 = stablehlo.rsqrt %26 : tensor<3x1x1xf32>
    %28 = stablehlo.broadcast_in_dim %27, dims = [0, 1, 2] : (tensor<3x1x1xf32>) -> tensor<3x1x4096xf32>
    %29 = stablehlo.multiply %14, %28 : tensor<3x1x4096xf32>
    %30 = stablehlo.broadcast_in_dim %29, dims = [0, 1, 2] : (tensor<3x1x4096xf32>) -> tensor<3x1x4096xf32>
    %31 = stablehlo.broadcast_in_dim %cst_18, dims = [2] : (tensor<4096xf32>) -> tensor<3x1x4096xf32>
    %32 = stablehlo.multiply %30, %31 : tensor<3x1x4096xf32>
    %33 = stablehlo.transpose %cst_17, dims = [1, 0] : (tensor<4096x4096xf32>) -> tensor<4096x4096xf32>
    %34 = stablehlo.reshape %32 : (tensor<3x1x4096xf32>) -> tensor<3x4096xf32>
    %35 = stablehlo.dot %34, %33 : (tensor<3x4096xf32>, tensor<4096x4096xf32>) -> tensor<3x4096xf32>
    %36 = stablehlo.reshape %35 : (tensor<3x4096xf32>) -> tensor<3x1x4096xf32>
    %37 = stablehlo.transpose %cst_16, dims = [1, 0] : (tensor<1024x4096xf32>) -> tensor<4096x1024xf32>
    %38 = stablehlo.dot %34, %37 : (tensor<3x4096xf32>, tensor<4096x1024xf32>) -> tensor<3x1024xf32>
    %39 = stablehlo.reshape %38 : (tensor<3x1024xf32>) -> tensor<3x1x1024xf32>
    %40 = stablehlo.reshape %36 : (tensor<3x1x4096xf32>) -> tensor<3x1x32x128xf32>
    %41 = stablehlo.transpose %40, dims = [0, 2, 1, 3] : (tensor<3x1x32x128xf32>) -> tensor<3x32x1x128xf32>
    %42 = stablehlo.reshape %39 : (tensor<3x1x1024xf32>) -> tensor<3x1x8x128xf32>
    %43 = stablehlo.transpose %42, dims = [0, 2, 1, 3] : (tensor<3x1x8x128xf32>) -> tensor<3x8x1x128xf32>
    %44 = stablehlo.slice %arg0 [0:8, 0:128] : (tensor<131072x128xf32>) -> tensor<8x128xf32>
    %45 = stablehlo.slice %arg1 [0:8, 0:128] : (tensor<131072x128xf32>) -> tensor<8x128xf32>
    %46 = stablehlo.reshape %10 : (tensor<1x1xi64>) -> tensor<1x1x1xi64>
    %47 = "stablehlo.gather"(%44, %46) <{dimension_numbers = #stablehlo.gather<offset_dims = [2], collapsed_slice_dims = [0], start_index_map = [0], index_vector_dim = 2>, indices_are_sorted = false, slice_sizes = array<i64: 1, 128>}> : (tensor<8x128xf32>, tensor<1x1x1xi64>) -> tensor<1x1x128xf32>
    %48 = stablehlo.reshape %47 : (tensor<1x1x128xf32>) -> tensor<1x1x1x128xf32>
    %49 = "stablehlo.gather"(%45, %46) <{dimension_numbers = #stablehlo.gather<offset_dims = [2], collapsed_slice_dims = [0], start_index_map = [0], index_vector_dim = 2>, indices_are_sorted = false, slice_sizes = array<i64: 1, 128>}> : (tensor<8x128xf32>, tensor<1x1x1xi64>) -> tensor<1x1x128xf32>
    %50 = stablehlo.reshape %49 : (tensor<1x1x128xf32>) -> tensor<1x1x1x128xf32>
    %51 = stablehlo.broadcast_in_dim %41, dims = [0, 1, 2, 3] : (tensor<3x32x1x128xf32>) -> tensor<3x32x1x128xf32>
    %52 = stablehlo.broadcast_in_dim %48, dims = [0, 1, 2, 3] : (tensor<1x1x1x128xf32>) -> tensor<3x32x1x128xf32>
    %53 = stablehlo.multiply %51, %52 : tensor<3x32x1x128xf32>
    %54 = stablehlo.slice %41 [0:3, 0:32, 0:1, 0:64] : (tensor<3x32x1x128xf32>) -> tensor<3x32x1x64xf32>
    %55 = stablehlo.slice %41 [0:3, 0:32, 0:1, 64:128] : (tensor<3x32x1x128xf32>) -> tensor<3x32x1x64xf32>
    %56 = stablehlo.negate %55 : tensor<3x32x1x64xf32>
    %57 = stablehlo.concatenate %56, %54, dim = 3 : (tensor<3x32x1x64xf32>, tensor<3x32x1x64xf32>) -> tensor<3x32x1x128xf32>
    %58 = stablehlo.broadcast_in_dim %57, dims = [0, 1, 2, 3] : (tensor<3x32x1x128xf32>) -> tensor<3x32x1x128xf32>
    %59 = stablehlo.broadcast_in_dim %50, dims = [0, 1, 2, 3] : (tensor<1x1x1x128xf32>) -> tensor<3x32x1x128xf32>
    %60 = stablehlo.multiply %58, %59 : tensor<3x32x1x128xf32>
    %61 = stablehlo.add %53, %60 : tensor<3x32x1x128xf32>
    %62 = stablehlo.broadcast_in_dim %43, dims = [0, 1, 2, 3] : (tensor<3x8x1x128xf32>) -> tensor<3x8x1x128xf32>
    %63 = stablehlo.broadcast_in_dim %48, dims = [0, 1, 2, 3] : (tensor<1x1x1x128xf32>) -> tensor<3x8x1x128xf32>
    %64 = stablehlo.multiply %62, %63 : tensor<3x8x1x128xf32>
    %65 = stablehlo.slice %43 [0:3, 0:8, 0:1, 0:64] : (tensor<3x8x1x128xf32>) -> tensor<3x8x1x64xf32>
    %66 = stablehlo.slice %43 [0:3, 0:8, 0:1, 64:128] : (tensor<3x8x1x128xf32>) -> tensor<3x8x1x64xf32>
    %67 = stablehlo.negate %66 : tensor<3x8x1x64xf32>
    %68 = stablehlo.concatenate %67, %65, dim = 3 : (tensor<3x8x1x64xf32>, tensor<3x8x1x64xf32>) -> tensor<3x8x1x128xf32>
    %69 = stablehlo.broadcast_in_dim %68, dims = [0, 1, 2, 3] : (tensor<3x8x1x128xf32>) -> tensor<3x8x1x128xf32>
    %70 = stablehlo.broadcast_in_dim %50, dims = [0, 1, 2, 3] : (tensor<1x1x1x128xf32>) -> tensor<3x8x1x128xf32>
    %71 = stablehlo.multiply %69, %70 : tensor<3x8x1x128xf32>
    %72 = stablehlo.add %64, %71 : tensor<3x8x1x128xf32>
    %73 = stablehlo.concatenate %arg65, %72, dim = 2 : (tensor<3x8x7x128xf32>, tensor<3x8x1x128xf32>) -> tensor<3x8x8x128xf32>
    %74 = stablehlo.concatenate %arg66, %43, dim = 2 : (tensor<3x8x7x128xf32>, tensor<3x8x1x128xf32>) -> tensor<3x8x8x128xf32>
    %75 = stablehlo.reshape %73 : (tensor<3x8x8x128xf32>) -> tensor<3x8x1x8x128xf32>
    %76 = stablehlo.broadcast_in_dim %75, dims = [0, 1, 2, 3, 4] : (tensor<3x8x1x8x128xf32>) -> tensor<3x8x4x8x128xf32>
    %77 = stablehlo.reshape %76 : (tensor<3x8x4x8x128xf32>) -> tensor<3x32x8x128xf32>
    %78 = stablehlo.reshape %74 : (tensor<3x8x8x128xf32>) -> tensor<3x8x1x8x128xf32>
    %79 = stablehlo.broadcast_in_dim %78, dims = [0, 1, 2, 3, 4] : (tensor<3x8x1x8x128xf32>) -> tensor<3x8x4x8x128xf32>
    %80 = stablehlo.reshape %79 : (tensor<3x8x4x8x128xf32>) -> tensor<3x32x8x128xf32>
    %81 = stablehlo.transpose %77, dims = [0, 1, 3, 2] : (tensor<3x32x8x128xf32>) -> tensor<3x32x128x8xf32>
    %82 = stablehlo.reshape %61 : (tensor<3x32x1x128xf32>) -> tensor<96x1x128xf32>
    %83 = stablehlo.reshape %81 : (tensor<3x32x128x8xf32>) -> tensor<96x128x8xf32>
    %84 = stablehlo.broadcast_in_dim %83, dims = [0, 1, 2] : (tensor<96x128x8xf32>) -> tensor<96x128x8xf32>
    %85 = stablehlo.dot_general %82, %84, batching_dims = [0] x [0], contracting_dims = [2] x [1] : (tensor<96x1x128xf32>, tensor<96x128x8xf32>) -> tensor<96x1x8xf32>
    %86 = stablehlo.reshape %85 : (tensor<96x1x8xf32>) -> tensor<3x32x1x8xf32>
    %87 = stablehlo.reshape %cst_3 : (tensor<1xf32>) -> tensor<f32>
    %88 = stablehlo.broadcast_in_dim %86, dims = [0, 1, 2, 3] : (tensor<3x32x1x8xf32>) -> tensor<3x32x1x8xf32>
    %89 = stablehlo.broadcast_in_dim %87, dims = [] : (tensor<f32>) -> tensor<3x32x1x8xf32>
    %90 = stablehlo.divide %88, %89 : tensor<3x32x1x8xf32>
    %91 = stablehlo.custom_call @byteir.softmax(%90) {byteir_attrs = {axis = 3 : i64}} : (tensor<3x32x1x8xf32>) -> tensor<3x32x1x8xf32>
    %92 = stablehlo.reshape %91 : (tensor<3x32x1x8xf32>) -> tensor<96x1x8xf32>
    %93 = stablehlo.reshape %80 : (tensor<3x32x8x128xf32>) -> tensor<96x8x128xf32>
    %94 = stablehlo.broadcast_in_dim %93, dims = [0, 1, 2] : (tensor<96x8x128xf32>) -> tensor<96x8x128xf32>
    %95 = stablehlo.dot_general %92, %94, batching_dims = [0] x [0], contracting_dims = [2] x [1] : (tensor<96x1x8xf32>, tensor<96x8x128xf32>) -> tensor<96x1x128xf32>
    %96 = stablehlo.reshape %95 : (tensor<96x1x128xf32>) -> tensor<3x32x1x128xf32>
    %97 = stablehlo.transpose %96, dims = [0, 2, 1, 3] : (tensor<3x32x1x128xf32>) -> tensor<3x1x32x128xf32>
    %98 = stablehlo.reshape %97 : (tensor<3x1x32x128xf32>) -> tensor<3x1x4096xf32>
    %99 = stablehlo.reshape %98 : (tensor<3x1x4096xf32>) -> tensor<3x4096xf32>
    %100 = stablehlo.dot %99, %33 : (tensor<3x4096xf32>, tensor<4096x4096xf32>) -> tensor<3x4096xf32>
    %101 = stablehlo.reshape %100 : (tensor<3x4096xf32>) -> tensor<3x1x4096xf32>
    %102 = stablehlo.add %12, %101 : tensor<3x1x4096xf32>
    %103 = stablehlo.broadcast_in_dim %102, dims = [0, 1, 2] : (tensor<3x1x4096xf32>) -> tensor<3x1x4096xf32>
    %104 = stablehlo.power %103, %15 : tensor<3x1x4096xf32>
    %105 = stablehlo.reduce(%104 init: %cst_20) applies stablehlo.add across dimensions = [2] : (tensor<3x1x4096xf32>, tensor<f32>) -> tensor<3x1xf32>
    %106 = stablehlo.reshape %105 : (tensor<3x1xf32>) -> tensor<3x1x1xf32>
    %107 = stablehlo.broadcast_in_dim %106, dims = [0, 1, 2] : (tensor<3x1x1xf32>) -> tensor<3x1x1xf32>
    %108 = stablehlo.divide %107, %21 : tensor<3x1x1xf32>
    %109 = stablehlo.broadcast_in_dim %108, dims = [0, 1, 2] : (tensor<3x1x1xf32>) -> tensor<3x1x1xf32>
    %110 = stablehlo.add %109, %25 : tensor<3x1x1xf32>
    %111 = stablehlo.rsqrt %110 : tensor<3x1x1xf32>
    %112 = stablehlo.broadcast_in_dim %111, dims = [0, 1, 2] : (tensor<3x1x1xf32>) -> tensor<3x1x4096xf32>
    %113 = stablehlo.multiply %103, %112 : tensor<3x1x4096xf32>
    %114 = stablehlo.broadcast_in_dim %113, dims = [0, 1, 2] : (tensor<3x1x4096xf32>) -> tensor<3x1x4096xf32>
    %115 = stablehlo.multiply %114, %31 : tensor<3x1x4096xf32>
    %116 = stablehlo.reshape %115 : (tensor<3x1x4096xf32>) -> tensor<3x4096xf32>
    %117 = stablehlo.transpose %cst_15, dims = [1, 0] : (tensor<8x4096xf32>) -> tensor<4096x8xf32>
    %118 = stablehlo.dot %116, %117 : (tensor<3x4096xf32>, tensor<4096x8xf32>) -> tensor<3x8xf32>
    %119 = stablehlo.custom_call @byteir.softmax(%118) {byteir_attrs = {axis = 1 : i64}} : (tensor<3x8xf32>) -> tensor<3x8xf32>
    %120:2 = stablehlo.custom_call @byteir.top_k(%119) {byteir_attrs = {axis = [1], k = 2 : i64, sorted = true}} : (tensor<3x8xf32>) -> (tensor<3x2xf32>, tensor<3x2xi64>)
    %121 = stablehlo.reduce(%120#0 init: %cst_20) applies stablehlo.add across dimensions = [1] : (tensor<3x2xf32>, tensor<f32>) -> tensor<3xf32>
    %122 = stablehlo.reshape %121 : (tensor<3xf32>) -> tensor<3x1xf32>
    %123 = stablehlo.broadcast_in_dim %120#0, dims = [0, 1] : (tensor<3x2xf32>) -> tensor<3x2xf32>
    %124 = stablehlo.broadcast_in_dim %122, dims = [0, 1] : (tensor<3x1xf32>) -> tensor<3x2xf32>
    %125 = stablehlo.divide %123, %124 : tensor<3x2xf32>
    %126 = stablehlo.divide %cst_1, %cst_25 : tensor<f64>
    %127 = stablehlo.ceil %126 : tensor<f64>
    %128 = stablehlo.convert %127 : (tensor<f64>) -> tensor<i64>
    %129 = stablehlo.reshape %128 : (tensor<i64>) -> tensor<1xi64>
    %130 = stablehlo.dynamic_iota %129, dim = 0 : (tensor<1xi64>) -> tensor<8xi64>
    %131 = stablehlo.broadcast_in_dim %130, dims = [0] : (tensor<8xi64>) -> tensor<8xi64>
    %132 = stablehlo.multiply %131, %c_10 : tensor<8xi64>
    %133 = stablehlo.broadcast_in_dim %132, dims = [0] : (tensor<8xi64>) -> tensor<8xi64>
    %134 = stablehlo.add %133, %c_9 : tensor<8xi64>
    %135 = stablehlo.reshape %120#1 : (tensor<3x2xi64>) -> tensor<3x2x1xi64>
    %136 = stablehlo.broadcast_in_dim %135, dims = [0, 1, 2] : (tensor<3x2x1xi64>) -> tensor<3x2x8xi64>
    %137 = stablehlo.broadcast_in_dim %134, dims = [2] : (tensor<8xi64>) -> tensor<3x2x8xi64>
    %138 = stablehlo.compare  EQ, %136, %137,  SIGNED : (tensor<3x2x8xi64>, tensor<3x2x8xi64>) -> tensor<3x2x8xi1>
    %139 = stablehlo.convert %138 : (tensor<3x2x8xi1>) -> tensor<3x2x8xi64>
    %140 = stablehlo.transpose %139, dims = [2, 1, 0] : (tensor<3x2x8xi64>) -> tensor<8x2x3xi64>
    %141 = stablehlo.slice %140 [0:1, 0:2, 0:3] : (tensor<8x2x3xi64>) -> tensor<1x2x3xi64>
    %142 = stablehlo.reshape %141 : (tensor<1x2x3xi64>) -> tensor<2x3xi64>
    %143 = stablehlo.custom_call @byteir.non_zero(%142) {byteir_attrs = {}} : (tensor<2x3xi64>) -> tensor<?x2xi64>
    %dim = tensor.dim %143, %c0 : tensor<?x2xi64>
    %144 = arith.index_cast %dim : index to i64
    %from_elements = tensor.from_elements %144, %c1_i64 : tensor<2xi64>
    %145 = stablehlo.real_dynamic_slice %143, %c_22, %from_elements, %c_21 : (tensor<?x2xi64>, tensor<2xi64>, tensor<2xi64>, tensor<2xi64>) -> tensor<?x1xi64>
    %dim_26 = tensor.dim %145, %c0 : tensor<?x1xi64>
    %146 = arith.index_cast %dim_26 : index to i64
    %from_elements_27 = tensor.from_elements %146 : tensor<1xi64>
    %147 = stablehlo.dynamic_reshape %145, %from_elements_27 : (tensor<?x1xi64>, tensor<1xi64>) -> tensor<?xi64>
    %from_elements_28 = tensor.from_elements %144, %c2_i64 : tensor<2xi64>
    %148 = stablehlo.real_dynamic_slice %143, %c_24, %from_elements_28, %c_21 : (tensor<?x2xi64>, tensor<2xi64>, tensor<2xi64>, tensor<2xi64>) -> tensor<?x1xi64>
    %dim_29 = tensor.dim %148, %c0 : tensor<?x1xi64>
    %149 = arith.index_cast %dim_29 : index to i64
    %from_elements_30 = tensor.from_elements %149 : tensor<1xi64>
    %150 = stablehlo.dynamic_reshape %148, %from_elements_30 : (tensor<?x1xi64>, tensor<1xi64>) -> tensor<?xi64>
    %151 = stablehlo.reshape %116 : (tensor<3x4096xf32>) -> tensor<1x3x4096xf32>
    %152 = stablehlo.divide %cst_0, %cst_25 : tensor<f64>
    %153 = stablehlo.ceil %152 : tensor<f64>
    %154 = stablehlo.convert %153 : (tensor<f64>) -> tensor<i64>
    %155 = stablehlo.reshape %154 : (tensor<i64>) -> tensor<1xi64>
    %156 = stablehlo.dynamic_iota %155, dim = 0 : (tensor<1xi64>) -> tensor<4096xi64>
    %157 = stablehlo.broadcast_in_dim %156, dims = [0] : (tensor<4096xi64>) -> tensor<4096xi64>
    %158 = stablehlo.multiply %157, %c_8 : tensor<4096xi64>
    %159 = stablehlo.broadcast_in_dim %158, dims = [0] : (tensor<4096xi64>) -> tensor<4096xi64>
    %160 = stablehlo.add %159, %c_7 : tensor<4096xi64>
    %dim_31 = tensor.dim %150, %c0 : tensor<?xi64>
    %161 = arith.index_cast %dim_31 : index to i64
    %from_elements_32 = tensor.from_elements %161, %c1_i64 : tensor<2xi64>
    %162 = stablehlo.dynamic_reshape %150, %from_elements_32 : (tensor<?xi64>, tensor<2xi64>) -> tensor<?x1xi64>
    %163 = stablehlo.divide %cst_25, %cst_25 : tensor<f64>
    %164 = stablehlo.ceil %163 : tensor<f64>
    %165 = stablehlo.convert %164 : (tensor<f64>) -> tensor<i64>
    %166 = stablehlo.reshape %165 : (tensor<i64>) -> tensor<1xi64>
    %167 = stablehlo.dynamic_iota %166, dim = 0 : (tensor<1xi64>) -> tensor<1xi64>
    %168 = stablehlo.broadcast_in_dim %167, dims = [0] : (tensor<1xi64>) -> tensor<1xi64>
    %169 = stablehlo.multiply %168, %c_12 : tensor<1xi64>
    %170 = stablehlo.broadcast_in_dim %169, dims = [0] : (tensor<1xi64>) -> tensor<1xi64>
    %171 = stablehlo.add %170, %c : tensor<1xi64>
    %172 = stablehlo.reshape %171 : (tensor<1xi64>) -> tensor<1x1xi64>
    %173 = stablehlo.reshape %172 : (tensor<1x1xi64>) -> tensor<1x1x1xi64>
    %dim_33 = tensor.dim %162, %c0 : tensor<?x1xi64>
    %174 = arith.index_cast %dim_33 : index to i64
    %from_elements_34 = tensor.from_elements %c1_i64, %174, %c4096_i64 : tensor<3xi64>
    %175 = stablehlo.dynamic_broadcast_in_dim %173, %from_elements_34, dims = [0, 1, 2] : (tensor<1x1x1xi64>, tensor<3xi64>) -> tensor<1x?x4096xi64>
    %dim_35 = tensor.dim %175, %c1 : tensor<1x?x4096xi64>
    %176 = arith.index_cast %dim_35 : index to i64
    %from_elements_36 = tensor.from_elements %c1_i64, %176, %c4096_i64, %c1_i64 : tensor<4xi64>
    %177 = stablehlo.dynamic_reshape %175, %from_elements_36 : (tensor<1x?x4096xi64>, tensor<4xi64>) -> tensor<1x?x4096x1xi64>
    %178 = stablehlo.dynamic_broadcast_in_dim %162, %from_elements_34, dims = [1, 2] : (tensor<?x1xi64>, tensor<3xi64>) -> tensor<1x?x4096xi64>
    %dim_37 = tensor.dim %178, %c1 : tensor<1x?x4096xi64>
    %179 = arith.index_cast %dim_37 : index to i64
    %from_elements_38 = tensor.from_elements %c1_i64, %179, %c4096_i64, %c1_i64 : tensor<4xi64>
    %180 = stablehlo.dynamic_reshape %178, %from_elements_38 : (tensor<1x?x4096xi64>, tensor<4xi64>) -> tensor<1x?x4096x1xi64>
    %181 = stablehlo.dynamic_broadcast_in_dim %160, %from_elements_34, dims = [2] : (tensor<4096xi64>, tensor<3xi64>) -> tensor<1x?x4096xi64>
    %dim_39 = tensor.dim %181, %c1 : tensor<1x?x4096xi64>
    %182 = arith.index_cast %dim_39 : index to i64
    %from_elements_40 = tensor.from_elements %c1_i64, %182, %c4096_i64, %c1_i64 : tensor<4xi64>
    %183 = stablehlo.dynamic_reshape %181, %from_elements_40 : (tensor<1x?x4096xi64>, tensor<4xi64>) -> tensor<1x?x4096x1xi64>
    %184 = stablehlo.concatenate %177, %180, %183, dim = 3 : (tensor<1x?x4096x1xi64>, tensor<1x?x4096x1xi64>, tensor<1x?x4096x1xi64>) -> tensor<1x?x4096x3xi64>
    %185 = "stablehlo.gather"(%151, %184) <{dimension_numbers = #stablehlo.gather<collapsed_slice_dims = [0, 1, 2], start_index_map = [0, 1, 2], index_vector_dim = 3>, indices_are_sorted = false, slice_sizes = array<i64: 1, 1, 1>}> : (tensor<1x3x4096xf32>, tensor<1x?x4096x3xi64>) -> tensor<1x?x4096xf32>
    %186 = shape.shape_of %185 : tensor<1x?x4096xf32> -> tensor<3xindex>
    %187 = shape.num_elements %186 : tensor<3xindex> -> index
    %188 = stablehlo.compute_reshape_shape %187, %c_23 : (index, tensor<2xi64>) -> tensor<2xi64>
    %189 = stablehlo.dynamic_reshape %185, %188 : (tensor<1x?x4096xf32>, tensor<2xi64>) -> tensor<?x4096xf32>
    %190 = stablehlo.transpose %cst_14, dims = [1, 0] : (tensor<14336x4096xf32>) -> tensor<4096x14336xf32>
    %191 = stablehlo.dot %189, %190 : (tensor<?x4096xf32>, tensor<4096x14336xf32>) -> tensor<?x14336xf32>
    %192 = stablehlo.logistic %191 : tensor<?x14336xf32>
    %193 = shape.shape_of %192 : tensor<?x14336xf32> -> tensor<2xindex>
    %194 = shape.shape_of %191 : tensor<?x14336xf32> -> tensor<2xindex>
    %195 = shape.cstr_broadcastable %193, %194 : tensor<2xindex>, tensor<2xindex>
    %196 = shape.assuming %195 -> (tensor<?x14336xf32>) {
      %19688 = shape.broadcast %193, %194 : tensor<2xindex>, tensor<2xindex> -> tensor<2xindex>
      %19689 = stablehlo.dynamic_broadcast_in_dim %192, %19688, dims = [0, 1] : (tensor<?x14336xf32>, tensor<2xindex>) -> tensor<?x14336xf32>
      %19690 = stablehlo.dynamic_broadcast_in_dim %191, %19688, dims = [0, 1] : (tensor<?x14336xf32>, tensor<2xindex>) -> tensor<?x14336xf32>
      %19691 = stablehlo.multiply %19689, %19690 : tensor<?x14336xf32>
      shape.assuming_yield %19691 : tensor<?x14336xf32>
    }
    %197 = shape.shape_of %196 : tensor<?x14336xf32> -> tensor<2xindex>
    %198 = shape.cstr_broadcastable %197, %194 : tensor<2xindex>, tensor<2xindex>
    %199 = shape.assuming %198 -> (tensor<?x14336xf32>) {
      %19688 = shape.broadcast %197, %194 : tensor<2xindex>, tensor<2xindex> -> tensor<2xindex>
      %19689 = stablehlo.dynamic_broadcast_in_dim %196, %19688, dims = [0, 1] : (tensor<?x14336xf32>, tensor<2xindex>) -> tensor<?x14336xf32>
      %19690 = stablehlo.dynamic_broadcast_in_dim %191, %19688, dims = [0, 1] : (tensor<?x14336xf32>, tensor<2xindex>) -> tensor<?x14336xf32>
      %19691 = stablehlo.multiply %19689, %19690 : tensor<?x14336xf32>
      shape.assuming_yield %19691 : tensor<?x14336xf32>
    }
    %200 = stablehlo.transpose %cst_13, dims = [1, 0] : (tensor<4096x14336xf32>) -> tensor<14336x4096xf32>
    %201 = stablehlo.dot %199, %200 : (tensor<?x14336xf32>, tensor<14336x4096xf32>) -> tensor<?x4096xf32>
    %202 = stablehlo.reshape %125 : (tensor<3x2xf32>) -> tensor<3x2x1xf32>
    %dim_41 = tensor.dim %150, %c0 : tensor<?xi64>
    %203 = arith.index_cast %dim_41 : index to i64
    %from_elements_42 = tensor.from_elements %203, %c1_i64 : tensor<2xi64>
    %204 = stablehlo.dynamic_reshape %150, %from_elements_42 : (tensor<?xi64>, tensor<2xi64>) -> tensor<?x1xi64>
    %dim_43 = tensor.dim %147, %c0 : tensor<?xi64>
    %205 = arith.index_cast %dim_43 : index to i64
    %from_elements_44 = tensor.from_elements %205, %c1_i64 : tensor<2xi64>
    %206 = stablehlo.dynamic_reshape %147, %from_elements_44 : (tensor<?xi64>, tensor<2xi64>) -> tensor<?x1xi64>
    %207 = stablehlo.concatenate %204, %206, dim = 1 : (tensor<?x1xi64>, tensor<?x1xi64>) -> tensor<?x2xi64>
    %208 = "stablehlo.gather"(%202, %207) <{dimension_numbers = #stablehlo.gather<offset_dims = [1], collapsed_slice_dims = [0, 1], start_index_map = [0, 1], index_vector_dim = 1>, indices_are_sorted = false, slice_sizes = array<i64: 1, 1, 1>}> : (tensor<3x2x1xf32>, tensor<?x2xi64>) -> tensor<?x1xf32>
    %209 = shape.shape_of %201 : tensor<?x4096xf32> -> tensor<2xindex>
    %210 = shape.shape_of %208 : tensor<?x1xf32> -> tensor<2xindex>
    %211 = shape.cstr_broadcastable %209, %210 : tensor<2xindex>, tensor<2xindex>
    %212 = shape.assuming %211 -> (tensor<?x4096xf32>) {
      %19688 = shape.broadcast %209, %210 : tensor<2xindex>, tensor<2xindex> -> tensor<2xindex>
      %19689 = stablehlo.dynamic_broadcast_in_dim %201, %19688, dims = [0, 1] : (tensor<?x4096xf32>, tensor<2xindex>) -> tensor<?x4096xf32>
      %19690 = stablehlo.dynamic_broadcast_in_dim %208, %19688, dims = [0, 1] : (tensor<?x1xf32>, tensor<2xindex>) -> tensor<?x4096xf32>
      %19691 = stablehlo.multiply %19689, %19690 : tensor<?x4096xf32>
      shape.assuming_yield %19691 : tensor<?x4096xf32>
    }
    %213 = stablehlo.reshape %cst : (tensor<1xf32>) -> tensor<f32>
    %214 = shape.shape_of %212 : tensor<?x4096xf32> -> tensor<2xindex>
    %215 = stablehlo.dynamic_broadcast_in_dim %212, %214, dims = [0, 1] : (tensor<?x4096xf32>, tensor<2xindex>) -> tensor<?x4096xf32>
    %216 = stablehlo.dynamic_broadcast_in_dim %213, %214, dims = [] : (tensor<f32>, tensor<2xindex>) -> tensor<?x4096xf32>
    %217 = stablehlo.multiply %215, %216 : tensor<?x4096xf32>
    %dim_45 = tensor.dim %162, %c0 : tensor<?x1xi64>
    %218 = arith.index_cast %dim_45 : index to i64
    %dim_46 = tensor.dim %212, %c0 : tensor<?x4096xf32>
    %219 = arith.index_cast %dim_46 : index to i64
    %220 = arith.maxsi %218, %219 : i64
    %221 = arith.index_cast %220 : i64 to index
    %from_elements_47 = tensor.from_elements %221, %c4096 : tensor<2xindex>
    %222 = stablehlo.dynamic_broadcast_in_dim %162, %from_elements_47, dims = [0, 1] : (tensor<?x1xi64>, tensor<2xindex>) -> tensor<?x4096xi64>
    %dim_48 = tensor.dim %222, %c0 : tensor<?x4096xi64>
    %223 = arith.index_cast %dim_48 : index to i64
    %from_elements_49 = tensor.from_elements %223, %c4096_i64 : tensor<2xi64>
    %224 = stablehlo.real_dynamic_slice %217, %c_22, %from_elements_49, %c_21 : (tensor<?x4096xf32>, tensor<2xi64>, tensor<2xi64>, tensor<2xi64>) -> tensor<?x4096xf32>
    %from_elements_50 = tensor.from_elements %223, %c4096_i64, %c1_i64 : tensor<3xi64>
    %225 = stablehlo.dynamic_reshape %222, %from_elements_50 : (tensor<?x4096xi64>, tensor<3xi64>) -> tensor<?x4096x1xi64>
    %226 = stablehlo.dynamic_iota %from_elements_50, dim = 1 : (tensor<3xi64>) -> tensor<?x4096x1xi64>
    %227 = stablehlo.concatenate %225, %226, dim = 2 : (tensor<?x4096x1xi64>, tensor<?x4096x1xi64>) -> tensor<?x4096x2xi64>
    %228 = "stablehlo.scatter"(%cst_2, %227, %224) <{indices_are_sorted = false, scatter_dimension_numbers = #stablehlo.scatter<inserted_window_dims = [0, 1], scatter_dims_to_operand_dims = [0, 1], index_vector_dim = 2>, unique_indices = false}> ({
    ^bb0(%arg129: tensor<f32>, %arg130: tensor<f32>):
      %19688 = stablehlo.add %arg129, %arg130 : tensor<f32>
      stablehlo.return %19688 : tensor<f32>
    }) : (tensor<3x4096xf32>, tensor<?x4096x2xi64>, tensor<?x4096xf32>) -> tensor<3x4096xf32>
    %229 = stablehlo.slice %140 [1:2, 0:2, 0:3] : (tensor<8x2x3xi64>) -> tensor<1x2x3xi64>
    %230 = stablehlo.reshape %229 : (tensor<1x2x3xi64>) -> tensor<2x3xi64>
    %231 = stablehlo.custom_call @byteir.non_zero(%230) {byteir_attrs = {}} : (tensor<2x3xi64>) -> tensor<?x2xi64>
    %dim_51 = tensor.dim %231, %c0 : tensor<?x2xi64>
    %232 = arith.index_cast %dim_51 : index to i64
    %from_elements_52 = tensor.from_elements %232, %c1_i64 : tensor<2xi64>
    %233 = stablehlo.real_dynamic_slice %231, %c_22, %from_elements_52, %c_21 : (tensor<?x2xi64>, tensor<2xi64>, tensor<2xi64>, tensor<2xi64>) -> tensor<?x1xi64>
    %dim_53 = tensor.dim %233, %c0 : tensor<?x1xi64>
    %234 = arith.index_cast %dim_53 : index to i64
    %from_elements_54 = tensor.from_elements %234 : tensor<1xi64>
    %235 = stablehlo.dynamic_reshape %233, %from_elements_54 : (tensor<?x1xi64>, tensor<1xi64>) -> tensor<?xi64>
    %from_elements_55 = tensor.from_elements %232, %c2_i64 : tensor<2xi64>
    %236 = stablehlo.real_dynamic_slice %231, %c_24, %from_elements_55, %c_21 : (tensor<?x2xi64>, tensor<2xi64>, tensor<2xi64>, tensor<2xi64>) -> tensor<?x1xi64>
    %dim_56 = tensor.dim %236, %c0 : tensor<?x1xi64>
    %237 = arith.index_cast %dim_56 : index to i64
    %from_elements_57 = tensor.from_elements %237 : tensor<1xi64>
    %238 = stablehlo.dynamic_reshape %236, %from_elements_57 : (tensor<?x1xi64>, tensor<1xi64>) -> tensor<?xi64>
    %dim_58 = tensor.dim %238, %c0 : tensor<?xi64>
    %239 = arith.index_cast %dim_58 : index to i64
    %from_elements_59 = tensor.from_elements %239, %c1_i64 : tensor<2xi64>
    %240 = stablehlo.dynamic_reshape %238, %from_elements_59 : (tensor<?xi64>, tensor<2xi64>) -> tensor<?x1xi64>
    %dim_60 = tensor.dim %240, %c0 : tensor<?x1xi64>
    %241 = arith.index_cast %dim_60 : index to i64
    %from_elements_61 = tensor.from_elements %c1_i64, %241, %c4096_i64 : tensor<3xi64>
    %242 = stablehlo.dynamic_broadcast_in_dim %173, %from_elements_61, dims = [0, 1, 2] : (tensor<1x1x1xi64>, tensor<3xi64>) -> tensor<1x?x4096xi64>
    %dim_62 = tensor.dim %242, %c1 : tensor<1x?x4096xi64>
    %243 = arith.index_cast %dim_62 : index to i64
    %from_elements_63 = tensor.from_elements %c1_i64, %243, %c4096_i64, %c1_i64 : tensor<4xi64>
    %244 = stablehlo.dynamic_reshape %242, %from_elements_63 : (tensor<1x?x4096xi64>, tensor<4xi64>) -> tensor<1x?x4096x1xi64>
    %245 = stablehlo.dynamic_broadcast_in_dim %240, %from_elements_61, dims = [1, 2] : (tensor<?x1xi64>, tensor<3xi64>) -> tensor<1x?x4096xi64>
    %dim_64 = tensor.dim %245, %c1 : tensor<1x?x4096xi64>
    %246 = arith.index_cast %dim_64 : index to i64
    %from_elements_65 = tensor.from_elements %c1_i64, %246, %c4096_i64, %c1_i64 : tensor<4xi64>
    %247 = stablehlo.dynamic_reshape %245, %from_elements_65 : (tensor<1x?x4096xi64>, tensor<4xi64>) -> tensor<1x?x4096x1xi64>
    %248 = stablehlo.dynamic_broadcast_in_dim %160, %from_elements_61, dims = [2] : (tensor<4096xi64>, tensor<3xi64>) -> tensor<1x?x4096xi64>
    %dim_66 = tensor.dim %248, %c1 : tensor<1x?x4096xi64>
    %249 = arith.index_cast %dim_66 : index to i64
    %from_elements_67 = tensor.from_elements %c1_i64, %249, %c4096_i64, %c1_i64 : tensor<4xi64>
    %250 = stablehlo.dynamic_reshape %248, %from_elements_67 : (tensor<1x?x4096xi64>, tensor<4xi64>) -> tensor<1x?x4096x1xi64>
    %251 = stablehlo.concatenate %244, %247, %250, dim = 3 : (tensor<1x?x4096x1xi64>, tensor<1x?x4096x1xi64>, tensor<1x?x4096x1xi64>) -> tensor<1x?x4096x3xi64>
    %252 = "stablehlo.gather"(%151, %251) <{dimension_numbers = #stablehlo.gather<collapsed_slice_dims = [0, 1, 2], start_index_map = [0, 1, 2], index_vector_dim = 3>, indices_are_sorted = false, slice_sizes = array<i64: 1, 1, 1>}> : (tensor<1x3x4096xf32>, tensor<1x?x4096x3xi64>) -> tensor<1x?x4096xf32>
    %253 = shape.shape_of %252 : tensor<1x?x4096xf32> -> tensor<3xindex>
    %254 = shape.num_elements %253 : tensor<3xindex> -> index
    %255 = stablehlo.compute_reshape_shape %254, %c_23 : (index, tensor<2xi64>) -> tensor<2xi64>
    %256 = stablehlo.dynamic_reshape %252, %255 : (tensor<1x?x4096xf32>, tensor<2xi64>) -> tensor<?x4096xf32>
    %257 = stablehlo.dot %256, %190 : (tensor<?x4096xf32>, tensor<4096x14336xf32>) -> tensor<?x14336xf32>
    %258 = stablehlo.logistic %257 : tensor<?x14336xf32>
    %259 = shape.shape_of %258 : tensor<?x14336xf32> -> tensor<2xindex>
    %260 = shape.shape_of %257 : tensor<?x14336xf32> -> tensor<2xindex>
    %261 = shape.cstr_broadcastable %259, %260 : tensor<2xindex>, tensor<2xindex>
    %262 = shape.assuming %261 -> (tensor<?x14336xf32>) {
      %19688 = shape.broadcast %259, %260 : tensor<2xindex>, tensor<2xindex> -> tensor<2xindex>
      %19689 = stablehlo.dynamic_broadcast_in_dim %258, %19688, dims = [0, 1] : (tensor<?x14336xf32>, tensor<2xindex>) -> tensor<?x14336xf32>
      %19690 = stablehlo.dynamic_broadcast_in_dim %257, %19688, dims = [0, 1] : (tensor<?x14336xf32>, tensor<2xindex>) -> tensor<?x14336xf32>
      %19691 = stablehlo.multiply %19689, %19690 : tensor<?x14336xf32>
      shape.assuming_yield %19691 : tensor<?x14336xf32>
    }
    %263 = shape.shape_of %262 : tensor<?x14336xf32> -> tensor<2xindex>
    %264 = shape.cstr_broadcastable %263, %260 : tensor<2xindex>, tensor<2xindex>
    %265 = shape.assuming %264 -> (tensor<?x14336xf32>) {
      %19688 = shape.broadcast %263, %260 : tensor<2xindex>, tensor<2xindex> -> tensor<2xindex>
      %19689 = stablehlo.dynamic_broadcast_in_dim %262, %19688, dims = [0, 1] : (tensor<?x14336xf32>, tensor<2xindex>) -> tensor<?x14336xf32>
      %19690 = stablehlo.dynamic_broadcast_in_dim %257, %19688, dims = [0, 1] : (tensor<?x14336xf32>, tensor<2xindex>) -> tensor<?x14336xf32>
      %19691 = stablehlo.multiply %19689, %19690 : tensor<?x14336xf32>
      shape.assuming_yield %19691 : tensor<?x14336xf32>
    }
    %266 = stablehlo.dot %265, %200 : (tensor<?x14336xf32>, tensor<14336x4096xf32>) -> tensor<?x4096xf32>
    %dim_68 = tensor.dim %238, %c0 : tensor<?xi64>
    %267 = arith.index_cast %dim_68 : index to i64
    %from_elements_69 = tensor.from_elements %267, %c1_i64 : tensor<2xi64>
    %268 = stablehlo.dynamic_reshape %238, %from_elements_69 : (tensor<?xi64>, tensor<2xi64>) -> tensor<?x1xi64>
    %dim_70 = tensor.dim %235, %c0 : tensor<?xi64>
    %269 = arith.index_cast %dim_70 : index to i64
    %from_elements_71 = tensor.from_elements %269, %c1_i64 : tensor<2xi64>
    %270 = stablehlo.dynamic_reshape %235, %from_elements_71 : (tensor<?xi64>, tensor<2xi64>) -> tensor<?x1xi64>
    %271 = stablehlo.concatenate %268, %270, dim = 1 : (tensor<?x1xi64>, tensor<?x1xi64>) -> tensor<?x2xi64>
    %272 = "stablehlo.gather"(%202, %271) <{dimension_numbers = #stablehlo.gather<offset_dims = [1], collapsed_slice_dims = [0, 1], start_index_map = [0, 1], index_vector_dim = 1>, indices_are_sorted = false, slice_sizes = array<i64: 1, 1, 1>}> : (tensor<3x2x1xf32>, tensor<?x2xi64>) -> tensor<?x1xf32>
    %273 = shape.shape_of %266 : tensor<?x4096xf32> -> tensor<2xindex>
    %274 = shape.shape_of %272 : tensor<?x1xf32> -> tensor<2xindex>
    %275 = shape.cstr_broadcastable %273, %274 : tensor<2xindex>, tensor<2xindex>
    %276 = shape.assuming %275 -> (tensor<?x4096xf32>) {
      %19688 = shape.broadcast %273, %274 : tensor<2xindex>, tensor<2xindex> -> tensor<2xindex>
      %19689 = stablehlo.dynamic_broadcast_in_dim %266, %19688, dims = [0, 1] : (tensor<?x4096xf32>, tensor<2xindex>) -> tensor<?x4096xf32>
      %19690 = stablehlo.dynamic_broadcast_in_dim %272, %19688, dims = [0, 1] : (tensor<?x1xf32>, tensor<2xindex>) -> tensor<?x4096xf32>
      %19691 = stablehlo.multiply %19689, %19690 : tensor<?x4096xf32>
      shape.assuming_yield %19691 : tensor<?x4096xf32>
    }
    %277 = shape.shape_of %276 : tensor<?x4096xf32> -> tensor<2xindex>
    %278 = stablehlo.dynamic_broadcast_in_dim %276, %277, dims = [0, 1] : (tensor<?x4096xf32>, tensor<2xindex>) -> tensor<?x4096xf32>
    %279 = stablehlo.dynamic_broadcast_in_dim %213, %277, dims = [] : (tensor<f32>, tensor<2xindex>) -> tensor<?x4096xf32>
    %280 = stablehlo.multiply %278, %279 : tensor<?x4096xf32>
    %dim_72 = tensor.dim %240, %c0 : tensor<?x1xi64>
    %281 = arith.index_cast %dim_72 : index to i64
    %dim_73 = tensor.dim %276, %c0 : tensor<?x4096xf32>
    %282 = arith.index_cast %dim_73 : index to i64
    %283 = arith.maxsi %281, %282 : i64
    %284 = arith.index_cast %283 : i64 to index
    %from_elements_74 = tensor.from_elements %284, %c4096 : tensor<2xindex>
    %285 = stablehlo.dynamic_broadcast_in_dim %240, %from_elements_74, dims = [0, 1] : (tensor<?x1xi64>, tensor<2xindex>) -> tensor<?x4096xi64>
    %dim_75 = tensor.dim %285, %c0 : tensor<?x4096xi64>
    %286 = arith.index_cast %dim_75 : index to i64
    %from_elements_76 = tensor.from_elements %286, %c4096_i64 : tensor<2xi64>
    %287 = stablehlo.real_dynamic_slice %280, %c_22, %from_elements_76, %c_21 : (tensor<?x4096xf32>, tensor<2xi64>, tensor<2xi64>, tensor<2xi64>) -> tensor<?x4096xf32>
    %from_elements_77 = tensor.from_elements %286, %c4096_i64, %c1_i64 : tensor<3xi64>
    %288 = stablehlo.dynamic_reshape %285, %from_elements_77 : (tensor<?x4096xi64>, tensor<3xi64>) -> tensor<?x4096x1xi64>
    %289 = stablehlo.dynamic_iota %from_elements_77, dim = 1 : (tensor<3xi64>) -> tensor<?x4096x1xi64>
    %290 = stablehlo.concatenate %288, %289, dim = 2 : (tensor<?x4096x1xi64>, tensor<?x4096x1xi64>) -> tensor<?x4096x2xi64>
    %291 = "stablehlo.scatter"(%228, %290, %287) <{indices_are_sorted = false, scatter_dimension_numbers = #stablehlo.scatter<inserted_window_dims = [0, 1], scatter_dims_to_operand_dims = [0, 1], index_vector_dim = 2>, unique_indices = false}> ({
    ^bb0(%arg129: tensor<f32>, %arg130: tensor<f32>):
      %19688 = stablehlo.add %arg129, %arg130 : tensor<f32>
      stablehlo.return %19688 : tensor<f32>
    }) : (tensor<3x4096xf32>, tensor<?x4096x2xi64>, tensor<?x4096xf32>) -> tensor<3x4096xf32>
    %292 = stablehlo.slice %140 [2:3, 0:2, 0:3] : (tensor<8x2x3xi64>) -> tensor<1x2x3xi64>
    %293 = stablehlo.reshape %292 : (tensor<1x2x3xi64>) -> tensor<2x3xi64>
    %294 = stablehlo.custom_call @byteir.non_zero(%293) {byteir_attrs = {}} : (tensor<2x3xi64>) -> tensor<?x2xi64>
    %dim_78 = tensor.dim %294, %c0 : tensor<?x2xi64>
    %295 = arith.index_cast %dim_78 : index to i64
    %from_elements_79 = tensor.from_elements %295, %c1_i64 : tensor<2xi64>
    %296 = stablehlo.real_dynamic_slice %294, %c_22, %from_elements_79, %c_21 : (tensor<?x2xi64>, tensor<2xi64>, tensor<2xi64>, tensor<2xi64>) -> tensor<?x1xi64>
    %dim_80 = tensor.dim %296, %c0 : tensor<?x1xi64>
    %297 = arith.index_cast %dim_80 : index to i64
    %from_elements_81 = tensor.from_elements %297 : tensor<1xi64>
    %298 = stablehlo.dynamic_reshape %296, %from_elements_81 : (tensor<?x1xi64>, tensor<1xi64>) -> tensor<?xi64>
    %from_elements_82 = tensor.from_elements %295, %c2_i64 : tensor<2xi64>
    %299 = stablehlo.real_dynamic_slice %294, %c_24, %from_elements_82, %c_21 : (tensor<?x2xi64>, tensor<2xi64>, tensor<2xi64>, tensor<2xi64>) -> tensor<?x1xi64>
    %dim_83 = tensor.dim %299, %c0 : tensor<?x1xi64>
    %300 = arith.index_cast %dim_83 : index to i64
    %from_elements_84 = tensor.from_elements %300 : tensor<1xi64>
    %301 = stablehlo.dynamic_reshape %299, %from_elements_84 : (tensor<?x1xi64>, tensor<1xi64>) -> tensor<?xi64>
    %dim_85 = tensor.dim %301, %c0 : tensor<?xi64>
    %302 = arith.index_cast %dim_85 : index to i64
    %from_elements_86 = tensor.from_elements %302, %c1_i64 : tensor<2xi64>
    %303 = stablehlo.dynamic_reshape %301, %from_elements_86 : (tensor<?xi64>, tensor<2xi64>) -> tensor<?x1xi64>
    %dim_87 = tensor.dim %303, %c0 : tensor<?x1xi64>
    %304 = arith.index_cast %dim_87 : index to i64
    %from_elements_88 = tensor.from_elements %c1_i64, %304, %c4096_i64 : tensor<3xi64>
    %305 = stablehlo.dynamic_broadcast_in_dim %173, %from_elements_88, dims = [0, 1, 2] : (tensor<1x1x1xi64>, tensor<3xi64>) -> tensor<1x?x4096xi64>
    %dim_89 = tensor.dim %305, %c1 : tensor<1x?x4096xi64>
    %306 = arith.index_cast %dim_89 : index to i64
    %from_elements_90 = tensor.from_elements %c1_i64, %306, %c4096_i64, %c1_i64 : tensor<4xi64>
    %307 = stablehlo.dynamic_reshape %305, %from_elements_90 : (tensor<1x?x4096xi64>, tensor<4xi64>) -> tensor<1x?x4096x1xi64>
    %308 = stablehlo.dynamic_broadcast_in_dim %303, %from_elements_88, dims = [1, 2] : (tensor<?x1xi64>, tensor<3xi64>) -> tensor<1x?x4096xi64>
    %dim_91 = tensor.dim %308, %c1 : tensor<1x?x4096xi64>
    %309 = arith.index_cast %dim_91 : index to i64
    %from_elements_92 = tensor.from_elements %c1_i64, %309, %c4096_i64, %c1_i64 : tensor<4xi64>
    %310 = stablehlo.dynamic_reshape %308, %from_elements_92 : (tensor<1x?x4096xi64>, tensor<4xi64>) -> tensor<1x?x4096x1xi64>
    %311 = stablehlo.dynamic_broadcast_in_dim %160, %from_elements_88, dims = [2] : (tensor<4096xi64>, tensor<3xi64>) -> tensor<1x?x4096xi64>
    %dim_93 = tensor.dim %311, %c1 : tensor<1x?x4096xi64>
    %312 = arith.index_cast %dim_93 : index to i64
    %from_elements_94 = tensor.from_elements %c1_i64, %312, %c4096_i64, %c1_i64 : tensor<4xi64>
    %313 = stablehlo.dynamic_reshape %311, %from_elements_94 : (tensor<1x?x4096xi64>, tensor<4xi64>) -> tensor<1x?x4096x1xi64>
    %314 = stablehlo.concatenate %307, %310, %313, dim = 3 : (tensor<1x?x4096x1xi64>, tensor<1x?x4096x1xi64>, tensor<1x?x4096x1xi64>) -> tensor<1x?x4096x3xi64>
    %315 = "stablehlo.gather"(%151, %314) <{dimension_numbers = #stablehlo.gather<collapsed_slice_dims = [0, 1, 2], start_index_map = [0, 1, 2], index_vector_dim = 3>, indices_are_sorted = false, slice_sizes = array<i64: 1, 1, 1>}> : (tensor<1x3x4096xf32>, tensor<1x?x4096x3xi64>) -> tensor<1x?x4096xf32>
    %316 = shape.shape_of %315 : tensor<1x?x4096xf32> -> tensor<3xindex>
    %317 = shape.num_elements %316 : tensor<3xindex> -> index
    %318 = stablehlo.compute_reshape_shape %317, %c_23 : (index, tensor<2xi64>) -> tensor<2xi64>
    %319 = stablehlo.dynamic_reshape %315, %318 : (tensor<1x?x4096xf32>, tensor<2xi64>) -> tensor<?x4096xf32>
    %320 = stablehlo.dot %319, %190 : (tensor<?x4096xf32>, tensor<4096x14336xf32>) -> tensor<?x14336xf32>
    %321 = stablehlo.logistic %320 : tensor<?x14336xf32>
    %322 = shape.shape_of %321 : tensor<?x14336xf32> -> tensor<2xindex>
    %323 = shape.shape_of %320 : tensor<?x14336xf32> -> tensor<2xindex>
    %324 = shape.cstr_broadcastable %322, %323 : tensor<2xindex>, tensor<2xindex>
    %325 = shape.assuming %324 -> (tensor<?x14336xf32>) {
      %19688 = shape.broadcast %322, %323 : tensor<2xindex>, tensor<2xindex> -> tensor<2xindex>
      %19689 = stablehlo.dynamic_broadcast_in_dim %321, %19688, dims = [0, 1] : (tensor<?x14336xf32>, tensor<2xindex>) -> tensor<?x14336xf32>
      %19690 = stablehlo.dynamic_broadcast_in_dim %320, %19688, dims = [0, 1] : (tensor<?x14336xf32>, tensor<2xindex>) -> tensor<?x14336xf32>
      %19691 = stablehlo.multiply %19689, %19690 : tensor<?x14336xf32>
      shape.assuming_yield %19691 : tensor<?x14336xf32>
    }
    %326 = shape.shape_of %325 : tensor<?x14336xf32> -> tensor<2xindex>
    %327 = shape.cstr_broadcastable %326, %323 : tensor<2xindex>, tensor<2xindex>
    %328 = shape.assuming %327 -> (tensor<?x14336xf32>) {
      %19688 = shape.broadcast %326, %323 : tensor<2xindex>, tensor<2xindex> -> tensor<2xindex>
      %19689 = stablehlo.dynamic_broadcast_in_dim %325, %19688, dims = [0, 1] : (tensor<?x14336xf32>, tensor<2xindex>) -> tensor<?x14336xf32>
      %19690 = stablehlo.dynamic_broadcast_in_dim %320, %19688, dims = [0, 1] : (tensor<?x14336xf32>, tensor<2xindex>) -> tensor<?x14336xf32>
      %19691 = stablehlo.multiply %19689, %19690 : tensor<?x14336xf32>
      shape.assuming_yield %19691 : tensor<?x14336xf32>
    }
    %329 = stablehlo.dot %328, %200 : (tensor<?x14336xf32>, tensor<14336x4096xf32>) -> tensor<?x4096xf32>
    %dim_95 = tensor.dim %301, %c0 : tensor<?xi64>
    %330 = arith.index_cast %dim_95 : index to i64
    %from_elements_96 = tensor.from_elements %330, %c1_i64 : tensor<2xi64>
    %331 = stablehlo.dynamic_reshape %301, %from_elements_96 : (tensor<?xi64>, tensor<2xi64>) -> tensor<?x1xi64>
    %dim_97 = tensor.dim %298, %c0 : tensor<?xi64>
    %332 = arith.index_cast %dim_97 : index to i64
    %from_elements_98 = tensor.from_elements %332, %c1_i64 : tensor<2xi64>
    %333 = stablehlo.dynamic_reshape %298, %from_elements_98 : (tensor<?xi64>, tensor<2xi64>) -> tensor<?x1xi64>
    %334 = stablehlo.concatenate %331, %333, dim = 1 : (tensor<?x1xi64>, tensor<?x1xi64>) -> tensor<?x2xi64>
    %335 = "stablehlo.gather"(%202, %334) <{dimension_numbers = #stablehlo.gather<offset_dims = [1], collapsed_slice_dims = [0, 1], start_index_map = [0, 1], index_vector_dim = 1>, indices_are_sorted = false, slice_sizes = array<i64: 1, 1, 1>}> : (tensor<3x2x1xf32>, tensor<?x2xi64>) -> tensor<?x1xf32>
    %336 = shape.shape_of %329 : tensor<?x4096xf32> -> tensor<2xindex>
    %337 = shape.shape_of %335 : tensor<?x1xf32> -> tensor<2xindex>
    %338 = shape.cstr_broadcastable %336, %337 : tensor<2xindex>, tensor<2xindex>
    %339 = shape.assuming %338 -> (tensor<?x4096xf32>) {
      %19688 = shape.broadcast %336, %337 : tensor<2xindex>, tensor<2xindex> -> tensor<2xindex>
      %19689 = stablehlo.dynamic_broadcast_in_dim %329, %19688, dims = [0, 1] : (tensor<?x4096xf32>, tensor<2xindex>) -> tensor<?x4096xf32>
      %19690 = stablehlo.dynamic_broadcast_in_dim %335, %19688, dims = [0, 1] : (tensor<?x1xf32>, tensor<2xindex>) -> tensor<?x4096xf32>
      %19691 = stablehlo.multiply %19689, %19690 : tensor<?x4096xf32>
      shape.assuming_yield %19691 : tensor<?x4096xf32>
    }
    %340 = shape.shape_of %339 : tensor<?x4096xf32> -> tensor<2xindex>
    %341 = stablehlo.dynamic_broadcast_in_dim %339, %340, dims = [0, 1] : (tensor<?x4096xf32>, tensor<2xindex>) -> tensor<?x4096xf32>
    %342 = stablehlo.dynamic_broadcast_in_dim %213, %340, dims = [] : (tensor<f32>, tensor<2xindex>) -> tensor<?x4096xf32>
    %343 = stablehlo.multiply %341, %342 : tensor<?x4096xf32>
    %dim_99 = tensor.dim %303, %c0 : tensor<?x1xi64>
    %344 = arith.index_cast %dim_99 : index to i64
    %dim_100 = tensor.dim %339, %c0 : tensor<?x4096xf32>
    %345 = arith.index_cast %dim_100 : index to i64
    %346 = arith.maxsi %344, %345 : i64
    %347 = arith.index_cast %346 : i64 to index
    %from_elements_101 = tensor.from_elements %347, %c4096 : tensor<2xindex>
    %348 = stablehlo.dynamic_broadcast_in_dim %303, %from_elements_101, dims = [0, 1] : (tensor<?x1xi64>, tensor<2xindex>) -> tensor<?x4096xi64>
    %dim_102 = tensor.dim %348, %c0 : tensor<?x4096xi64>
    %349 = arith.index_cast %dim_102 : index to i64
    %from_elements_103 = tensor.from_elements %349, %c4096_i64 : tensor<2xi64>
    %350 = stablehlo.real_dynamic_slice %343, %c_22, %from_elements_103, %c_21 : (tensor<?x4096xf32>, tensor<2xi64>, tensor<2xi64>, tensor<2xi64>) -> tensor<?x4096xf32>
    %from_elements_104 = tensor.from_elements %349, %c4096_i64, %c1_i64 : tensor<3xi64>
    %351 = stablehlo.dynamic_reshape %348, %from_elements_104 : (tensor<?x4096xi64>, tensor<3xi64>) -> tensor<?x4096x1xi64>
    %352 = stablehlo.dynamic_iota %from_elements_104, dim = 1 : (tensor<3xi64>) -> tensor<?x4096x1xi64>
    %353 = stablehlo.concatenate %351, %352, dim = 2 : (tensor<?x4096x1xi64>, tensor<?x4096x1xi64>) -> tensor<?x4096x2xi64>
    %354 = "stablehlo.scatter"(%291, %353, %350) <{indices_are_sorted = false, scatter_dimension_numbers = #stablehlo.scatter<inserted_window_dims = [0, 1], scatter_dims_to_operand_dims = [0, 1], index_vector_dim = 2>, unique_indices = false}> ({
    ^bb0(%arg129: tensor<f32>, %arg130: tensor<f32>):
      %19688 = stablehlo.add %arg129, %arg130 : tensor<f32>
      stablehlo.return %19688 : tensor<f32>
    }) : (tensor<3x4096xf32>, tensor<?x4096x2xi64>, tensor<?x4096xf32>) -> tensor<3x4096xf32>
    %355 = stablehlo.slice %140 [3:4, 0:2, 0:3] : (tensor<8x2x3xi64>) -> tensor<1x2x3xi64>
    %356 = stablehlo.reshape %355 : (tensor<1x2x3xi64>) -> tensor<2x3xi64>
    %357 = stablehlo.custom_call @byteir.non_zero(%356) {byteir_attrs = {}} : (tensor<2x3xi64>) -> tensor<?x2xi64>
    %dim_105 = tensor.dim %357, %c0 : tensor<?x2xi64>
    %358 = arith.index_cast %dim_105 : index to i64
    %from_elements_106 = tensor.from_elements %358, %c1_i64 : tensor<2xi64>
    %359 = stablehlo.real_dynamic_slice %357, %c_22, %from_elements_106, %c_21 : (tensor<?x2xi64>, tensor<2xi64>, tensor<2xi64>, tensor<2xi64>) -> tensor<?x1xi64>
    %dim_107 = tensor.dim %359, %c0 : tensor<?x1xi64>
    %360 = arith.index_cast %dim_107 : index to i64
    %from_elements_108 = tensor.from_elements %360 : tensor<1xi64>
    %361 = stablehlo.dynamic_reshape %359, %from_elements_108 : (tensor<?x1xi64>, tensor<1xi64>) -> tensor<?xi64>
    %from_elements_109 = tensor.from_elements %358, %c2_i64 : tensor<2xi64>
    %362 = stablehlo.real_dynamic_slice %357, %c_24, %from_elements_109, %c_21 : (tensor<?x2xi64>, tensor<2xi64>, tensor<2xi64>, tensor<2xi64>) -> tensor<?x1xi64>
    %dim_110 = tensor.dim %362, %c0 : tensor<?x1xi64>
    %363 = arith.index_cast %dim_110 : index to i64
    %from_elements_111 = tensor.from_elements %363 : tensor<1xi64>
    %364 = stablehlo.dynamic_reshape %362, %from_elements_111 : (tensor<?x1xi64>, tensor<1xi64>) -> tensor<?xi64>
    %dim_112 = tensor.dim %364, %c0 : tensor<?xi64>
    %365 = arith.index_cast %dim_112 : index to i64
    %from_elements_113 = tensor.from_elements %365, %c1_i64 : tensor<2xi64>
    %366 = stablehlo.dynamic_reshape %364, %from_elements_113 : (tensor<?xi64>, tensor<2xi64>) -> tensor<?x1xi64>
    %dim_114 = tensor.dim %366, %c0 : tensor<?x1xi64>
    %367 = arith.index_cast %dim_114 : index to i64
    %from_elements_115 = tensor.from_elements %c1_i64, %367, %c4096_i64 : tensor<3xi64>
    %368 = stablehlo.dynamic_broadcast_in_dim %173, %from_elements_115, dims = [0, 1, 2] : (tensor<1x1x1xi64>, tensor<3xi64>) -> tensor<1x?x4096xi64>
    %dim_116 = tensor.dim %368, %c1 : tensor<1x?x4096xi64>
    %369 = arith.index_cast %dim_116 : index to i64
    %from_elements_117 = tensor.from_elements %c1_i64, %369, %c4096_i64, %c1_i64 : tensor<4xi64>
    %370 = stablehlo.dynamic_reshape %368, %from_elements_117 : (tensor<1x?x4096xi64>, tensor<4xi64>) -> tensor<1x?x4096x1xi64>
    %371 = stablehlo.dynamic_broadcast_in_dim %366, %from_elements_115, dims = [1, 2] : (tensor<?x1xi64>, tensor<3xi64>) -> tensor<1x?x4096xi64>
    %dim_118 = tensor.dim %371, %c1 : tensor<1x?x4096xi64>
    %372 = arith.index_cast %dim_118 : index to i64
    %from_elements_119 = tensor.from_elements %c1_i64, %372, %c4096_i64, %c1_i64 : tensor<4xi64>
    %373 = stablehlo.dynamic_reshape %371, %from_elements_119 : (tensor<1x?x4096xi64>, tensor<4xi64>) -> tensor<1x?x4096x1xi64>
    %374 = stablehlo.dynamic_broadcast_in_dim %160, %from_elements_115, dims = [2] : (tensor<4096xi64>, tensor<3xi64>) -> tensor<1x?x4096xi64>
    %dim_120 = tensor.dim %374, %c1 : tensor<1x?x4096xi64>
    %375 = arith.index_cast %dim_120 : index to i64
    %from_elements_121 = tensor.from_elements %c1_i64, %375, %c4096_i64, %c1_i64 : tensor<4xi64>
    %376 = stablehlo.dynamic_reshape %374, %from_elements_121 : (tensor<1x?x4096xi64>, tensor<4xi64>) -> tensor<1x?x4096x1xi64>
    %377 = stablehlo.concatenate %370, %373, %376, dim = 3 : (tensor<1x?x4096x1xi64>, tensor<1x?x4096x1xi64>, tensor<1x?x4096x1xi64>) -> tensor<1x?x4096x3xi64>
    %378 = "stablehlo.gather"(%151, %377) <{dimension_numbers = #stablehlo.gather<collapsed_slice_dims = [0, 1, 2], start_index_map = [0, 1, 2], index_vector_dim = 3>, indices_are_sorted = false, slice_sizes = array<i64: 1, 1, 1>}> : (tensor<1x3x4096xf32>, tensor<1x?x4096x3xi64>) -> tensor<1x?x4096xf32>
    %379 = shape.shape_of %378 : tensor<1x?x4096xf32> -> tensor<3xindex>
    %380 = shape.num_elements %379 : tensor<3xindex> -> index
    %381 = stablehlo.compute_reshape_shape %380, %c_23 : (index, tensor<2xi64>) -> tensor<2xi64>
    %382 = stablehlo.dynamic_reshape %378, %381 : (tensor<1x?x4096xf32>, tensor<2xi64>) -> tensor<?x4096xf32>
    %383 = stablehlo.dot %382, %190 : (tensor<?x4096xf32>, tensor<4096x14336xf32>) -> tensor<?x14336xf32>
    %384 = stablehlo.logistic %383 : tensor<?x14336xf32>
    %385 = shape.shape_of %384 : tensor<?x14336xf32> -> tensor<2xindex>
    %386 = shape.shape_of %383 : tensor<?x14336xf32> -> tensor<2xindex>
    %387 = shape.cstr_broadcastable %385, %386 : tensor<2xindex>, tensor<2xindex>
    %388 = shape.assuming %387 -> (tensor<?x14336xf32>) {
      %19688 = shape.broadcast %385, %386 : tensor<2xindex>, tensor<2xindex> -> tensor<2xindex>
      %19689 = stablehlo.dynamic_broadcast_in_dim %384, %19688, dims = [0, 1] : (tensor<?x14336xf32>, tensor<2xindex>) -> tensor<?x14336xf32>
      %19690 = stablehlo.dynamic_broadcast_in_dim %383, %19688, dims = [0, 1] : (tensor<?x14336xf32>, tensor<2xindex>) -> tensor<?x14336xf32>
      %19691 = stablehlo.multiply %19689, %19690 : tensor<?x14336xf32>
      shape.assuming_yield %19691 : tensor<?x14336xf32>
    }
    %389 = shape.shape_of %388 : tensor<?x14336xf32> -> tensor<2xindex>
    %390 = shape.cstr_broadcastable %389, %386 : tensor<2xindex>, tensor<2xindex>
    %391 = shape.assuming %390 -> (tensor<?x14336xf32>) {
      %19688 = shape.broadcast %389, %386 : tensor<2xindex>, tensor<2xindex> -> tensor<2xindex>
      %19689 = stablehlo.dynamic_broadcast_in_dim %388, %19688, dims = [0, 1] : (tensor<?x14336xf32>, tensor<2xindex>) -> tensor<?x14336xf32>
      %19690 = stablehlo.dynamic_broadcast_in_dim %383, %19688, dims = [0, 1] : (tensor<?x14336xf32>, tensor<2xindex>) -> tensor<?x14336xf32>
      %19691 = stablehlo.multiply %19689, %19690 : tensor<?x14336xf32>
      shape.assuming_yield %19691 : tensor<?x14336xf32>
    }
    %392 = stablehlo.dot %391, %200 : (tensor<?x14336xf32>, tensor<14336x4096xf32>) -> tensor<?x4096xf32>
    %dim_122 = tensor.dim %364, %c0 : tensor<?xi64>
    %393 = arith.index_cast %dim_122 : index to i64
    %from_elements_123 = tensor.from_elements %393, %c1_i64 : tensor<2xi64>
    %394 = stablehlo.dynamic_reshape %364, %from_elements_123 : (tensor<?xi64>, tensor<2xi64>) -> tensor<?x1xi64>
    %dim_124 = tensor.dim %361, %c0 : tensor<?xi64>
    %395 = arith.index_cast %dim_124 : index to i64
    %from_elements_125 = tensor.from_elements %395, %c1_i64 : tensor<2xi64>
    %396 = stablehlo.dynamic_reshape %361, %from_elements_125 : (tensor<?xi64>, tensor<2xi64>) -> tensor<?x1xi64>
    %397 = stablehlo.concatenate %394, %396, dim = 1 : (tensor<?x1xi64>, tensor<?x1xi64>) -> tensor<?x2xi64>
    %398 = "stablehlo.gather"(%202, %397) <{dimension_numbers = #stablehlo.gather<offset_dims = [1], collapsed_slice_dims = [0, 1], start_index_map = [0, 1], index_vector_dim = 1>, indices_are_sorted = false, slice_sizes = array<i64: 1, 1, 1>}> : (tensor<3x2x1xf32>, tensor<?x2xi64>) -> tensor<?x1xf32>
    %399 = shape.shape_of %392 : tensor<?x4096xf32> -> tensor<2xindex>
    %400 = shape.shape_of %398 : tensor<?x1xf32> -> tensor<2xindex>
    %401 = shape.cstr_broadcastable %399, %400 : tensor<2xindex>, tensor<2xindex>
    %402 = shape.assuming %401 -> (tensor<?x4096xf32>) {
      %19688 = shape.broadcast %399, %400 : tensor<2xindex>, tensor<2xindex> -> tensor<2xindex>
      %19689 = stablehlo.dynamic_broadcast_in_dim %392, %19688, dims = [0, 1] : (tensor<?x4096xf32>, tensor<2xindex>) -> tensor<?x4096xf32>
      %19690 = stablehlo.dynamic_broadcast_in_dim %398, %19688, dims = [0, 1] : (tensor<?x1xf32>, tensor<2xindex>) -> tensor<?x4096xf32>
      %19691 = stablehlo.multiply %19689, %19690 : tensor<?x4096xf32>
      shape.assuming_yield %19691 : tensor<?x4096xf32>
    }
    %403 = shape.shape_of %402 : tensor<?x4096xf32> -> tensor<2xindex>
    %404 = stablehlo.dynamic_broadcast_in_dim %402, %403, dims = [0, 1] : (tensor<?x4096xf32>, tensor<2xindex>) -> tensor<?x4096xf32>
    %405 = stablehlo.dynamic_broadcast_in_dim %213, %403, dims = [] : (tensor<f32>, tensor<2xindex>) -> tensor<?x4096xf32>
    %406 = stablehlo.multiply %404, %405 : tensor<?x4096xf32>
    %dim_126 = tensor.dim %366, %c0 : tensor<?x1xi64>
    %407 = arith.index_cast %dim_126 : index to i64
    %dim_127 = tensor.dim %402, %c0 : tensor<?x4096xf32>
    %408 = arith.index_cast %dim_127 : index to i64
    %409 = arith.maxsi %407, %408 : i64
    %410 = arith.index_cast %409 : i64 to index
    %from_elements_128 = tensor.from_elements %410, %c4096 : tensor<2xindex>
    %411 = stablehlo.dynamic_broadcast_in_dim %366, %from_elements_128, dims = [0, 1] : (tensor<?x1xi64>, tensor<2xindex>) -> tensor<?x4096xi64>
    %dim_129 = tensor.dim %411, %c0 : tensor<?x4096xi64>
    %412 = arith.index_cast %dim_129 : index to i64
    %from_elements_130 = tensor.from_elements %412, %c4096_i64 : tensor<2xi64>
    %413 = stablehlo.real_dynamic_slice %406, %c_22, %from_elements_130, %c_21 : (tensor<?x4096xf32>, tensor<2xi64>, tensor<2xi64>, tensor<2xi64>) -> tensor<?x4096xf32>
    %from_elements_131 = tensor.from_elements %412, %c4096_i64, %c1_i64 : tensor<3xi64>
    %414 = stablehlo.dynamic_reshape %411, %from_elements_131 : (tensor<?x4096xi64>, tensor<3xi64>) -> tensor<?x4096x1xi64>
    %415 = stablehlo.dynamic_iota %from_elements_131, dim = 1 : (tensor<3xi64>) -> tensor<?x4096x1xi64>
    %416 = stablehlo.concatenate %414, %415, dim = 2 : (tensor<?x4096x1xi64>, tensor<?x4096x1xi64>) -> tensor<?x4096x2xi64>
    %417 = "stablehlo.scatter"(%354, %416, %413) <{indices_are_sorted = false, scatter_dimension_numbers = #stablehlo.scatter<inserted_window_dims = [0, 1], scatter_dims_to_operand_dims = [0, 1], index_vector_dim = 2>, unique_indices = false}> ({
    ^bb0(%arg129: tensor<f32>, %arg130: tensor<f32>):
      %19688 = stablehlo.add %arg129, %arg130 : tensor<f32>
      stablehlo.return %19688 : tensor<f32>
    }) : (tensor<3x4096xf32>, tensor<?x4096x2xi64>, tensor<?x4096xf32>) -> tensor<3x4096xf32>
    %418 = stablehlo.slice %140 [4:5, 0:2, 0:3] : (tensor<8x2x3xi64>) -> tensor<1x2x3xi64>
    %419 = stablehlo.reshape %418 : (tensor<1x2x3xi64>) -> tensor<2x3xi64>
    %420 = stablehlo.custom_call @byteir.non_zero(%419) {byteir_attrs = {}} : (tensor<2x3xi64>) -> tensor<?x2xi64>
    %dim_132 = tensor.dim %420, %c0 : tensor<?x2xi64>
    %421 = arith.index_cast %dim_132 : index to i64
    %from_elements_133 = tensor.from_elements %421, %c1_i64 : tensor<2xi64>
    %422 = stablehlo.real_dynamic_slice %420, %c_22, %from_elements_133, %c_21 : (tensor<?x2xi64>, tensor<2xi64>, tensor<2xi64>, tensor<2xi64>) -> tensor<?x1xi64>
    %dim_134 = tensor.dim %422, %c0 : tensor<?x1xi64>
    %423 = arith.index_cast %dim_134 : index to i64
    %from_elements_135 = tensor.from_elements %423 : tensor<1xi64>
    %424 = stablehlo.dynamic_reshape %422, %from_elements_135 : (tensor<?x1xi64>, tensor<1xi64>) -> tensor<?xi64>
    %from_elements_136 = tensor.from_elements %421, %c2_i64 : tensor<2xi64>
    %425 = stablehlo.real_dynamic_slice %420, %c_24, %from_elements_136, %c_21 : (tensor<?x2xi64>, tensor<2xi64>, tensor<2xi64>, tensor<2xi64>) -> tensor<?x1xi64>
    %dim_137 = tensor.dim %425, %c0 : tensor<?x1xi64>
    %426 = arith.index_cast %dim_137 : index to i64
    %from_elements_138 = tensor.from_elements %426 : tensor<1xi64>
    %427 = stablehlo.dynamic_reshape %425, %from_elements_138 : (tensor<?x1xi64>, tensor<1xi64>) -> tensor<?xi64>
    %dim_139 = tensor.dim %427, %c0 : tensor<?xi64>
    %428 = arith.index_cast %dim_139 : index to i64
    %from_elements_140 = tensor.from_elements %428, %c1_i64 : tensor<2xi64>
    %429 = stablehlo.dynamic_reshape %427, %from_elements_140 : (tensor<?xi64>, tensor<2xi64>) -> tensor<?x1xi64>
    %dim_141 = tensor.dim %429, %c0 : tensor<?x1xi64>
    %430 = arith.index_cast %dim_141 : index to i64
    %from_elements_142 = tensor.from_elements %c1_i64, %430, %c4096_i64 : tensor<3xi64>
    %431 = stablehlo.dynamic_broadcast_in_dim %173, %from_elements_142, dims = [0, 1, 2] : (tensor<1x1x1xi64>, tensor<3xi64>) -> tensor<1x?x4096xi64>
    %dim_143 = tensor.dim %431, %c1 : tensor<1x?x4096xi64>
    %432 = arith.index_cast %dim_143 : index to i64
    %from_elements_144 = tensor.from_elements %c1_i64, %432, %c4096_i64, %c1_i64 : tensor<4xi64>
    %433 = stablehlo.dynamic_reshape %431, %from_elements_144 : (tensor<1x?x4096xi64>, tensor<4xi64>) -> tensor<1x?x4096x1xi64>
    %434 = stablehlo.dynamic_broadcast_in_dim %429, %from_elements_142, dims = [1, 2] : (tensor<?x1xi64>, tensor<3xi64>) -> tensor<1x?x4096xi64>
    %dim_145 = tensor.dim %434, %c1 : tensor<1x?x4096xi64>
    %435 = arith.index_cast %dim_145 : index to i64
    %from_elements_146 = tensor.from_elements %c1_i64, %435, %c4096_i64, %c1_i64 : tensor<4xi64>
    %436 = stablehlo.dynamic_reshape %434, %from_elements_146 : (tensor<1x?x4096xi64>, tensor<4xi64>) -> tensor<1x?x4096x1xi64>
    %437 = stablehlo.dynamic_broadcast_in_dim %160, %from_elements_142, dims = [2] : (tensor<4096xi64>, tensor<3xi64>) -> tensor<1x?x4096xi64>
    %dim_147 = tensor.dim %437, %c1 : tensor<1x?x4096xi64>
    %438 = arith.index_cast %dim_147 : index to i64
    %from_elements_148 = tensor.from_elements %c1_i64, %438, %c4096_i64, %c1_i64 : tensor<4xi64>
    %439 = stablehlo.dynamic_reshape %437, %from_elements_148 : (tensor<1x?x4096xi64>, tensor<4xi64>) -> tensor<1x?x4096x1xi64>
    %440 = stablehlo.concatenate %433, %436, %439, dim = 3 : (tensor<1x?x4096x1xi64>, tensor<1x?x4096x1xi64>, tensor<1x?x4096x1xi64>) -> tensor<1x?x4096x3xi64>
    %441 = "stablehlo.gather"(%151, %440) <{dimension_numbers = #stablehlo.gather<collapsed_slice_dims = [0, 1, 2], start_index_map = [0, 1, 2], index_vector_dim = 3>, indices_are_sorted = false, slice_sizes = array<i64: 1, 1, 1>}> : (tensor<1x3x4096xf32>, tensor<1x?x4096x3xi64>) -> tensor<1x?x4096xf32>
    %442 = shape.shape_of %441 : tensor<1x?x4096xf32> -> tensor<3xindex>
    %443 = shape.num_elements %442 : tensor<3xindex> -> index
    %444 = stablehlo.compute_reshape_shape %443, %c_23 : (index, tensor<2xi64>) -> tensor<2xi64>
    %445 = stablehlo.dynamic_reshape %441, %444 : (tensor<1x?x4096xf32>, tensor<2xi64>) -> tensor<?x4096xf32>
    %446 = stablehlo.dot %445, %190 : (tensor<?x4096xf32>, tensor<4096x14336xf32>) -> tensor<?x14336xf32>
    %447 = stablehlo.logistic %446 : tensor<?x14336xf32>
    %448 = shape.shape_of %447 : tensor<?x14336xf32> -> tensor<2xindex>
    %449 = shape.shape_of %446 : tensor<?x14336xf32> -> tensor<2xindex>
    %450 = shape.cstr_broadcastable %448, %449 : tensor<2xindex>, tensor<2xindex>
    %451 = shape.assuming %450 -> (tensor<?x14336xf32>) {
      %19688 = shape.broadcast %448, %449 : tensor<2xindex>, tensor<2xindex> -> tensor<2xindex>
      %19689 = stablehlo.dynamic_broadcast_in_dim %447, %19688, dims = [0, 1] : (tensor<?x14336xf32>, tensor<2xindex>) -> tensor<?x14336xf32>
      %19690 = stablehlo.dynamic_broadcast_in_dim %446, %19688, dims = [0, 1] : (tensor<?x14336xf32>, tensor<2xindex>) -> tensor<?x14336xf32>
      %19691 = stablehlo.multiply %19689, %19690 : tensor<?x14336xf32>
      shape.assuming_yield %19691 : tensor<?x14336xf32>
    }
    %452 = shape.shape_of %451 : tensor<?x14336xf32> -> tensor<2xindex>
    %453 = shape.cstr_broadcastable %452, %449 : tensor<2xindex>, tensor<2xindex>
    %454 = shape.assuming %453 -> (tensor<?x14336xf32>) {
      %19688 = shape.broadcast %452, %449 : tensor<2xindex>, tensor<2xindex> -> tensor<2xindex>
      %19689 = stablehlo.dynamic_broadcast_in_dim %451, %19688, dims = [0, 1] : (tensor<?x14336xf32>, tensor<2xindex>) -> tensor<?x14336xf32>
      %19690 = stablehlo.dynamic_broadcast_in_dim %446, %19688, dims = [0, 1] : (tensor<?x14336xf32>, tensor<2xindex>) -> tensor<?x14336xf32>
      %19691 = stablehlo.multiply %19689, %19690 : tensor<?x14336xf32>
      shape.assuming_yield %19691 : tensor<?x14336xf32>
    }
    %455 = stablehlo.dot %454, %200 : (tensor<?x14336xf32>, tensor<14336x4096xf32>) -> tensor<?x4096xf32>
    %dim_149 = tensor.dim %427, %c0 : tensor<?xi64>
    %456 = arith.index_cast %dim_149 : index to i64
    %from_elements_150 = tensor.from_elements %456, %c1_i64 : tensor<2xi64>
    %457 = stablehlo.dynamic_reshape %427, %from_elements_150 : (tensor<?xi64>, tensor<2xi64>) -> tensor<?x1xi64>
    %dim_151 = tensor.dim %424, %c0 : tensor<?xi64>
    %458 = arith.index_cast %dim_151 : index to i64
    %from_elements_152 = tensor.from_elements %458, %c1_i64 : tensor<2xi64>
    %459 = stablehlo.dynamic_reshape %424, %from_elements_152 : (tensor<?xi64>, tensor<2xi64>) -> tensor<?x1xi64>
    %460 = stablehlo.concatenate %457, %459, dim = 1 : (tensor<?x1xi64>, tensor<?x1xi64>) -> tensor<?x2xi64>
    %461 = "stablehlo.gather"(%202, %460) <{dimension_numbers = #stablehlo.gather<offset_dims = [1], collapsed_slice_dims = [0, 1], start_index_map = [0, 1], index_vector_dim = 1>, indices_are_sorted = false, slice_sizes = array<i64: 1, 1, 1>}> : (tensor<3x2x1xf32>, tensor<?x2xi64>) -> tensor<?x1xf32>
    %462 = shape.shape_of %455 : tensor<?x4096xf32> -> tensor<2xindex>
    %463 = shape.shape_of %461 : tensor<?x1xf32> -> tensor<2xindex>
    %464 = shape.cstr_broadcastable %462, %463 : tensor<2xindex>, tensor<2xindex>
    %465 = shape.assuming %464 -> (tensor<?x4096xf32>) {
      %19688 = shape.broadcast %462, %463 : tensor<2xindex>, tensor<2xindex> -> tensor<2xindex>
      %19689 = stablehlo.dynamic_broadcast_in_dim %455, %19688, dims = [0, 1] : (tensor<?x4096xf32>, tensor<2xindex>) -> tensor<?x4096xf32>
      %19690 = stablehlo.dynamic_broadcast_in_dim %461, %19688, dims = [0, 1] : (tensor<?x1xf32>, tensor<2xindex>) -> tensor<?x4096xf32>
      %19691 = stablehlo.multiply %19689, %19690 : tensor<?x4096xf32>
      shape.assuming_yield %19691 : tensor<?x4096xf32>
    }
    %466 = shape.shape_of %465 : tensor<?x4096xf32> -> tensor<2xindex>
    %467 = stablehlo.dynamic_broadcast_in_dim %465, %466, dims = [0, 1] : (tensor<?x4096xf32>, tensor<2xindex>) -> tensor<?x4096xf32>
    %468 = stablehlo.dynamic_broadcast_in_dim %213, %466, dims = [] : (tensor<f32>, tensor<2xindex>) -> tensor<?x4096xf32>
    %469 = stablehlo.multiply %467, %468 : tensor<?x4096xf32>
    %dim_153 = tensor.dim %429, %c0 : tensor<?x1xi64>
    %470 = arith.index_cast %dim_153 : index to i64
    %dim_154 = tensor.dim %465, %c0 : tensor<?x4096xf32>
    %471 = arith.index_cast %dim_154 : index to i64
    %472 = arith.maxsi %470, %471 : i64
    %473 = arith.index_cast %472 : i64 to index
    %from_elements_155 = tensor.from_elements %473, %c4096 : tensor<2xindex>
    %474 = stablehlo.dynamic_broadcast_in_dim %429, %from_elements_155, dims = [0, 1] : (tensor<?x1xi64>, tensor<2xindex>) -> tensor<?x4096xi64>
    %dim_156 = tensor.dim %474, %c0 : tensor<?x4096xi64>
    %475 = arith.index_cast %dim_156 : index to i64
    %from_elements_157 = tensor.from_elements %475, %c4096_i64 : tensor<2xi64>
    %476 = stablehlo.real_dynamic_slice %469, %c_22, %from_elements_157, %c_21 : (tensor<?x4096xf32>, tensor<2xi64>, tensor<2xi64>, tensor<2xi64>) -> tensor<?x4096xf32>
    %from_elements_158 = tensor.from_elements %475, %c4096_i64, %c1_i64 : tensor<3xi64>
    %477 = stablehlo.dynamic_reshape %474, %from_elements_158 : (tensor<?x4096xi64>, tensor<3xi64>) -> tensor<?x4096x1xi64>
    %478 = stablehlo.dynamic_iota %from_elements_158, dim = 1 : (tensor<3xi64>) -> tensor<?x4096x1xi64>
    %479 = stablehlo.concatenate %477, %478, dim = 2 : (tensor<?x4096x1xi64>, tensor<?x4096x1xi64>) -> tensor<?x4096x2xi64>
    %480 = "stablehlo.scatter"(%417, %479, %476) <{indices_are_sorted = false, scatter_dimension_numbers = #stablehlo.scatter<inserted_window_dims = [0, 1], scatter_dims_to_operand_dims = [0, 1], index_vector_dim = 2>, unique_indices = false}> ({
    ^bb0(%arg129: tensor<f32>, %arg130: tensor<f32>):
      %19688 = stablehlo.add %arg129, %arg130 : tensor<f32>
      stablehlo.return %19688 : tensor<f32>
    }) : (tensor<3x4096xf32>, tensor<?x4096x2xi64>, tensor<?x4096xf32>) -> tensor<3x4096xf32>
    %481 = stablehlo.slice %140 [5:6, 0:2, 0:3] : (tensor<8x2x3xi64>) -> tensor<1x2x3xi64>
    %482 = stablehlo.reshape %481 : (tensor<1x2x3xi64>) -> tensor<2x3xi64>
    %483 = stablehlo.custom_call @byteir.non_zero(%482) {byteir_attrs = {}} : (tensor<2x3xi64>) -> tensor<?x2xi64>
    %dim_159 = tensor.dim %483, %c0 : tensor<?x2xi64>
    %484 = arith.index_cast %dim_159 : index to i64
    %from_elements_160 = tensor.from_elements %484, %c1_i64 : tensor<2xi64>
    %485 = stablehlo.real_dynamic_slice %483, %c_22, %from_elements_160, %c_21 : (tensor<?x2xi64>, tensor<2xi64>, tensor<2xi64>, tensor<2xi64>) -> tensor<?x1xi64>
    %dim_161 = tensor.dim %485, %c0 : tensor<?x1xi64>
    %486 = arith.index_cast %dim_161 : index to i64
    %from_elements_162 = tensor.from_elements %486 : tensor<1xi64>
    %487 = stablehlo.dynamic_reshape %485, %from_elements_162 : (tensor<?x1xi64>, tensor<1xi64>) -> tensor<?xi64>
    %from_elements_163 = tensor.from_elements %484, %c2_i64 : tensor<2xi64>
    %488 = stablehlo.real_dynamic_slice %483, %c_24, %from_elements_163, %c_21 : (tensor<?x2xi64>, tensor<2xi64>, tensor<2xi64>, tensor<2xi64>) -> tensor<?x1xi64>
    %dim_164 = tensor.dim %488, %c0 : tensor<?x1xi64>
    %489 = arith.index_cast %dim_164 : index to i64
    %from_elements_165 = tensor.from_elements %489 : tensor<1xi64>
    %490 = stablehlo.dynamic_reshape %488, %from_elements_165 : (tensor<?x1xi64>, tensor<1xi64>) -> tensor<?xi64>
    %dim_166 = tensor.dim %490, %c0 : tensor<?xi64>
    %491 = arith.index_cast %dim_166 : index to i64
    %from_elements_167 = tensor.from_elements %491, %c1_i64 : tensor<2xi64>
    %492 = stablehlo.dynamic_reshape %490, %from_elements_167 : (tensor<?xi64>, tensor<2xi64>) -> tensor<?x1xi64>
    %dim_168 = tensor.dim %492, %c0 : tensor<?x1xi64>
    %493 = arith.index_cast %dim_168 : index to i64
    %from_elements_169 = tensor.from_elements %c1_i64, %493, %c4096_i64 : tensor<3xi64>
    %494 = stablehlo.dynamic_broadcast_in_dim %173, %from_elements_169, dims = [0, 1, 2] : (tensor<1x1x1xi64>, tensor<3xi64>) -> tensor<1x?x4096xi64>
    %dim_170 = tensor.dim %494, %c1 : tensor<1x?x4096xi64>
    %495 = arith.index_cast %dim_170 : index to i64
    %from_elements_171 = tensor.from_elements %c1_i64, %495, %c4096_i64, %c1_i64 : tensor<4xi64>
    %496 = stablehlo.dynamic_reshape %494, %from_elements_171 : (tensor<1x?x4096xi64>, tensor<4xi64>) -> tensor<1x?x4096x1xi64>
    %497 = stablehlo.dynamic_broadcast_in_dim %492, %from_elements_169, dims = [1, 2] : (tensor<?x1xi64>, tensor<3xi64>) -> tensor<1x?x4096xi64>
    %dim_172 = tensor.dim %497, %c1 : tensor<1x?x4096xi64>
    %498 = arith.index_cast %dim_172 : index to i64
    %from_elements_173 = tensor.from_elements %c1_i64, %498, %c4096_i64, %c1_i64 : tensor<4xi64>
    %499 = stablehlo.dynamic_reshape %497, %from_elements_173 : (tensor<1x?x4096xi64>, tensor<4xi64>) -> tensor<1x?x4096x1xi64>
    %500 = stablehlo.dynamic_broadcast_in_dim %160, %from_elements_169, dims = [2] : (tensor<4096xi64>, tensor<3xi64>) -> tensor<1x?x4096xi64>
    %dim_174 = tensor.dim %500, %c1 : tensor<1x?x4096xi64>
    %501 = arith.index_cast %dim_174 : index to i64
    %from_elements_175 = tensor.from_elements %c1_i64, %501, %c4096_i64, %c1_i64 : tensor<4xi64>
    %502 = stablehlo.dynamic_reshape %500, %from_elements_175 : (tensor<1x?x4096xi64>, tensor<4xi64>) -> tensor<1x?x4096x1xi64>
    %503 = stablehlo.concatenate %496, %499, %502, dim = 3 : (tensor<1x?x4096x1xi64>, tensor<1x?x4096x1xi64>, tensor<1x?x4096x1xi64>) -> tensor<1x?x4096x3xi64>
    %504 = "stablehlo.gather"(%151, %503) <{dimension_numbers = #stablehlo.gather<collapsed_slice_dims = [0, 1, 2], start_index_map = [0, 1, 2], index_vector_dim = 3>, indices_are_sorted = false, slice_sizes = array<i64: 1, 1, 1>}> : (tensor<1x3x4096xf32>, tensor<1x?x4096x3xi64>) -> tensor<1x?x4096xf32>
    %505 = shape.shape_of %504 : tensor<1x?x4096xf32> -> tensor<3xindex>
    %506 = shape.num_elements %505 : tensor<3xindex> -> index
    %507 = stablehlo.compute_reshape_shape %506, %c_23 : (index, tensor<2xi64>) -> tensor<2xi64>
    %508 = stablehlo.dynamic_reshape %504, %507 : (tensor<1x?x4096xf32>, tensor<2xi64>) -> tensor<?x4096xf32>
    %509 = stablehlo.dot %508, %190 : (tensor<?x4096xf32>, tensor<4096x14336xf32>) -> tensor<?x14336xf32>
    %510 = stablehlo.logistic %509 : tensor<?x14336xf32>
    %511 = shape.shape_of %510 : tensor<?x14336xf32> -> tensor<2xindex>
    %512 = shape.shape_of %509 : tensor<?x14336xf32> -> tensor<2xindex>
    %513 = shape.cstr_broadcastable %511, %512 : tensor<2xindex>, tensor<2xindex>
    %514 = shape.assuming %513 -> (tensor<?x14336xf32>) {
      %19688 = shape.broadcast %511, %512 : tensor<2xindex>, tensor<2xindex> -> tensor<2xindex>
      %19689 = stablehlo.dynamic_broadcast_in_dim %510, %19688, dims = [0, 1] : (tensor<?x14336xf32>, tensor<2xindex>) -> tensor<?x14336xf32>
      %19690 = stablehlo.dynamic_broadcast_in_dim %509, %19688, dims = [0, 1] : (tensor<?x14336xf32>, tensor<2xindex>) -> tensor<?x14336xf32>
      %19691 = stablehlo.multiply %19689, %19690 : tensor<?x14336xf32>
      shape.assuming_yield %19691 : tensor<?x14336xf32>
    }
    %515 = shape.shape_of %514 : tensor<?x14336xf32> -> tensor<2xindex>
    %516 = shape.cstr_broadcastable %515, %512 : tensor<2xindex>, tensor<2xindex>
    %517 = shape.assuming %516 -> (tensor<?x14336xf32>) {
      %19688 = shape.broadcast %515, %512 : tensor<2xindex>, tensor<2xindex> -> tensor<2xindex>
      %19689 = stablehlo.dynamic_broadcast_in_dim %514, %19688, dims = [0, 1] : (tensor<?x14336xf32>, tensor<2xindex>) -> tensor<?x14336xf32>
      %19690 = stablehlo.dynamic_broadcast_in_dim %509, %19688, dims = [0, 1] : (tensor<?x14336xf32>, tensor<2xindex>) -> tensor<?x14336xf32>
      %19691 = stablehlo.multiply %19689, %19690 : tensor<?x14336xf32>
      shape.assuming_yield %19691 : tensor<?x14336xf32>
    }
    %518 = stablehlo.dot %517, %200 : (tensor<?x14336xf32>, tensor<14336x4096xf32>) -> tensor<?x4096xf32>
    %dim_176 = tensor.dim %490, %c0 : tensor<?xi64>
    %519 = arith.index_cast %dim_176 : index to i64
    %from_elements_177 = tensor.from_elements %519, %c1_i64 : tensor<2xi64>
    %520 = stablehlo.dynamic_reshape %490, %from_elements_177 : (tensor<?xi64>, tensor<2xi64>) -> tensor<?x1xi64>
    %dim_178 = tensor.dim %487, %c0 : tensor<?xi64>
    %521 = arith.index_cast %dim_178 : index to i64
    %from_elements_179 = tensor.from_elements %521, %c1_i64 : tensor<2xi64>
    %522 = stablehlo.dynamic_reshape %487, %from_elements_179 : (tensor<?xi64>, tensor<2xi64>) -> tensor<?x1xi64>
    %523 = stablehlo.concatenate %520, %522, dim = 1 : (tensor<?x1xi64>, tensor<?x1xi64>) -> tensor<?x2xi64>
    %524 = "stablehlo.gather"(%202, %523) <{dimension_numbers = #stablehlo.gather<offset_dims = [1], collapsed_slice_dims = [0, 1], start_index_map = [0, 1], index_vector_dim = 1>, indices_are_sorted = false, slice_sizes = array<i64: 1, 1, 1>}> : (tensor<3x2x1xf32>, tensor<?x2xi64>) -> tensor<?x1xf32>
    %525 = shape.shape_of %518 : tensor<?x4096xf32> -> tensor<2xindex>
    %526 = shape.shape_of %524 : tensor<?x1xf32> -> tensor<2xindex>
    %527 = shape.cstr_broadcastable %525, %526 : tensor<2xindex>, tensor<2xindex>
    %528 = shape.assuming %527 -> (tensor<?x4096xf32>) {
      %19688 = shape.broadcast %525, %526 : tensor<2xindex>, tensor<2xindex> -> tensor<2xindex>
      %19689 = stablehlo.dynamic_broadcast_in_dim %518, %19688, dims = [0, 1] : (tensor<?x4096xf32>, tensor<2xindex>) -> tensor<?x4096xf32>
      %19690 = stablehlo.dynamic_broadcast_in_dim %524, %19688, dims = [0, 1] : (tensor<?x1xf32>, tensor<2xindex>) -> tensor<?x4096xf32>
      %19691 = stablehlo.multiply %19689, %19690 : tensor<?x4096xf32>
      shape.assuming_yield %19691 : tensor<?x4096xf32>
    }
    %529 = shape.shape_of %528 : tensor<?x4096xf32> -> tensor<2xindex>
    %530 = stablehlo.dynamic_broadcast_in_dim %528, %529, dims = [0, 1] : (tensor<?x4096xf32>, tensor<2xindex>) -> tensor<?x4096xf32>
    %531 = stablehlo.dynamic_broadcast_in_dim %213, %529, dims = [] : (tensor<f32>, tensor<2xindex>) -> tensor<?x4096xf32>
    %532 = stablehlo.multiply %530, %531 : tensor<?x4096xf32>
    %dim_180 = tensor.dim %492, %c0 : tensor<?x1xi64>
    %533 = arith.index_cast %dim_180 : index to i64
    %dim_181 = tensor.dim %528, %c0 : tensor<?x4096xf32>
    %534 = arith.index_cast %dim_181 : index to i64
    %535 = arith.maxsi %533, %534 : i64
    %536 = arith.index_cast %535 : i64 to index
    %from_elements_182 = tensor.from_elements %536, %c4096 : tensor<2xindex>
    %537 = stablehlo.dynamic_broadcast_in_dim %492, %from_elements_182, dims = [0, 1] : (tensor<?x1xi64>, tensor<2xindex>) -> tensor<?x4096xi64>
    %dim_183 = tensor.dim %537, %c0 : tensor<?x4096xi64>
    %538 = arith.index_cast %dim_183 : index to i64
    %from_elements_184 = tensor.from_elements %538, %c4096_i64 : tensor<2xi64>
    %539 = stablehlo.real_dynamic_slice %532, %c_22, %from_elements_184, %c_21 : (tensor<?x4096xf32>, tensor<2xi64>, tensor<2xi64>, tensor<2xi64>) -> tensor<?x4096xf32>
    %from_elements_185 = tensor.from_elements %538, %c4096_i64, %c1_i64 : tensor<3xi64>
    %540 = stablehlo.dynamic_reshape %537, %from_elements_185 : (tensor<?x4096xi64>, tensor<3xi64>) -> tensor<?x4096x1xi64>
    %541 = stablehlo.dynamic_iota %from_elements_185, dim = 1 : (tensor<3xi64>) -> tensor<?x4096x1xi64>
    %542 = stablehlo.concatenate %540, %541, dim = 2 : (tensor<?x4096x1xi64>, tensor<?x4096x1xi64>) -> tensor<?x4096x2xi64>
    %543 = "stablehlo.scatter"(%480, %542, %539) <{indices_are_sorted = false, scatter_dimension_numbers = #stablehlo.scatter<inserted_window_dims = [0, 1], scatter_dims_to_operand_dims = [0, 1], index_vector_dim = 2>, unique_indices = false}> ({
    ^bb0(%arg129: tensor<f32>, %arg130: tensor<f32>):
      %19688 = stablehlo.add %arg129, %arg130 : tensor<f32>
      stablehlo.return %19688 : tensor<f32>
    }) : (tensor<3x4096xf32>, tensor<?x4096x2xi64>, tensor<?x4096xf32>) -> tensor<3x4096xf32>
    %544 = stablehlo.slice %140 [6:7, 0:2, 0:3] : (tensor<8x2x3xi64>) -> tensor<1x2x3xi64>
    %545 = stablehlo.reshape %544 : (tensor<1x2x3xi64>) -> tensor<2x3xi64>
    %546 = stablehlo.custom_call @byteir.non_zero(%545) {byteir_attrs = {}} : (tensor<2x3xi64>) -> tensor<?x2xi64>
    %dim_186 = tensor.dim %546, %c0 : tensor<?x2xi64>
    %547 = arith.index_cast %dim_186 : index to i64
    %from_elements_187 = tensor.from_elements %547, %c1_i64 : tensor<2xi64>
    %548 = stablehlo.real_dynamic_slice %546, %c_22, %from_elements_187, %c_21 : (tensor<?x2xi64>, tensor<2xi64>, tensor<2xi64>, tensor<2xi64>) -> tensor<?x1xi64>
    %dim_188 = tensor.dim %548, %c0 : tensor<?x1xi64>
    %549 = arith.index_cast %dim_188 : index to i64
    %from_elements_189 = tensor.from_elements %549 : tensor<1xi64>
    %550 = stablehlo.dynamic_reshape %548, %from_elements_189 : (tensor<?x1xi64>, tensor<1xi64>) -> tensor<?xi64>
    %from_elements_190 = tensor.from_elements %547, %c2_i64 : tensor<2xi64>
    %551 = stablehlo.real_dynamic_slice %546, %c_24, %from_elements_190, %c_21 : (tensor<?x2xi64>, tensor<2xi64>, tensor<2xi64>, tensor<2xi64>) -> tensor<?x1xi64>
    %dim_191 = tensor.dim %551, %c0 : tensor<?x1xi64>
    %552 = arith.index_cast %dim_191 : index to i64
    %from_elements_192 = tensor.from_elements %552 : tensor<1xi64>
    %553 = stablehlo.dynamic_reshape %551, %from_elements_192 : (tensor<?x1xi64>, tensor<1xi64>) -> tensor<?xi64>
    %dim_193 = tensor.dim %553, %c0 : tensor<?xi64>
    %554 = arith.index_cast %dim_193 : index to i64
    %from_elements_194 = tensor.from_elements %554, %c1_i64 : tensor<2xi64>
    %555 = stablehlo.dynamic_reshape %553, %from_elements_194 : (tensor<?xi64>, tensor<2xi64>) -> tensor<?x1xi64>
    %dim_195 = tensor.dim %555, %c0 : tensor<?x1xi64>
    %556 = arith.index_cast %dim_195 : index to i64
    %from_elements_196 = tensor.from_elements %c1_i64, %556, %c4096_i64 : tensor<3xi64>
    %557 = stablehlo.dynamic_broadcast_in_dim %173, %from_elements_196, dims = [0, 1, 2] : (tensor<1x1x1xi64>, tensor<3xi64>) -> tensor<1x?x4096xi64>
    %dim_197 = tensor.dim %557, %c1 : tensor<1x?x4096xi64>
    %558 = arith.index_cast %dim_197 : index to i64
    %from_elements_198 = tensor.from_elements %c1_i64, %558, %c4096_i64, %c1_i64 : tensor<4xi64>
    %559 = stablehlo.dynamic_reshape %557, %from_elements_198 : (tensor<1x?x4096xi64>, tensor<4xi64>) -> tensor<1x?x4096x1xi64>
    %560 = stablehlo.dynamic_broadcast_in_dim %555, %from_elements_196, dims = [1, 2] : (tensor<?x1xi64>, tensor<3xi64>) -> tensor<1x?x4096xi64>
    %dim_199 = tensor.dim %560, %c1 : tensor<1x?x4096xi64>
    %561 = arith.index_cast %dim_199 : index to i64
    %from_elements_200 = tensor.from_elements %c1_i64, %561, %c4096_i64, %c1_i64 : tensor<4xi64>
    %562 = stablehlo.dynamic_reshape %560, %from_elements_200 : (tensor<1x?x4096xi64>, tensor<4xi64>) -> tensor<1x?x4096x1xi64>
    %563 = stablehlo.dynamic_broadcast_in_dim %160, %from_elements_196, dims = [2] : (tensor<4096xi64>, tensor<3xi64>) -> tensor<1x?x4096xi64>
    %dim_201 = tensor.dim %563, %c1 : tensor<1x?x4096xi64>
    %564 = arith.index_cast %dim_201 : index to i64
    %from_elements_202 = tensor.from_elements %c1_i64, %564, %c4096_i64, %c1_i64 : tensor<4xi64>
    %565 = stablehlo.dynamic_reshape %563, %from_elements_202 : (tensor<1x?x4096xi64>, tensor<4xi64>) -> tensor<1x?x4096x1xi64>
    %566 = stablehlo.concatenate %559, %562, %565, dim = 3 : (tensor<1x?x4096x1xi64>, tensor<1x?x4096x1xi64>, tensor<1x?x4096x1xi64>) -> tensor<1x?x4096x3xi64>
    %567 = "stablehlo.gather"(%151, %566) <{dimension_numbers = #stablehlo.gather<collapsed_slice_dims = [0, 1, 2], start_index_map = [0, 1, 2], index_vector_dim = 3>, indices_are_sorted = false, slice_sizes = array<i64: 1, 1, 1>}> : (tensor<1x3x4096xf32>, tensor<1x?x4096x3xi64>) -> tensor<1x?x4096xf32>
    %568 = shape.shape_of %567 : tensor<1x?x4096xf32> -> tensor<3xindex>
    %569 = shape.num_elements %568 : tensor<3xindex> -> index
    %570 = stablehlo.compute_reshape_shape %569, %c_23 : (index, tensor<2xi64>) -> tensor<2xi64>
    %571 = stablehlo.dynamic_reshape %567, %570 : (tensor<1x?x4096xf32>, tensor<2xi64>) -> tensor<?x4096xf32>
    %572 = stablehlo.dot %571, %190 : (tensor<?x4096xf32>, tensor<4096x14336xf32>) -> tensor<?x14336xf32>
    %573 = stablehlo.logistic %572 : tensor<?x14336xf32>
    %574 = shape.shape_of %573 : tensor<?x14336xf32> -> tensor<2xindex>
    %575 = shape.shape_of %572 : tensor<?x14336xf32> -> tensor<2xindex>
    %576 = shape.cstr_broadcastable %574, %575 : tensor<2xindex>, tensor<2xindex>
    %577 = shape.assuming %576 -> (tensor<?x14336xf32>) {
      %19688 = shape.broadcast %574, %575 : tensor<2xindex>, tensor<2xindex> -> tensor<2xindex>
      %19689 = stablehlo.dynamic_broadcast_in_dim %573, %19688, dims = [0, 1] : (tensor<?x14336xf32>, tensor<2xindex>) -> tensor<?x14336xf32>
      %19690 = stablehlo.dynamic_broadcast_in_dim %572, %19688, dims = [0, 1] : (tensor<?x14336xf32>, tensor<2xindex>) -> tensor<?x14336xf32>
      %19691 = stablehlo.multiply %19689, %19690 : tensor<?x14336xf32>
      shape.assuming_yield %19691 : tensor<?x14336xf32>
    }
    %578 = shape.shape_of %577 : tensor<?x14336xf32> -> tensor<2xindex>
    %579 = shape.cstr_broadcastable %578, %575 : tensor<2xindex>, tensor<2xindex>
    %580 = shape.assuming %579 -> (tensor<?x14336xf32>) {
      %19688 = shape.broadcast %578, %575 : tensor<2xindex>, tensor<2xindex> -> tensor<2xindex>
      %19689 = stablehlo.dynamic_broadcast_in_dim %577, %19688, dims = [0, 1] : (tensor<?x14336xf32>, tensor<2xindex>) -> tensor<?x14336xf32>
      %19690 = stablehlo.dynamic_broadcast_in_dim %572, %19688, dims = [0, 1] : (tensor<?x14336xf32>, tensor<2xindex>) -> tensor<?x14336xf32>
      %19691 = stablehlo.multiply %19689, %19690 : tensor<?x14336xf32>
      shape.assuming_yield %19691 : tensor<?x14336xf32>
    }
    %581 = stablehlo.dot %580, %200 : (tensor<?x14336xf32>, tensor<14336x4096xf32>) -> tensor<?x4096xf32>
    %dim_203 = tensor.dim %553, %c0 : tensor<?xi64>
    %582 = arith.index_cast %dim_203 : index to i64
    %from_elements_204 = tensor.from_elements %582, %c1_i64 : tensor<2xi64>
    %583 = stablehlo.dynamic_reshape %553, %from_elements_204 : (tensor<?xi64>, tensor<2xi64>) -> tensor<?x1xi64>
    %dim_205 = tensor.dim %550, %c0 : tensor<?xi64>
    %584 = arith.index_cast %dim_205 : index to i64
    %from_elements_206 = tensor.from_elements %584, %c1_i64 : tensor<2xi64>
    %585 = stablehlo.dynamic_reshape %550, %from_elements_206 : (tensor<?xi64>, tensor<2xi64>) -> tensor<?x1xi64>
    %586 = stablehlo.concatenate %583, %585, dim = 1 : (tensor<?x1xi64>, tensor<?x1xi64>) -> tensor<?x2xi64>
    %587 = "stablehlo.gather"(%202, %586) <{dimension_numbers = #stablehlo.gather<offset_dims = [1], collapsed_slice_dims = [0, 1], start_index_map = [0, 1], index_vector_dim = 1>, indices_are_sorted = false, slice_sizes = array<i64: 1, 1, 1>}> : (tensor<3x2x1xf32>, tensor<?x2xi64>) -> tensor<?x1xf32>
    %588 = shape.shape_of %581 : tensor<?x4096xf32> -> tensor<2xindex>
    %589 = shape.shape_of %587 : tensor<?x1xf32> -> tensor<2xindex>
    %590 = shape.cstr_broadcastable %588, %589 : tensor<2xindex>, tensor<2xindex>
    %591 = shape.assuming %590 -> (tensor<?x4096xf32>) {
      %19688 = shape.broadcast %588, %589 : tensor<2xindex>, tensor<2xindex> -> tensor<2xindex>
      %19689 = stablehlo.dynamic_broadcast_in_dim %581, %19688, dims = [0, 1] : (tensor<?x4096xf32>, tensor<2xindex>) -> tensor<?x4096xf32>
      %19690 = stablehlo.dynamic_broadcast_in_dim %587, %19688, dims = [0, 1] : (tensor<?x1xf32>, tensor<2xindex>) -> tensor<?x4096xf32>
      %19691 = stablehlo.multiply %19689, %19690 : tensor<?x4096xf32>
      shape.assuming_yield %19691 : tensor<?x4096xf32>
    }
    %592 = shape.shape_of %591 : tensor<?x4096xf32> -> tensor<2xindex>
    %593 = stablehlo.dynamic_broadcast_in_dim %591, %592, dims = [0, 1] : (tensor<?x4096xf32>, tensor<2xindex>) -> tensor<?x4096xf32>
    %594 = stablehlo.dynamic_broadcast_in_dim %213, %592, dims = [] : (tensor<f32>, tensor<2xindex>) -> tensor<?x4096xf32>
    %595 = stablehlo.multiply %593, %594 : tensor<?x4096xf32>
    %dim_207 = tensor.dim %555, %c0 : tensor<?x1xi64>
    %596 = arith.index_cast %dim_207 : index to i64
    %dim_208 = tensor.dim %591, %c0 : tensor<?x4096xf32>
    %597 = arith.index_cast %dim_208 : index to i64
    %598 = arith.maxsi %596, %597 : i64
    %599 = arith.index_cast %598 : i64 to index
    %from_elements_209 = tensor.from_elements %599, %c4096 : tensor<2xindex>
    %600 = stablehlo.dynamic_broadcast_in_dim %555, %from_elements_209, dims = [0, 1] : (tensor<?x1xi64>, tensor<2xindex>) -> tensor<?x4096xi64>
    %dim_210 = tensor.dim %600, %c0 : tensor<?x4096xi64>
    %601 = arith.index_cast %dim_210 : index to i64
    %from_elements_211 = tensor.from_elements %601, %c4096_i64 : tensor<2xi64>
    %602 = stablehlo.real_dynamic_slice %595, %c_22, %from_elements_211, %c_21 : (tensor<?x4096xf32>, tensor<2xi64>, tensor<2xi64>, tensor<2xi64>) -> tensor<?x4096xf32>
    %from_elements_212 = tensor.from_elements %601, %c4096_i64, %c1_i64 : tensor<3xi64>
    %603 = stablehlo.dynamic_reshape %600, %from_elements_212 : (tensor<?x4096xi64>, tensor<3xi64>) -> tensor<?x4096x1xi64>
    %604 = stablehlo.dynamic_iota %from_elements_212, dim = 1 : (tensor<3xi64>) -> tensor<?x4096x1xi64>
    %605 = stablehlo.concatenate %603, %604, dim = 2 : (tensor<?x4096x1xi64>, tensor<?x4096x1xi64>) -> tensor<?x4096x2xi64>
    %606 = "stablehlo.scatter"(%543, %605, %602) <{indices_are_sorted = false, scatter_dimension_numbers = #stablehlo.scatter<inserted_window_dims = [0, 1], scatter_dims_to_operand_dims = [0, 1], index_vector_dim = 2>, unique_indices = false}> ({
    ^bb0(%arg129: tensor<f32>, %arg130: tensor<f32>):
      %19688 = stablehlo.add %arg129, %arg130 : tensor<f32>
      stablehlo.return %19688 : tensor<f32>
    }) : (tensor<3x4096xf32>, tensor<?x4096x2xi64>, tensor<?x4096xf32>) -> tensor<3x4096xf32>
    %607 = stablehlo.slice %140 [7:8, 0:2, 0:3] : (tensor<8x2x3xi64>) -> tensor<1x2x3xi64>
    %608 = stablehlo.reshape %607 : (tensor<1x2x3xi64>) -> tensor<2x3xi64>
    %609 = stablehlo.custom_call @byteir.non_zero(%608) {byteir_attrs = {}} : (tensor<2x3xi64>) -> tensor<?x2xi64>
    %dim_213 = tensor.dim %609, %c0 : tensor<?x2xi64>
    %610 = arith.index_cast %dim_213 : index to i64
    %from_elements_214 = tensor.from_elements %610, %c1_i64 : tensor<2xi64>
    %611 = stablehlo.real_dynamic_slice %609, %c_22, %from_elements_214, %c_21 : (tensor<?x2xi64>, tensor<2xi64>, tensor<2xi64>, tensor<2xi64>) -> tensor<?x1xi64>
    %dim_215 = tensor.dim %611, %c0 : tensor<?x1xi64>
    %612 = arith.index_cast %dim_215 : index to i64
    %from_elements_216 = tensor.from_elements %612 : tensor<1xi64>
    %613 = stablehlo.dynamic_reshape %611, %from_elements_216 : (tensor<?x1xi64>, tensor<1xi64>) -> tensor<?xi64>
    %from_elements_217 = tensor.from_elements %610, %c2_i64 : tensor<2xi64>
    %614 = stablehlo.real_dynamic_slice %609, %c_24, %from_elements_217, %c_21 : (tensor<?x2xi64>, tensor<2xi64>, tensor<2xi64>, tensor<2xi64>) -> tensor<?x1xi64>
    %dim_218 = tensor.dim %614, %c0 : tensor<?x1xi64>
    %615 = arith.index_cast %dim_218 : index to i64
    %from_elements_219 = tensor.from_elements %615 : tensor<1xi64>
    %616 = stablehlo.dynamic_reshape %614, %from_elements_219 : (tensor<?x1xi64>, tensor<1xi64>) -> tensor<?xi64>
    %dim_220 = tensor.dim %616, %c0 : tensor<?xi64>
    %617 = arith.index_cast %dim_220 : index to i64
    %from_elements_221 = tensor.from_elements %617, %c1_i64 : tensor<2xi64>
    %618 = stablehlo.dynamic_reshape %616, %from_elements_221 : (tensor<?xi64>, tensor<2xi64>) -> tensor<?x1xi64>
    %dim_222 = tensor.dim %618, %c0 : tensor<?x1xi64>
    %619 = arith.index_cast %dim_222 : index to i64
    %from_elements_223 = tensor.from_elements %c1_i64, %619, %c4096_i64 : tensor<3xi64>
    %620 = stablehlo.dynamic_broadcast_in_dim %173, %from_elements_223, dims = [0, 1, 2] : (tensor<1x1x1xi64>, tensor<3xi64>) -> tensor<1x?x4096xi64>
    %dim_224 = tensor.dim %620, %c1 : tensor<1x?x4096xi64>
    %621 = arith.index_cast %dim_224 : index to i64
    %from_elements_225 = tensor.from_elements %c1_i64, %621, %c4096_i64, %c1_i64 : tensor<4xi64>
    %622 = stablehlo.dynamic_reshape %620, %from_elements_225 : (tensor<1x?x4096xi64>, tensor<4xi64>) -> tensor<1x?x4096x1xi64>
    %623 = stablehlo.dynamic_broadcast_in_dim %618, %from_elements_223, dims = [1, 2] : (tensor<?x1xi64>, tensor<3xi64>) -> tensor<1x?x4096xi64>
    %dim_226 = tensor.dim %623, %c1 : tensor<1x?x4096xi64>
    %624 = arith.index_cast %dim_226 : index to i64
    %from_elements_227 = tensor.from_elements %c1_i64, %624, %c4096_i64, %c1_i64 : tensor<4xi64>
    %625 = stablehlo.dynamic_reshape %623, %from_elements_227 : (tensor<1x?x4096xi64>, tensor<4xi64>) -> tensor<1x?x4096x1xi64>
    %626 = stablehlo.dynamic_broadcast_in_dim %160, %from_elements_223, dims = [2] : (tensor<4096xi64>, tensor<3xi64>) -> tensor<1x?x4096xi64>
    %dim_228 = tensor.dim %626, %c1 : tensor<1x?x4096xi64>
    %627 = arith.index_cast %dim_228 : index to i64
    %from_elements_229 = tensor.from_elements %c1_i64, %627, %c4096_i64, %c1_i64 : tensor<4xi64>
    %628 = stablehlo.dynamic_reshape %626, %from_elements_229 : (tensor<1x?x4096xi64>, tensor<4xi64>) -> tensor<1x?x4096x1xi64>
    %629 = stablehlo.concatenate %622, %625, %628, dim = 3 : (tensor<1x?x4096x1xi64>, tensor<1x?x4096x1xi64>, tensor<1x?x4096x1xi64>) -> tensor<1x?x4096x3xi64>
    %630 = "stablehlo.gather"(%151, %629) <{dimension_numbers = #stablehlo.gather<collapsed_slice_dims = [0, 1, 2], start_index_map = [0, 1, 2], index_vector_dim = 3>, indices_are_sorted = false, slice_sizes = array<i64: 1, 1, 1>}> : (tensor<1x3x4096xf32>, tensor<1x?x4096x3xi64>) -> tensor<1x?x4096xf32>
    %631 = shape.shape_of %630 : tensor<1x?x4096xf32> -> tensor<3xindex>
    %632 = shape.num_elements %631 : tensor<3xindex> -> index
    %633 = stablehlo.compute_reshape_shape %632, %c_23 : (index, tensor<2xi64>) -> tensor<2xi64>
    %634 = stablehlo.dynamic_reshape %630, %633 : (tensor<1x?x4096xf32>, tensor<2xi64>) -> tensor<?x4096xf32>
    %635 = stablehlo.dot %634, %190 : (tensor<?x4096xf32>, tensor<4096x14336xf32>) -> tensor<?x14336xf32>
    %636 = stablehlo.logistic %635 : tensor<?x14336xf32>
    %637 = shape.shape_of %636 : tensor<?x14336xf32> -> tensor<2xindex>
    %638 = shape.shape_of %635 : tensor<?x14336xf32> -> tensor<2xindex>
    %639 = shape.cstr_broadcastable %637, %638 : tensor<2xindex>, tensor<2xindex>
    %640 = shape.assuming %639 -> (tensor<?x14336xf32>) {
      %19688 = shape.broadcast %637, %638 : tensor<2xindex>, tensor<2xindex> -> tensor<2xindex>
      %19689 = stablehlo.dynamic_broadcast_in_dim %636, %19688, dims = [0, 1] : (tensor<?x14336xf32>, tensor<2xindex>) -> tensor<?x14336xf32>
      %19690 = stablehlo.dynamic_broadcast_in_dim %635, %19688, dims = [0, 1] : (tensor<?x14336xf32>, tensor<2xindex>) -> tensor<?x14336xf32>
      %19691 = stablehlo.multiply %19689, %19690 : tensor<?x14336xf32>
      shape.assuming_yield %19691 : tensor<?x14336xf32>
    }
    %641 = shape.shape_of %640 : tensor<?x14336xf32> -> tensor<2xindex>
    %642 = shape.cstr_broadcastable %641, %638 : tensor<2xindex>, tensor<2xindex>
    %643 = shape.assuming %642 -> (tensor<?x14336xf32>) {
      %19688 = shape.broadcast %641, %638 : tensor<2xindex>, tensor<2xindex> -> tensor<2xindex>
      %19689 = stablehlo.dynamic_broadcast_in_dim %640, %19688, dims = [0, 1] : (tensor<?x14336xf32>, tensor<2xindex>) -> tensor<?x14336xf32>
      %19690 = stablehlo.dynamic_broadcast_in_dim %635, %19688, dims = [0, 1] : (tensor<?x14336xf32>, tensor<2xindex>) -> tensor<?x14336xf32>
      %19691 = stablehlo.multiply %19689, %19690 : tensor<?x14336xf32>
      shape.assuming_yield %19691 : tensor<?x14336xf32>
    }
    %644 = stablehlo.dot %643, %200 : (tensor<?x14336xf32>, tensor<14336x4096xf32>) -> tensor<?x4096xf32>
    %dim_230 = tensor.dim %616, %c0 : tensor<?xi64>
    %645 = arith.index_cast %dim_230 : index to i64
    %from_elements_231 = tensor.from_elements %645, %c1_i64 : tensor<2xi64>
    %646 = stablehlo.dynamic_reshape %616, %from_elements_231 : (tensor<?xi64>, tensor<2xi64>) -> tensor<?x1xi64>
    %dim_232 = tensor.dim %613, %c0 : tensor<?xi64>
    %647 = arith.index_cast %dim_232 : index to i64
    %from_elements_233 = tensor.from_elements %647, %c1_i64 : tensor<2xi64>
    %648 = stablehlo.dynamic_reshape %613, %from_elements_233 : (tensor<?xi64>, tensor<2xi64>) -> tensor<?x1xi64>
    %649 = stablehlo.concatenate %646, %648, dim = 1 : (tensor<?x1xi64>, tensor<?x1xi64>) -> tensor<?x2xi64>
    %650 = "stablehlo.gather"(%202, %649) <{dimension_numbers = #stablehlo.gather<offset_dims = [1], collapsed_slice_dims = [0, 1], start_index_map = [0, 1], index_vector_dim = 1>, indices_are_sorted = false, slice_sizes = array<i64: 1, 1, 1>}> : (tensor<3x2x1xf32>, tensor<?x2xi64>) -> tensor<?x1xf32>
    %651 = shape.shape_of %644 : tensor<?x4096xf32> -> tensor<2xindex>
    %652 = shape.shape_of %650 : tensor<?x1xf32> -> tensor<2xindex>
    %653 = shape.cstr_broadcastable %651, %652 : tensor<2xindex>, tensor<2xindex>
    %654 = shape.assuming %653 -> (tensor<?x4096xf32>) {
      %19688 = shape.broadcast %651, %652 : tensor<2xindex>, tensor<2xindex> -> tensor<2xindex>
      %19689 = stablehlo.dynamic_broadcast_in_dim %644, %19688, dims = [0, 1] : (tensor<?x4096xf32>, tensor<2xindex>) -> tensor<?x4096xf32>
      %19690 = stablehlo.dynamic_broadcast_in_dim %650, %19688, dims = [0, 1] : (tensor<?x1xf32>, tensor<2xindex>) -> tensor<?x4096xf32>
      %19691 = stablehlo.multiply %19689, %19690 : tensor<?x4096xf32>
      shape.assuming_yield %19691 : tensor<?x4096xf32>
    }
    %655 = shape.shape_of %654 : tensor<?x4096xf32> -> tensor<2xindex>
    %656 = stablehlo.dynamic_broadcast_in_dim %654, %655, dims = [0, 1] : (tensor<?x4096xf32>, tensor<2xindex>) -> tensor<?x4096xf32>
    %657 = stablehlo.dynamic_broadcast_in_dim %213, %655, dims = [] : (tensor<f32>, tensor<2xindex>) -> tensor<?x4096xf32>
    %658 = stablehlo.multiply %656, %657 : tensor<?x4096xf32>
    %dim_234 = tensor.dim %618, %c0 : tensor<?x1xi64>
    %659 = arith.index_cast %dim_234 : index to i64
    %dim_235 = tensor.dim %654, %c0 : tensor<?x4096xf32>
    %660 = arith.index_cast %dim_235 : index to i64
    %661 = arith.maxsi %659, %660 : i64
    %662 = arith.index_cast %661 : i64 to index
    %from_elements_236 = tensor.from_elements %662, %c4096 : tensor<2xindex>
    %663 = stablehlo.dynamic_broadcast_in_dim %618, %from_elements_236, dims = [0, 1] : (tensor<?x1xi64>, tensor<2xindex>) -> tensor<?x4096xi64>
    %dim_237 = tensor.dim %663, %c0 : tensor<?x4096xi64>
    %664 = arith.index_cast %dim_237 : index to i64
    %from_elements_238 = tensor.from_elements %664, %c4096_i64 : tensor<2xi64>
    %665 = stablehlo.real_dynamic_slice %658, %c_22, %from_elements_238, %c_21 : (tensor<?x4096xf32>, tensor<2xi64>, tensor<2xi64>, tensor<2xi64>) -> tensor<?x4096xf32>
    %from_elements_239 = tensor.from_elements %664, %c4096_i64, %c1_i64 : tensor<3xi64>
    %666 = stablehlo.dynamic_reshape %663, %from_elements_239 : (tensor<?x4096xi64>, tensor<3xi64>) -> tensor<?x4096x1xi64>
    %667 = stablehlo.dynamic_iota %from_elements_239, dim = 1 : (tensor<3xi64>) -> tensor<?x4096x1xi64>
    %668 = stablehlo.concatenate %666, %667, dim = 2 : (tensor<?x4096x1xi64>, tensor<?x4096x1xi64>) -> tensor<?x4096x2xi64>
    %669 = "stablehlo.scatter"(%606, %668, %665) <{indices_are_sorted = false, scatter_dimension_numbers = #stablehlo.scatter<inserted_window_dims = [0, 1], scatter_dims_to_operand_dims = [0, 1], index_vector_dim = 2>, unique_indices = false}> ({
    ^bb0(%arg129: tensor<f32>, %arg130: tensor<f32>):
      %19688 = stablehlo.add %arg129, %arg130 : tensor<f32>
      stablehlo.return %19688 : tensor<f32>
    }) : (tensor<3x4096xf32>, tensor<?x4096x2xi64>, tensor<?x4096xf32>) -> tensor<3x4096xf32>
    %670 = stablehlo.reshape %669 : (tensor<3x4096xf32>) -> tensor<3x1x4096xf32>
    %671 = stablehlo.add %102, %670 : tensor<3x1x4096xf32>
    %672 = stablehlo.broadcast_in_dim %671, dims = [0, 1, 2] : (tensor<3x1x4096xf32>) -> tensor<3x1x4096xf32>
    %673 = stablehlo.power %672, %15 : tensor<3x1x4096xf32>
    %674 = stablehlo.reduce(%673 init: %cst_20) applies stablehlo.add across dimensions = [2] : (tensor<3x1x4096xf32>, tensor<f32>) -> tensor<3x1xf32>
    %675 = stablehlo.reshape %674 : (tensor<3x1xf32>) -> tensor<3x1x1xf32>
    %676 = stablehlo.broadcast_in_dim %675, dims = [0, 1, 2] : (tensor<3x1x1xf32>) -> tensor<3x1x1xf32>
    %677 = stablehlo.divide %676, %21 : tensor<3x1x1xf32>
    %678 = stablehlo.broadcast_in_dim %677, dims = [0, 1, 2] : (tensor<3x1x1xf32>) -> tensor<3x1x1xf32>
    %679 = stablehlo.add %678, %25 : tensor<3x1x1xf32>
    %680 = stablehlo.rsqrt %679 : tensor<3x1x1xf32>
    %681 = stablehlo.broadcast_in_dim %680, dims = [0, 1, 2] : (tensor<3x1x1xf32>) -> tensor<3x1x4096xf32>
    %682 = stablehlo.multiply %672, %681 : tensor<3x1x4096xf32>
    %683 = stablehlo.broadcast_in_dim %682, dims = [0, 1, 2] : (tensor<3x1x4096xf32>) -> tensor<3x1x4096xf32>
    %684 = stablehlo.multiply %683, %31 : tensor<3x1x4096xf32>
    %685 = stablehlo.reshape %684 : (tensor<3x1x4096xf32>) -> tensor<3x4096xf32>
    %686 = stablehlo.dot %685, %33 : (tensor<3x4096xf32>, tensor<4096x4096xf32>) -> tensor<3x4096xf32>
    %687 = stablehlo.reshape %686 : (tensor<3x4096xf32>) -> tensor<3x1x4096xf32>
    %688 = stablehlo.dot %685, %37 : (tensor<3x4096xf32>, tensor<4096x1024xf32>) -> tensor<3x1024xf32>
    %689 = stablehlo.reshape %688 : (tensor<3x1024xf32>) -> tensor<3x1x1024xf32>
    %690 = stablehlo.reshape %687 : (tensor<3x1x4096xf32>) -> tensor<3x1x32x128xf32>
    %691 = stablehlo.transpose %690, dims = [0, 2, 1, 3] : (tensor<3x1x32x128xf32>) -> tensor<3x32x1x128xf32>
    %692 = stablehlo.reshape %689 : (tensor<3x1x1024xf32>) -> tensor<3x1x8x128xf32>
    %693 = stablehlo.transpose %692, dims = [0, 2, 1, 3] : (tensor<3x1x8x128xf32>) -> tensor<3x8x1x128xf32>
    %694 = stablehlo.slice %arg2 [0:8, 0:128] : (tensor<131072x128xf32>) -> tensor<8x128xf32>
    %695 = stablehlo.slice %arg3 [0:8, 0:128] : (tensor<131072x128xf32>) -> tensor<8x128xf32>
    %696 = "stablehlo.gather"(%694, %46) <{dimension_numbers = #stablehlo.gather<offset_dims = [2], collapsed_slice_dims = [0], start_index_map = [0], index_vector_dim = 2>, indices_are_sorted = false, slice_sizes = array<i64: 1, 128>}> : (tensor<8x128xf32>, tensor<1x1x1xi64>) -> tensor<1x1x128xf32>
    %697 = stablehlo.reshape %696 : (tensor<1x1x128xf32>) -> tensor<1x1x1x128xf32>
    %698 = "stablehlo.gather"(%695, %46) <{dimension_numbers = #stablehlo.gather<offset_dims = [2], collapsed_slice_dims = [0], start_index_map = [0], index_vector_dim = 2>, indices_are_sorted = false, slice_sizes = array<i64: 1, 128>}> : (tensor<8x128xf32>, tensor<1x1x1xi64>) -> tensor<1x1x128xf32>
    %699 = stablehlo.reshape %698 : (tensor<1x1x128xf32>) -> tensor<1x1x1x128xf32>
    %700 = stablehlo.broadcast_in_dim %691, dims = [0, 1, 2, 3] : (tensor<3x32x1x128xf32>) -> tensor<3x32x1x128xf32>
    %701 = stablehlo.broadcast_in_dim %697, dims = [0, 1, 2, 3] : (tensor<1x1x1x128xf32>) -> tensor<3x32x1x128xf32>
    %702 = stablehlo.multiply %700, %701 : tensor<3x32x1x128xf32>
    %703 = stablehlo.slice %691 [0:3, 0:32, 0:1, 0:64] : (tensor<3x32x1x128xf32>) -> tensor<3x32x1x64xf32>
    %704 = stablehlo.slice %691 [0:3, 0:32, 0:1, 64:128] : (tensor<3x32x1x128xf32>) -> tensor<3x32x1x64xf32>
    %705 = stablehlo.negate %704 : tensor<3x32x1x64xf32>
    %706 = stablehlo.concatenate %705, %703, dim = 3 : (tensor<3x32x1x64xf32>, tensor<3x32x1x64xf32>) -> tensor<3x32x1x128xf32>
    %707 = stablehlo.broadcast_in_dim %706, dims = [0, 1, 2, 3] : (tensor<3x32x1x128xf32>) -> tensor<3x32x1x128xf32>
    %708 = stablehlo.broadcast_in_dim %699, dims = [0, 1, 2, 3] : (tensor<1x1x1x128xf32>) -> tensor<3x32x1x128xf32>
    %709 = stablehlo.multiply %707, %708 : tensor<3x32x1x128xf32>
    %710 = stablehlo.add %702, %709 : tensor<3x32x1x128xf32>
    %711 = stablehlo.broadcast_in_dim %693, dims = [0, 1, 2, 3] : (tensor<3x8x1x128xf32>) -> tensor<3x8x1x128xf32>
    %712 = stablehlo.broadcast_in_dim %697, dims = [0, 1, 2, 3] : (tensor<1x1x1x128xf32>) -> tensor<3x8x1x128xf32>
    %713 = stablehlo.multiply %711, %712 : tensor<3x8x1x128xf32>
    %714 = stablehlo.slice %693 [0:3, 0:8, 0:1, 0:64] : (tensor<3x8x1x128xf32>) -> tensor<3x8x1x64xf32>
    %715 = stablehlo.slice %693 [0:3, 0:8, 0:1, 64:128] : (tensor<3x8x1x128xf32>) -> tensor<3x8x1x64xf32>
    %716 = stablehlo.negate %715 : tensor<3x8x1x64xf32>
    %717 = stablehlo.concatenate %716, %714, dim = 3 : (tensor<3x8x1x64xf32>, tensor<3x8x1x64xf32>) -> tensor<3x8x1x128xf32>
    %718 = stablehlo.broadcast_in_dim %717, dims = [0, 1, 2, 3] : (tensor<3x8x1x128xf32>) -> tensor<3x8x1x128xf32>
    %719 = stablehlo.broadcast_in_dim %699, dims = [0, 1, 2, 3] : (tensor<1x1x1x128xf32>) -> tensor<3x8x1x128xf32>
    %720 = stablehlo.multiply %718, %719 : tensor<3x8x1x128xf32>
    %721 = stablehlo.add %713, %720 : tensor<3x8x1x128xf32>
    %722 = stablehlo.concatenate %arg67, %721, dim = 2 : (tensor<3x8x7x128xf32>, tensor<3x8x1x128xf32>) -> tensor<3x8x8x128xf32>
    %723 = stablehlo.concatenate %arg68, %693, dim = 2 : (tensor<3x8x7x128xf32>, tensor<3x8x1x128xf32>) -> tensor<3x8x8x128xf32>
    %724 = stablehlo.reshape %722 : (tensor<3x8x8x128xf32>) -> tensor<3x8x1x8x128xf32>
    %725 = stablehlo.broadcast_in_dim %724, dims = [0, 1, 2, 3, 4] : (tensor<3x8x1x8x128xf32>) -> tensor<3x8x4x8x128xf32>
    %726 = stablehlo.reshape %725 : (tensor<3x8x4x8x128xf32>) -> tensor<3x32x8x128xf32>
    %727 = stablehlo.reshape %723 : (tensor<3x8x8x128xf32>) -> tensor<3x8x1x8x128xf32>
    %728 = stablehlo.broadcast_in_dim %727, dims = [0, 1, 2, 3, 4] : (tensor<3x8x1x8x128xf32>) -> tensor<3x8x4x8x128xf32>
    %729 = stablehlo.reshape %728 : (tensor<3x8x4x8x128xf32>) -> tensor<3x32x8x128xf32>
    %730 = stablehlo.transpose %726, dims = [0, 1, 3, 2] : (tensor<3x32x8x128xf32>) -> tensor<3x32x128x8xf32>
    %731 = stablehlo.reshape %710 : (tensor<3x32x1x128xf32>) -> tensor<96x1x128xf32>
    %732 = stablehlo.reshape %730 : (tensor<3x32x128x8xf32>) -> tensor<96x128x8xf32>
    %733 = stablehlo.broadcast_in_dim %732, dims = [0, 1, 2] : (tensor<96x128x8xf32>) -> tensor<96x128x8xf32>
    %734 = stablehlo.dot_general %731, %733, batching_dims = [0] x [0], contracting_dims = [2] x [1] : (tensor<96x1x128xf32>, tensor<96x128x8xf32>) -> tensor<96x1x8xf32>
    %735 = stablehlo.reshape %734 : (tensor<96x1x8xf32>) -> tensor<3x32x1x8xf32>
    %736 = stablehlo.broadcast_in_dim %735, dims = [0, 1, 2, 3] : (tensor<3x32x1x8xf32>) -> tensor<3x32x1x8xf32>
    %737 = stablehlo.divide %736, %89 : tensor<3x32x1x8xf32>
    %738 = stablehlo.custom_call @byteir.softmax(%737) {byteir_attrs = {axis = 3 : i64}} : (tensor<3x32x1x8xf32>) -> tensor<3x32x1x8xf32>
    %739 = stablehlo.reshape %738 : (tensor<3x32x1x8xf32>) -> tensor<96x1x8xf32>
    %740 = stablehlo.reshape %729 : (tensor<3x32x8x128xf32>) -> tensor<96x8x128xf32>
    %741 = stablehlo.broadcast_in_dim %740, dims = [0, 1, 2] : (tensor<96x8x128xf32>) -> tensor<96x8x128xf32>
    %742 = stablehlo.dot_general %739, %741, batching_dims = [0] x [0], contracting_dims = [2] x [1] : (tensor<96x1x8xf32>, tensor<96x8x128xf32>) -> tensor<96x1x128xf32>
    %743 = stablehlo.reshape %742 : (tensor<96x1x128xf32>) -> tensor<3x32x1x128xf32>
    %744 = stablehlo.transpose %743, dims = [0, 2, 1, 3] : (tensor<3x32x1x128xf32>) -> tensor<3x1x32x128xf32>
    %745 = stablehlo.reshape %744 : (tensor<3x1x32x128xf32>) -> tensor<3x1x4096xf32>
    %746 = stablehlo.reshape %745 : (tensor<3x1x4096xf32>) -> tensor<3x4096xf32>
    %747 = stablehlo.dot %746, %33 : (tensor<3x4096xf32>, tensor<4096x4096xf32>) -> tensor<3x4096xf32>
    %748 = stablehlo.reshape %747 : (tensor<3x4096xf32>) -> tensor<3x1x4096xf32>
    %749 = stablehlo.add %671, %748 : tensor<3x1x4096xf32>
    %750 = stablehlo.broadcast_in_dim %749, dims = [0, 1, 2] : (tensor<3x1x4096xf32>) -> tensor<3x1x4096xf32>
    %751 = stablehlo.power %750, %15 : tensor<3x1x4096xf32>
    %752 = stablehlo.reduce(%751 init: %cst_20) applies stablehlo.add across dimensions = [2] : (tensor<3x1x4096xf32>, tensor<f32>) -> tensor<3x1xf32>
    %753 = stablehlo.reshape %752 : (tensor<3x1xf32>) -> tensor<3x1x1xf32>
    %754 = stablehlo.broadcast_in_dim %753, dims = [0, 1, 2] : (tensor<3x1x1xf32>) -> tensor<3x1x1xf32>
    %755 = stablehlo.divide %754, %21 : tensor<3x1x1xf32>
    %756 = stablehlo.broadcast_in_dim %755, dims = [0, 1, 2] : (tensor<3x1x1xf32>) -> tensor<3x1x1xf32>
    %757 = stablehlo.add %756, %25 : tensor<3x1x1xf32>
    %758 = stablehlo.rsqrt %757 : tensor<3x1x1xf32>
    %759 = stablehlo.broadcast_in_dim %758, dims = [0, 1, 2] : (tensor<3x1x1xf32>) -> tensor<3x1x4096xf32>
    %760 = stablehlo.multiply %750, %759 : tensor<3x1x4096xf32>
    %761 = stablehlo.broadcast_in_dim %760, dims = [0, 1, 2] : (tensor<3x1x4096xf32>) -> tensor<3x1x4096xf32>
    %762 = stablehlo.multiply %761, %31 : tensor<3x1x4096xf32>
    %763 = stablehlo.reshape %762 : (tensor<3x1x4096xf32>) -> tensor<3x4096xf32>
    %764 = stablehlo.dot %763, %117 : (tensor<3x4096xf32>, tensor<4096x8xf32>) -> tensor<3x8xf32>
    %765 = stablehlo.custom_call @byteir.softmax(%764) {byteir_attrs = {axis = 1 : i64}} : (tensor<3x8xf32>) -> tensor<3x8xf32>
    %766:2 = stablehlo.custom_call @byteir.top_k(%765) {byteir_attrs = {axis = [1], k = 2 : i64, sorted = true}} : (tensor<3x8xf32>) -> (tensor<3x2xf32>, tensor<3x2xi64>)
    %767 = stablehlo.reduce(%766#0 init: %cst_20) applies stablehlo.add across dimensions = [1] : (tensor<3x2xf32>, tensor<f32>) -> tensor<3xf32>
    %768 = stablehlo.reshape %767 : (tensor<3xf32>) -> tensor<3x1xf32>
    %769 = stablehlo.broadcast_in_dim %766#0, dims = [0, 1] : (tensor<3x2xf32>) -> tensor<3x2xf32>
    %770 = stablehlo.broadcast_in_dim %768, dims = [0, 1] : (tensor<3x1xf32>) -> tensor<3x2xf32>
    %771 = stablehlo.divide %769, %770 : tensor<3x2xf32>
    %772 = stablehlo.reshape %766#1 : (tensor<3x2xi64>) -> tensor<3x2x1xi64>
    %773 = stablehlo.broadcast_in_dim %772, dims = [0, 1, 2] : (tensor<3x2x1xi64>) -> tensor<3x2x8xi64>
    %774 = stablehlo.compare  EQ, %773, %137,  SIGNED : (tensor<3x2x8xi64>, tensor<3x2x8xi64>) -> tensor<3x2x8xi1>
    %775 = stablehlo.convert %774 : (tensor<3x2x8xi1>) -> tensor<3x2x8xi64>
    %776 = stablehlo.transpose %775, dims = [2, 1, 0] : (tensor<3x2x8xi64>) -> tensor<8x2x3xi64>
    %777 = stablehlo.slice %776 [0:1, 0:2, 0:3] : (tensor<8x2x3xi64>) -> tensor<1x2x3xi64>
    %778 = stablehlo.reshape %777 : (tensor<1x2x3xi64>) -> tensor<2x3xi64>
    %779 = stablehlo.custom_call @byteir.non_zero(%778) {byteir_attrs = {}} : (tensor<2x3xi64>) -> tensor<?x2xi64>
    %dim_240 = tensor.dim %779, %c0 : tensor<?x2xi64>
    %780 = arith.index_cast %dim_240 : index to i64
    %from_elements_241 = tensor.from_elements %780, %c1_i64 : tensor<2xi64>
    %781 = stablehlo.real_dynamic_slice %779, %c_22, %from_elements_241, %c_21 : (tensor<?x2xi64>, tensor<2xi64>, tensor<2xi64>, tensor<2xi64>) -> tensor<?x1xi64>
    %dim_242 = tensor.dim %781, %c0 : tensor<?x1xi64>
    %782 = arith.index_cast %dim_242 : index to i64
    %from_elements_243 = tensor.from_elements %782 : tensor<1xi64>
    %783 = stablehlo.dynamic_reshape %781, %from_elements_243 : (tensor<?x1xi64>, tensor<1xi64>) -> tensor<?xi64>
    %from_elements_244 = tensor.from_elements %780, %c2_i64 : tensor<2xi64>
    %784 = stablehlo.real_dynamic_slice %779, %c_24, %from_elements_244, %c_21 : (tensor<?x2xi64>, tensor<2xi64>, tensor<2xi64>, tensor<2xi64>) -> tensor<?x1xi64>
    %dim_245 = tensor.dim %784, %c0 : tensor<?x1xi64>
    %785 = arith.index_cast %dim_245 : index to i64
    %from_elements_246 = tensor.from_elements %785 : tensor<1xi64>
    %786 = stablehlo.dynamic_reshape %784, %from_elements_246 : (tensor<?x1xi64>, tensor<1xi64>) -> tensor<?xi64>
    %787 = stablehlo.reshape %763 : (tensor<3x4096xf32>) -> tensor<1x3x4096xf32>
    %dim_247 = tensor.dim %786, %c0 : tensor<?xi64>
    %788 = arith.index_cast %dim_247 : index to i64
    %from_elements_248 = tensor.from_elements %788, %c1_i64 : tensor<2xi64>
    %789 = stablehlo.dynamic_reshape %786, %from_elements_248 : (tensor<?xi64>, tensor<2xi64>) -> tensor<?x1xi64>
    %dim_249 = tensor.dim %789, %c0 : tensor<?x1xi64>
    %790 = arith.index_cast %dim_249 : index to i64
    %from_elements_250 = tensor.from_elements %c1_i64, %790, %c4096_i64 : tensor<3xi64>
    %791 = stablehlo.dynamic_broadcast_in_dim %173, %from_elements_250, dims = [0, 1, 2] : (tensor<1x1x1xi64>, tensor<3xi64>) -> tensor<1x?x4096xi64>
    %dim_251 = tensor.dim %791, %c1 : tensor<1x?x4096xi64>
    %792 = arith.index_cast %dim_251 : index to i64
    %from_elements_252 = tensor.from_elements %c1_i64, %792, %c4096_i64, %c1_i64 : tensor<4xi64>
    %793 = stablehlo.dynamic_reshape %791, %from_elements_252 : (tensor<1x?x4096xi64>, tensor<4xi64>) -> tensor<1x?x4096x1xi64>
    %794 = stablehlo.dynamic_broadcast_in_dim %789, %from_elements_250, dims = [1, 2] : (tensor<?x1xi64>, tensor<3xi64>) -> tensor<1x?x4096xi64>
    %dim_253 = tensor.dim %794, %c1 : tensor<1x?x4096xi64>
    %795 = arith.index_cast %dim_253 : index to i64
    %from_elements_254 = tensor.from_elements %c1_i64, %795, %c4096_i64, %c1_i64 : tensor<4xi64>
    %796 = stablehlo.dynamic_reshape %794, %from_elements_254 : (tensor<1x?x4096xi64>, tensor<4xi64>) -> tensor<1x?x4096x1xi64>
    %797 = stablehlo.dynamic_broadcast_in_dim %160, %from_elements_250, dims = [2] : (tensor<4096xi64>, tensor<3xi64>) -> tensor<1x?x4096xi64>
    %dim_255 = tensor.dim %797, %c1 : tensor<1x?x4096xi64>
    %798 = arith.index_cast %dim_255 : index to i64
    %from_elements_256 = tensor.from_elements %c1_i64, %798, %c4096_i64, %c1_i64 : tensor<4xi64>
    %799 = stablehlo.dynamic_reshape %797, %from_elements_256 : (tensor<1x?x4096xi64>, tensor<4xi64>) -> tensor<1x?x4096x1xi64>
    %800 = stablehlo.concatenate %793, %796, %799, dim = 3 : (tensor<1x?x4096x1xi64>, tensor<1x?x4096x1xi64>, tensor<1x?x4096x1xi64>) -> tensor<1x?x4096x3xi64>
    %801 = "stablehlo.gather"(%787, %800) <{dimension_numbers = #stablehlo.gather<collapsed_slice_dims = [0, 1, 2], start_index_map = [0, 1, 2], index_vector_dim = 3>, indices_are_sorted = false, slice_sizes = array<i64: 1, 1, 1>}> : (tensor<1x3x4096xf32>, tensor<1x?x4096x3xi64>) -> tensor<1x?x4096xf32>
    %802 = shape.shape_of %801 : tensor<1x?x4096xf32> -> tensor<3xindex>
    %803 = shape.num_elements %802 : tensor<3xindex> -> index
    %804 = stablehlo.compute_reshape_shape %803, %c_23 : (index, tensor<2xi64>) -> tensor<2xi64>
    %805 = stablehlo.dynamic_reshape %801, %804 : (tensor<1x?x4096xf32>, tensor<2xi64>) -> tensor<?x4096xf32>
    %806 = stablehlo.dot %805, %190 : (tensor<?x4096xf32>, tensor<4096x14336xf32>) -> tensor<?x14336xf32>
    %807 = stablehlo.logistic %806 : tensor<?x14336xf32>
    %808 = shape.shape_of %807 : tensor<?x14336xf32> -> tensor<2xindex>
    %809 = shape.shape_of %806 : tensor<?x14336xf32> -> tensor<2xindex>
    %810 = shape.cstr_broadcastable %808, %809 : tensor<2xindex>, tensor<2xindex>
    %811 = shape.assuming %810 -> (tensor<?x14336xf32>) {
      %19688 = shape.broadcast %808, %809 : tensor<2xindex>, tensor<2xindex> -> tensor<2xindex>
      %19689 = stablehlo.dynamic_broadcast_in_dim %807, %19688, dims = [0, 1] : (tensor<?x14336xf32>, tensor<2xindex>) -> tensor<?x14336xf32>
      %19690 = stablehlo.dynamic_broadcast_in_dim %806, %19688, dims = [0, 1] : (tensor<?x14336xf32>, tensor<2xindex>) -> tensor<?x14336xf32>
      %19691 = stablehlo.multiply %19689, %19690 : tensor<?x14336xf32>
      shape.assuming_yield %19691 : tensor<?x14336xf32>
    }
    %812 = shape.shape_of %811 : tensor<?x14336xf32> -> tensor<2xindex>
    %813 = shape.cstr_broadcastable %812, %809 : tensor<2xindex>, tensor<2xindex>
    %814 = shape.assuming %813 -> (tensor<?x14336xf32>) {
      %19688 = shape.broadcast %812, %809 : tensor<2xindex>, tensor<2xindex> -> tensor<2xindex>
      %19689 = stablehlo.dynamic_broadcast_in_dim %811, %19688, dims = [0, 1] : (tensor<?x14336xf32>, tensor<2xindex>) -> tensor<?x14336xf32>
      %19690 = stablehlo.dynamic_broadcast_in_dim %806, %19688, dims = [0, 1] : (tensor<?x14336xf32>, tensor<2xindex>) -> tensor<?x14336xf32>
      %19691 = stablehlo.multiply %19689, %19690 : tensor<?x14336xf32>
      shape.assuming_yield %19691 : tensor<?x14336xf32>
    }
    %815 = stablehlo.dot %814, %200 : (tensor<?x14336xf32>, tensor<14336x4096xf32>) -> tensor<?x4096xf32>
    %816 = stablehlo.reshape %771 : (tensor<3x2xf32>) -> tensor<3x2x1xf32>
    %dim_257 = tensor.dim %786, %c0 : tensor<?xi64>
    %817 = arith.index_cast %dim_257 : index to i64
    %from_elements_258 = tensor.from_elements %817, %c1_i64 : tensor<2xi64>
    %818 = stablehlo.dynamic_reshape %786, %from_elements_258 : (tensor<?xi64>, tensor<2xi64>) -> tensor<?x1xi64>
    %dim_259 = tensor.dim %783, %c0 : tensor<?xi64>
    %819 = arith.index_cast %dim_259 : index to i64
    %from_elements_260 = tensor.from_elements %819, %c1_i64 : tensor<2xi64>
    %820 = stablehlo.dynamic_reshape %783, %from_elements_260 : (tensor<?xi64>, tensor<2xi64>) -> tensor<?x1xi64>
    %821 = stablehlo.concatenate %818, %820, dim = 1 : (tensor<?x1xi64>, tensor<?x1xi64>) -> tensor<?x2xi64>
    %822 = "stablehlo.gather"(%816, %821) <{dimension_numbers = #stablehlo.gather<offset_dims = [1], collapsed_slice_dims = [0, 1], start_index_map = [0, 1], index_vector_dim = 1>, indices_are_sorted = false, slice_sizes = array<i64: 1, 1, 1>}> : (tensor<3x2x1xf32>, tensor<?x2xi64>) -> tensor<?x1xf32>
    %823 = shape.shape_of %815 : tensor<?x4096xf32> -> tensor<2xindex>
    %824 = shape.shape_of %822 : tensor<?x1xf32> -> tensor<2xindex>
    %825 = shape.cstr_broadcastable %823, %824 : tensor<2xindex>, tensor<2xindex>
    %826 = shape.assuming %825 -> (tensor<?x4096xf32>) {
      %19688 = shape.broadcast %823, %824 : tensor<2xindex>, tensor<2xindex> -> tensor<2xindex>
      %19689 = stablehlo.dynamic_broadcast_in_dim %815, %19688, dims = [0, 1] : (tensor<?x4096xf32>, tensor<2xindex>) -> tensor<?x4096xf32>
      %19690 = stablehlo.dynamic_broadcast_in_dim %822, %19688, dims = [0, 1] : (tensor<?x1xf32>, tensor<2xindex>) -> tensor<?x4096xf32>
      %19691 = stablehlo.multiply %19689, %19690 : tensor<?x4096xf32>
      shape.assuming_yield %19691 : tensor<?x4096xf32>
    }
    %827 = shape.shape_of %826 : tensor<?x4096xf32> -> tensor<2xindex>
    %828 = stablehlo.dynamic_broadcast_in_dim %826, %827, dims = [0, 1] : (tensor<?x4096xf32>, tensor<2xindex>) -> tensor<?x4096xf32>
    %829 = stablehlo.dynamic_broadcast_in_dim %213, %827, dims = [] : (tensor<f32>, tensor<2xindex>) -> tensor<?x4096xf32>
    %830 = stablehlo.multiply %828, %829 : tensor<?x4096xf32>
    %dim_261 = tensor.dim %789, %c0 : tensor<?x1xi64>
    %831 = arith.index_cast %dim_261 : index to i64
    %dim_262 = tensor.dim %826, %c0 : tensor<?x4096xf32>
    %832 = arith.index_cast %dim_262 : index to i64
    %833 = arith.maxsi %831, %832 : i64
    %834 = arith.index_cast %833 : i64 to index
    %from_elements_263 = tensor.from_elements %834, %c4096 : tensor<2xindex>
    %835 = stablehlo.dynamic_broadcast_in_dim %789, %from_elements_263, dims = [0, 1] : (tensor<?x1xi64>, tensor<2xindex>) -> tensor<?x4096xi64>
    %dim_264 = tensor.dim %835, %c0 : tensor<?x4096xi64>
    %836 = arith.index_cast %dim_264 : index to i64
    %from_elements_265 = tensor.from_elements %836, %c4096_i64 : tensor<2xi64>
    %837 = stablehlo.real_dynamic_slice %830, %c_22, %from_elements_265, %c_21 : (tensor<?x4096xf32>, tensor<2xi64>, tensor<2xi64>, tensor<2xi64>) -> tensor<?x4096xf32>
    %from_elements_266 = tensor.from_elements %836, %c4096_i64, %c1_i64 : tensor<3xi64>
    %838 = stablehlo.dynamic_reshape %835, %from_elements_266 : (tensor<?x4096xi64>, tensor<3xi64>) -> tensor<?x4096x1xi64>
    %839 = stablehlo.dynamic_iota %from_elements_266, dim = 1 : (tensor<3xi64>) -> tensor<?x4096x1xi64>
    %840 = stablehlo.concatenate %838, %839, dim = 2 : (tensor<?x4096x1xi64>, tensor<?x4096x1xi64>) -> tensor<?x4096x2xi64>
    %841 = "stablehlo.scatter"(%cst_2, %840, %837) <{indices_are_sorted = false, scatter_dimension_numbers = #stablehlo.scatter<inserted_window_dims = [0, 1], scatter_dims_to_operand_dims = [0, 1], index_vector_dim = 2>, unique_indices = false}> ({
    ^bb0(%arg129: tensor<f32>, %arg130: tensor<f32>):
      %19688 = stablehlo.add %arg129, %arg130 : tensor<f32>
      stablehlo.return %19688 : tensor<f32>
    }) : (tensor<3x4096xf32>, tensor<?x4096x2xi64>, tensor<?x4096xf32>) -> tensor<3x4096xf32>
    %842 = stablehlo.slice %776 [1:2, 0:2, 0:3] : (tensor<8x2x3xi64>) -> tensor<1x2x3xi64>
    %843 = stablehlo.reshape %842 : (tensor<1x2x3xi64>) -> tensor<2x3xi64>
    %844 = stablehlo.custom_call @byteir.non_zero(%843) {byteir_attrs = {}} : (tensor<2x3xi64>) -> tensor<?x2xi64>
    %dim_267 = tensor.dim %844, %c0 : tensor<?x2xi64>
    %845 = arith.index_cast %dim_267 : index to i64
    %from_elements_268 = tensor.from_elements %845, %c1_i64 : tensor<2xi64>
    %846 = stablehlo.real_dynamic_slice %844, %c_22, %from_elements_268, %c_21 : (tensor<?x2xi64>, tensor<2xi64>, tensor<2xi64>, tensor<2xi64>) -> tensor<?x1xi64>
    %dim_269 = tensor.dim %846, %c0 : tensor<?x1xi64>
    %847 = arith.index_cast %dim_269 : index to i64
    %from_elements_270 = tensor.from_elements %847 : tensor<1xi64>
    %848 = stablehlo.dynamic_reshape %846, %from_elements_270 : (tensor<?x1xi64>, tensor<1xi64>) -> tensor<?xi64>
    %from_elements_271 = tensor.from_elements %845, %c2_i64 : tensor<2xi64>
    %849 = stablehlo.real_dynamic_slice %844, %c_24, %from_elements_271, %c_21 : (tensor<?x2xi64>, tensor<2xi64>, tensor<2xi64>, tensor<2xi64>) -> tensor<?x1xi64>
    %dim_272 = tensor.dim %849, %c0 : tensor<?x1xi64>
    %850 = arith.index_cast %dim_272 : index to i64
    %from_elements_273 = tensor.from_elements %850 : tensor<1xi64>
    %851 = stablehlo.dynamic_reshape %849, %from_elements_273 : (tensor<?x1xi64>, tensor<1xi64>) -> tensor<?xi64>
    %dim_274 = tensor.dim %851, %c0 : tensor<?xi64>
    %852 = arith.index_cast %dim_274 : index to i64
    %from_elements_275 = tensor.from_elements %852, %c1_i64 : tensor<2xi64>
    %853 = stablehlo.dynamic_reshape %851, %from_elements_275 : (tensor<?xi64>, tensor<2xi64>) -> tensor<?x1xi64>
    %dim_276 = tensor.dim %853, %c0 : tensor<?x1xi64>
    %854 = arith.index_cast %dim_276 : index to i64
    %from_elements_277 = tensor.from_elements %c1_i64, %854, %c4096_i64 : tensor<3xi64>
    %855 = stablehlo.dynamic_broadcast_in_dim %173, %from_elements_277, dims = [0, 1, 2] : (tensor<1x1x1xi64>, tensor<3xi64>) -> tensor<1x?x4096xi64>
    %dim_278 = tensor.dim %855, %c1 : tensor<1x?x4096xi64>
    %856 = arith.index_cast %dim_278 : index to i64
    %from_elements_279 = tensor.from_elements %c1_i64, %856, %c4096_i64, %c1_i64 : tensor<4xi64>
    %857 = stablehlo.dynamic_reshape %855, %from_elements_279 : (tensor<1x?x4096xi64>, tensor<4xi64>) -> tensor<1x?x4096x1xi64>
    %858 = stablehlo.dynamic_broadcast_in_dim %853, %from_elements_277, dims = [1, 2] : (tensor<?x1xi64>, tensor<3xi64>) -> tensor<1x?x4096xi64>
    %dim_280 = tensor.dim %858, %c1 : tensor<1x?x4096xi64>
    %859 = arith.index_cast %dim_280 : index to i64
    %from_elements_281 = tensor.from_elements %c1_i64, %859, %c4096_i64, %c1_i64 : tensor<4xi64>
    %860 = stablehlo.dynamic_reshape %858, %from_elements_281 : (tensor<1x?x4096xi64>, tensor<4xi64>) -> tensor<1x?x4096x1xi64>
    %861 = stablehlo.dynamic_broadcast_in_dim %160, %from_elements_277, dims = [2] : (tensor<4096xi64>, tensor<3xi64>) -> tensor<1x?x4096xi64>
    %dim_282 = tensor.dim %861, %c1 : tensor<1x?x4096xi64>
    %862 = arith.index_cast %dim_282 : index to i64
    %from_elements_283 = tensor.from_elements %c1_i64, %862, %c4096_i64, %c1_i64 : tensor<4xi64>
    %863 = stablehlo.dynamic_reshape %861, %from_elements_283 : (tensor<1x?x4096xi64>, tensor<4xi64>) -> tensor<1x?x4096x1xi64>
    %864 = stablehlo.concatenate %857, %860, %863, dim = 3 : (tensor<1x?x4096x1xi64>, tensor<1x?x4096x1xi64>, tensor<1x?x4096x1xi64>) -> tensor<1x?x4096x3xi64>
    %865 = "stablehlo.gather"(%787, %864) <{dimension_numbers = #stablehlo.gather<collapsed_slice_dims = [0, 1, 2], start_index_map = [0, 1, 2], index_vector_dim = 3>, indices_are_sorted = false, slice_sizes = array<i64: 1, 1, 1>}> : (tensor<1x3x4096xf32>, tensor<1x?x4096x3xi64>) -> tensor<1x?x4096xf32>
    %866 = shape.shape_of %865 : tensor<1x?x4096xf32> -> tensor<3xindex>
    %867 = shape.num_elements %866 : tensor<3xindex> -> index
    %868 = stablehlo.compute_reshape_shape %867, %c_23 : (index, tensor<2xi64>) -> tensor<2xi64>
    %869 = stablehlo.dynamic_reshape %865, %868 : (tensor<1x?x4096xf32>, tensor<2xi64>) -> tensor<?x4096xf32>
    %870 = stablehlo.dot %869, %190 : (tensor<?x4096xf32>, tensor<4096x14336xf32>) -> tensor<?x14336xf32>
    %871 = stablehlo.logistic %870 : tensor<?x14336xf32>
    %872 = shape.shape_of %871 : tensor<?x14336xf32> -> tensor<2xindex>
    %873 = shape.shape_of %870 : tensor<?x14336xf32> -> tensor<2xindex>
    %874 = shape.cstr_broadcastable %872, %873 : tensor<2xindex>, tensor<2xindex>
    %875 = shape.assuming %874 -> (tensor<?x14336xf32>) {
      %19688 = shape.broadcast %872, %873 : tensor<2xindex>, tensor<2xindex> -> tensor<2xindex>
      %19689 = stablehlo.dynamic_broadcast_in_dim %871, %19688, dims = [0, 1] : (tensor<?x14336xf32>, tensor<2xindex>) -> tensor<?x14336xf32>
      %19690 = stablehlo.dynamic_broadcast_in_dim %870, %19688, dims = [0, 1] : (tensor<?x14336xf32>, tensor<2xindex>) -> tensor<?x14336xf32>
      %19691 = stablehlo.multiply %19689, %19690 : tensor<?x14336xf32>
      shape.assuming_yield %19691 : tensor<?x14336xf32>
    }
    %876 = shape.shape_of %875 : tensor<?x14336xf32> -> tensor<2xindex>
    %877 = shape.cstr_broadcastable %876, %873 : tensor<2xindex>, tensor<2xindex>
    %878 = shape.assuming %877 -> (tensor<?x14336xf32>) {
      %19688 = shape.broadcast %876, %873 : tensor<2xindex>, tensor<2xindex> -> tensor<2xindex>
      %19689 = stablehlo.dynamic_broadcast_in_dim %875, %19688, dims = [0, 1] : (tensor<?x14336xf32>, tensor<2xindex>) -> tensor<?x14336xf32>
      %19690 = stablehlo.dynamic_broadcast_in_dim %870, %19688, dims = [0, 1] : (tensor<?x14336xf32>, tensor<2xindex>) -> tensor<?x14336xf32>
      %19691 = stablehlo.multiply %19689, %19690 : tensor<?x14336xf32>
      shape.assuming_yield %19691 : tensor<?x14336xf32>
    }
    %879 = stablehlo.dot %878, %200 : (tensor<?x14336xf32>, tensor<14336x4096xf32>) -> tensor<?x4096xf32>
    %dim_284 = tensor.dim %851, %c0 : tensor<?xi64>
    %880 = arith.index_cast %dim_284 : index to i64
    %from_elements_285 = tensor.from_elements %880, %c1_i64 : tensor<2xi64>
    %881 = stablehlo.dynamic_reshape %851, %from_elements_285 : (tensor<?xi64>, tensor<2xi64>) -> tensor<?x1xi64>
    %dim_286 = tensor.dim %848, %c0 : tensor<?xi64>
    %882 = arith.index_cast %dim_286 : index to i64
    %from_elements_287 = tensor.from_elements %882, %c1_i64 : tensor<2xi64>
    %883 = stablehlo.dynamic_reshape %848, %from_elements_287 : (tensor<?xi64>, tensor<2xi64>) -> tensor<?x1xi64>
    %884 = stablehlo.concatenate %881, %883, dim = 1 : (tensor<?x1xi64>, tensor<?x1xi64>) -> tensor<?x2xi64>
    %885 = "stablehlo.gather"(%816, %884) <{dimension_numbers = #stablehlo.gather<offset_dims = [1], collapsed_slice_dims = [0, 1], start_index_map = [0, 1], index_vector_dim = 1>, indices_are_sorted = false, slice_sizes = array<i64: 1, 1, 1>}> : (tensor<3x2x1xf32>, tensor<?x2xi64>) -> tensor<?x1xf32>
    %886 = shape.shape_of %879 : tensor<?x4096xf32> -> tensor<2xindex>
    %887 = shape.shape_of %885 : tensor<?x1xf32> -> tensor<2xindex>
    %888 = shape.cstr_broadcastable %886, %887 : tensor<2xindex>, tensor<2xindex>
    %889 = shape.assuming %888 -> (tensor<?x4096xf32>) {
      %19688 = shape.broadcast %886, %887 : tensor<2xindex>, tensor<2xindex> -> tensor<2xindex>
      %19689 = stablehlo.dynamic_broadcast_in_dim %879, %19688, dims = [0, 1] : (tensor<?x4096xf32>, tensor<2xindex>) -> tensor<?x4096xf32>
      %19690 = stablehlo.dynamic_broadcast_in_dim %885, %19688, dims = [0, 1] : (tensor<?x1xf32>, tensor<2xindex>) -> tensor<?x4096xf32>
      %19691 = stablehlo.multiply %19689, %19690 : tensor<?x4096xf32>
      shape.assuming_yield %19691 : tensor<?x4096xf32>
    }
    %890 = shape.shape_of %889 : tensor<?x4096xf32> -> tensor<2xindex>
    %891 = stablehlo.dynamic_broadcast_in_dim %889, %890, dims = [0, 1] : (tensor<?x4096xf32>, tensor<2xindex>) -> tensor<?x4096xf32>
    %892 = stablehlo.dynamic_broadcast_in_dim %213, %890, dims = [] : (tensor<f32>, tensor<2xindex>) -> tensor<?x4096xf32>
    %893 = stablehlo.multiply %891, %892 : tensor<?x4096xf32>
    %dim_288 = tensor.dim %853, %c0 : tensor<?x1xi64>
    %894 = arith.index_cast %dim_288 : index to i64
    %dim_289 = tensor.dim %889, %c0 : tensor<?x4096xf32>
    %895 = arith.index_cast %dim_289 : index to i64
    %896 = arith.maxsi %894, %895 : i64
    %897 = arith.index_cast %896 : i64 to index
    %from_elements_290 = tensor.from_elements %897, %c4096 : tensor<2xindex>
    %898 = stablehlo.dynamic_broadcast_in_dim %853, %from_elements_290, dims = [0, 1] : (tensor<?x1xi64>, tensor<2xindex>) -> tensor<?x4096xi64>
    %dim_291 = tensor.dim %898, %c0 : tensor<?x4096xi64>
    %899 = arith.index_cast %dim_291 : index to i64
    %from_elements_292 = tensor.from_elements %899, %c4096_i64 : tensor<2xi64>
    %900 = stablehlo.real_dynamic_slice %893, %c_22, %from_elements_292, %c_21 : (tensor<?x4096xf32>, tensor<2xi64>, tensor<2xi64>, tensor<2xi64>) -> tensor<?x4096xf32>
    %from_elements_293 = tensor.from_elements %899, %c4096_i64, %c1_i64 : tensor<3xi64>
    %901 = stablehlo.dynamic_reshape %898, %from_elements_293 : (tensor<?x4096xi64>, tensor<3xi64>) -> tensor<?x4096x1xi64>
    %902 = stablehlo.dynamic_iota %from_elements_293, dim = 1 : (tensor<3xi64>) -> tensor<?x4096x1xi64>
    %903 = stablehlo.concatenate %901, %902, dim = 2 : (tensor<?x4096x1xi64>, tensor<?x4096x1xi64>) -> tensor<?x4096x2xi64>
    %904 = "stablehlo.scatter"(%841, %903, %900) <{indices_are_sorted = false, scatter_dimension_numbers = #stablehlo.scatter<inserted_window_dims = [0, 1], scatter_dims_to_operand_dims = [0, 1], index_vector_dim = 2>, unique_indices = false}> ({
    ^bb0(%arg129: tensor<f32>, %arg130: tensor<f32>):
      %19688 = stablehlo.add %arg129, %arg130 : tensor<f32>
      stablehlo.return %19688 : tensor<f32>
    }) : (tensor<3x4096xf32>, tensor<?x4096x2xi64>, tensor<?x4096xf32>) -> tensor<3x4096xf32>
    %905 = stablehlo.slice %776 [2:3, 0:2, 0:3] : (tensor<8x2x3xi64>) -> tensor<1x2x3xi64>
    %906 = stablehlo.reshape %905 : (tensor<1x2x3xi64>) -> tensor<2x3xi64>
    %907 = stablehlo.custom_call @byteir.non_zero(%906) {byteir_attrs = {}} : (tensor<2x3xi64>) -> tensor<?x2xi64>
    %dim_294 = tensor.dim %907, %c0 : tensor<?x2xi64>
    %908 = arith.index_cast %dim_294 : index to i64
    %from_elements_295 = tensor.from_elements %908, %c1_i64 : tensor<2xi64>
    %909 = stablehlo.real_dynamic_slice %907, %c_22, %from_elements_295, %c_21 : (tensor<?x2xi64>, tensor<2xi64>, tensor<2xi64>, tensor<2xi64>) -> tensor<?x1xi64>
    %dim_296 = tensor.dim %909, %c0 : tensor<?x1xi64>
    %910 = arith.index_cast %dim_296 : index to i64
    %from_elements_297 = tensor.from_elements %910 : tensor<1xi64>
    %911 = stablehlo.dynamic_reshape %909, %from_elements_297 : (tensor<?x1xi64>, tensor<1xi64>) -> tensor<?xi64>
    %from_elements_298 = tensor.from_elements %908, %c2_i64 : tensor<2xi64>
    %912 = stablehlo.real_dynamic_slice %907, %c_24, %from_elements_298, %c_21 : (tensor<?x2xi64>, tensor<2xi64>, tensor<2xi64>, tensor<2xi64>) -> tensor<?x1xi64>
    %dim_299 = tensor.dim %912, %c0 : tensor<?x1xi64>
    %913 = arith.index_cast %dim_299 : index to i64
    %from_elements_300 = tensor.from_elements %913 : tensor<1xi64>
    %914 = stablehlo.dynamic_reshape %912, %from_elements_300 : (tensor<?x1xi64>, tensor<1xi64>) -> tensor<?xi64>
    %dim_301 = tensor.dim %914, %c0 : tensor<?xi64>
    %915 = arith.index_cast %dim_301 : index to i64
    %from_elements_302 = tensor.from_elements %915, %c1_i64 : tensor<2xi64>
    %916 = stablehlo.dynamic_reshape %914, %from_elements_302 : (tensor<?xi64>, tensor<2xi64>) -> tensor<?x1xi64>
    %dim_303 = tensor.dim %916, %c0 : tensor<?x1xi64>
    %917 = arith.index_cast %dim_303 : index to i64
    %from_elements_304 = tensor.from_elements %c1_i64, %917, %c4096_i64 : tensor<3xi64>
    %918 = stablehlo.dynamic_broadcast_in_dim %173, %from_elements_304, dims = [0, 1, 2] : (tensor<1x1x1xi64>, tensor<3xi64>) -> tensor<1x?x4096xi64>
    %dim_305 = tensor.dim %918, %c1 : tensor<1x?x4096xi64>
    %919 = arith.index_cast %dim_305 : index to i64
    %from_elements_306 = tensor.from_elements %c1_i64, %919, %c4096_i64, %c1_i64 : tensor<4xi64>
    %920 = stablehlo.dynamic_reshape %918, %from_elements_306 : (tensor<1x?x4096xi64>, tensor<4xi64>) -> tensor<1x?x4096x1xi64>
    %921 = stablehlo.dynamic_broadcast_in_dim %916, %from_elements_304, dims = [1, 2] : (tensor<?x1xi64>, tensor<3xi64>) -> tensor<1x?x4096xi64>
    %dim_307 = tensor.dim %921, %c1 : tensor<1x?x4096xi64>
    %922 = arith.index_cast %dim_307 : index to i64
    %from_elements_308 = tensor.from_elements %c1_i64, %922, %c4096_i64, %c1_i64 : tensor<4xi64>
    %923 = stablehlo.dynamic_reshape %921, %from_elements_308 : (tensor<1x?x4096xi64>, tensor<4xi64>) -> tensor<1x?x4096x1xi64>
    %924 = stablehlo.dynamic_broadcast_in_dim %160, %from_elements_304, dims = [2] : (tensor<4096xi64>, tensor<3xi64>) -> tensor<1x?x4096xi64>
    %dim_309 = tensor.dim %924, %c1 : tensor<1x?x4096xi64>
    %925 = arith.index_cast %dim_309 : index to i64
    %from_elements_310 = tensor.from_elements %c1_i64, %925, %c4096_i64, %c1_i64 : tensor<4xi64>
    %926 = stablehlo.dynamic_reshape %924, %from_elements_310 : (tensor<1x?x4096xi64>, tensor<4xi64>) -> tensor<1x?x4096x1xi64>
    %927 = stablehlo.concatenate %920, %923, %926, dim = 3 : (tensor<1x?x4096x1xi64>, tensor<1x?x4096x1xi64>, tensor<1x?x4096x1xi64>) -> tensor<1x?x4096x3xi64>
    %928 = "stablehlo.gather"(%787, %927) <{dimension_numbers = #stablehlo.gather<collapsed_slice_dims = [0, 1, 2], start_index_map = [0, 1, 2], index_vector_dim = 3>, indices_are_sorted = false, slice_sizes = array<i64: 1, 1, 1>}> : (tensor<1x3x4096xf32>, tensor<1x?x4096x3xi64>) -> tensor<1x?x4096xf32>
    %929 = shape.shape_of %928 : tensor<1x?x4096xf32> -> tensor<3xindex>
    %930 = shape.num_elements %929 : tensor<3xindex> -> index
    %931 = stablehlo.compute_reshape_shape %930, %c_23 : (index, tensor<2xi64>) -> tensor<2xi64>
    %932 = stablehlo.dynamic_reshape %928, %931 : (tensor<1x?x4096xf32>, tensor<2xi64>) -> tensor<?x4096xf32>
    %933 = stablehlo.dot %932, %190 : (tensor<?x4096xf32>, tensor<4096x14336xf32>) -> tensor<?x14336xf32>
    %934 = stablehlo.logistic %933 : tensor<?x14336xf32>
    %935 = shape.shape_of %934 : tensor<?x14336xf32> -> tensor<2xindex>
    %936 = shape.shape_of %933 : tensor<?x14336xf32> -> tensor<2xindex>
    %937 = shape.cstr_broadcastable %935, %936 : tensor<2xindex>, tensor<2xindex>
    %938 = shape.assuming %937 -> (tensor<?x14336xf32>) {
      %19688 = shape.broadcast %935, %936 : tensor<2xindex>, tensor<2xindex> -> tensor<2xindex>
      %19689 = stablehlo.dynamic_broadcast_in_dim %934, %19688, dims = [0, 1] : (tensor<?x14336xf32>, tensor<2xindex>) -> tensor<?x14336xf32>
      %19690 = stablehlo.dynamic_broadcast_in_dim %933, %19688, dims = [0, 1] : (tensor<?x14336xf32>, tensor<2xindex>) -> tensor<?x14336xf32>
      %19691 = stablehlo.multiply %19689, %19690 : tensor<?x14336xf32>
      shape.assuming_yield %19691 : tensor<?x14336xf32>
    }
    %939 = shape.shape_of %938 : tensor<?x14336xf32> -> tensor<2xindex>
    %940 = shape.cstr_broadcastable %939, %936 : tensor<2xindex>, tensor<2xindex>
    %941 = shape.assuming %940 -> (tensor<?x14336xf32>) {
      %19688 = shape.broadcast %939, %936 : tensor<2xindex>, tensor<2xindex> -> tensor<2xindex>
      %19689 = stablehlo.dynamic_broadcast_in_dim %938, %19688, dims = [0, 1] : (tensor<?x14336xf32>, tensor<2xindex>) -> tensor<?x14336xf32>
      %19690 = stablehlo.dynamic_broadcast_in_dim %933, %19688, dims = [0, 1] : (tensor<?x14336xf32>, tensor<2xindex>) -> tensor<?x14336xf32>
      %19691 = stablehlo.multiply %19689, %19690 : tensor<?x14336xf32>
      shape.assuming_yield %19691 : tensor<?x14336xf32>
    }
    %942 = stablehlo.dot %941, %200 : (tensor<?x14336xf32>, tensor<14336x4096xf32>) -> tensor<?x4096xf32>
    %dim_311 = tensor.dim %914, %c0 : tensor<?xi64>
    %943 = arith.index_cast %dim_311 : index to i64
    %from_elements_312 = tensor.from_elements %943, %c1_i64 : tensor<2xi64>
    %944 = stablehlo.dynamic_reshape %914, %from_elements_312 : (tensor<?xi64>, tensor<2xi64>) -> tensor<?x1xi64>
    %dim_313 = tensor.dim %911, %c0 : tensor<?xi64>
    %945 = arith.index_cast %dim_313 : index to i64
    %from_elements_314 = tensor.from_elements %945, %c1_i64 : tensor<2xi64>
    %946 = stablehlo.dynamic_reshape %911, %from_elements_314 : (tensor<?xi64>, tensor<2xi64>) -> tensor<?x1xi64>
    %947 = stablehlo.concatenate %944, %946, dim = 1 : (tensor<?x1xi64>, tensor<?x1xi64>) -> tensor<?x2xi64>
    %948 = "stablehlo.gather"(%816, %947) <{dimension_numbers = #stablehlo.gather<offset_dims = [1], collapsed_slice_dims = [0, 1], start_index_map = [0, 1], index_vector_dim = 1>, indices_are_sorted = false, slice_sizes = array<i64: 1, 1, 1>}> : (tensor<3x2x1xf32>, tensor<?x2xi64>) -> tensor<?x1xf32>
    %949 = shape.shape_of %942 : tensor<?x4096xf32> -> tensor<2xindex>
    %950 = shape.shape_of %948 : tensor<?x1xf32> -> tensor<2xindex>
    %951 = shape.cstr_broadcastable %949, %950 : tensor<2xindex>, tensor<2xindex>
    %952 = shape.assuming %951 -> (tensor<?x4096xf32>) {
      %19688 = shape.broadcast %949, %950 : tensor<2xindex>, tensor<2xindex> -> tensor<2xindex>
      %19689 = stablehlo.dynamic_broadcast_in_dim %942, %19688, dims = [0, 1] : (tensor<?x4096xf32>, tensor<2xindex>) -> tensor<?x4096xf32>
      %19690 = stablehlo.dynamic_broadcast_in_dim %948, %19688, dims = [0, 1] : (tensor<?x1xf32>, tensor<2xindex>) -> tensor<?x4096xf32>
      %19691 = stablehlo.multiply %19689, %19690 : tensor<?x4096xf32>
      shape.assuming_yield %19691 : tensor<?x4096xf32>
    }
    %953 = shape.shape_of %952 : tensor<?x4096xf32> -> tensor<2xindex>
    %954 = stablehlo.dynamic_broadcast_in_dim %952, %953, dims = [0, 1] : (tensor<?x4096xf32>, tensor<2xindex>) -> tensor<?x4096xf32>
    %955 = stablehlo.dynamic_broadcast_in_dim %213, %953, dims = [] : (tensor<f32>, tensor<2xindex>) -> tensor<?x4096xf32>
    %956 = stablehlo.multiply %954, %955 : tensor<?x4096xf32>
    %dim_315 = tensor.dim %916, %c0 : tensor<?x1xi64>
    %957 = arith.index_cast %dim_315 : index to i64
    %dim_316 = tensor.dim %952, %c0 : tensor<?x4096xf32>
    %958 = arith.index_cast %dim_316 : index to i64
    %959 = arith.maxsi %957, %958 : i64
    %960 = arith.index_cast %959 : i64 to index
    %from_elements_317 = tensor.from_elements %960, %c4096 : tensor<2xindex>
    %961 = stablehlo.dynamic_broadcast_in_dim %916, %from_elements_317, dims = [0, 1] : (tensor<?x1xi64>, tensor<2xindex>) -> tensor<?x4096xi64>
    %dim_318 = tensor.dim %961, %c0 : tensor<?x4096xi64>
    %962 = arith.index_cast %dim_318 : index to i64
    %from_elements_319 = tensor.from_elements %962, %c4096_i64 : tensor<2xi64>
    %963 = stablehlo.real_dynamic_slice %956, %c_22, %from_elements_319, %c_21 : (tensor<?x4096xf32>, tensor<2xi64>, tensor<2xi64>, tensor<2xi64>) -> tensor<?x4096xf32>
    %from_elements_320 = tensor.from_elements %962, %c4096_i64, %c1_i64 : tensor<3xi64>
    %964 = stablehlo.dynamic_reshape %961, %from_elements_320 : (tensor<?x4096xi64>, tensor<3xi64>) -> tensor<?x4096x1xi64>
    %965 = stablehlo.dynamic_iota %from_elements_320, dim = 1 : (tensor<3xi64>) -> tensor<?x4096x1xi64>
    %966 = stablehlo.concatenate %964, %965, dim = 2 : (tensor<?x4096x1xi64>, tensor<?x4096x1xi64>) -> tensor<?x4096x2xi64>
    %967 = "stablehlo.scatter"(%904, %966, %963) <{indices_are_sorted = false, scatter_dimension_numbers = #stablehlo.scatter<inserted_window_dims = [0, 1], scatter_dims_to_operand_dims = [0, 1], index_vector_dim = 2>, unique_indices = false}> ({
    ^bb0(%arg129: tensor<f32>, %arg130: tensor<f32>):
      %19688 = stablehlo.add %arg129, %arg130 : tensor<f32>
      stablehlo.return %19688 : tensor<f32>
    }) : (tensor<3x4096xf32>, tensor<?x4096x2xi64>, tensor<?x4096xf32>) -> tensor<3x4096xf32>
    %968 = stablehlo.slice %776 [3:4, 0:2, 0:3] : (tensor<8x2x3xi64>) -> tensor<1x2x3xi64>
    %969 = stablehlo.reshape %968 : (tensor<1x2x3xi64>) -> tensor<2x3xi64>
    %970 = stablehlo.custom_call @byteir.non_zero(%969) {byteir_attrs = {}} : (tensor<2x3xi64>) -> tensor<?x2xi64>
    %dim_321 = tensor.dim %970, %c0 : tensor<?x2xi64>
    %971 = arith.index_cast %dim_321 : index to i64
    %from_elements_322 = tensor.from_elements %971, %c1_i64 : tensor<2xi64>
    %972 = stablehlo.real_dynamic_slice %970, %c_22, %from_elements_322, %c_21 : (tensor<?x2xi64>, tensor<2xi64>, tensor<2xi64>, tensor<2xi64>) -> tensor<?x1xi64>
    %dim_323 = tensor.dim %972, %c0 : tensor<?x1xi64>
    %973 = arith.index_cast %dim_323 : index to i64
    %from_elements_324 = tensor.from_elements %973 : tensor<1xi64>
    %974 = stablehlo.dynamic_reshape %972, %from_elements_324 : (tensor<?x1xi64>, tensor<1xi64>) -> tensor<?xi64>
    %from_elements_325 = tensor.from_elements %971, %c2_i64 : tensor<2xi64>
    %975 = stablehlo.real_dynamic_slice %970, %c_24, %from_elements_325, %c_21 : (tensor<?x2xi64>, tensor<2xi64>, tensor<2xi64>, tensor<2xi64>) -> tensor<?x1xi64>
    %dim_326 = tensor.dim %975, %c0 : tensor<?x1xi64>
    %976 = arith.index_cast %dim_326 : index to i64
    %from_elements_327 = tensor.from_elements %976 : tensor<1xi64>
    %977 = stablehlo.dynamic_reshape %975, %from_elements_327 : (tensor<?x1xi64>, tensor<1xi64>) -> tensor<?xi64>
    %dim_328 = tensor.dim %977, %c0 : tensor<?xi64>
    %978 = arith.index_cast %dim_328 : index to i64
    %from_elements_329 = tensor.from_elements %978, %c1_i64 : tensor<2xi64>
    %979 = stablehlo.dynamic_reshape %977, %from_elements_329 : (tensor<?xi64>, tensor<2xi64>) -> tensor<?x1xi64>
    %dim_330 = tensor.dim %979, %c0 : tensor<?x1xi64>
    %980 = arith.index_cast %dim_330 : index to i64
    %from_elements_331 = tensor.from_elements %c1_i64, %980, %c4096_i64 : tensor<3xi64>
    %981 = stablehlo.dynamic_broadcast_in_dim %173, %from_elements_331, dims = [0, 1, 2] : (tensor<1x1x1xi64>, tensor<3xi64>) -> tensor<1x?x4096xi64>
    %dim_332 = tensor.dim %981, %c1 : tensor<1x?x4096xi64>
    %982 = arith.index_cast %dim_332 : index to i64
    %from_elements_333 = tensor.from_elements %c1_i64, %982, %c4096_i64, %c1_i64 : tensor<4xi64>
    %983 = stablehlo.dynamic_reshape %981, %from_elements_333 : (tensor<1x?x4096xi64>, tensor<4xi64>) -> tensor<1x?x4096x1xi64>
    %984 = stablehlo.dynamic_broadcast_in_dim %979, %from_elements_331, dims = [1, 2] : (tensor<?x1xi64>, tensor<3xi64>) -> tensor<1x?x4096xi64>
    %dim_334 = tensor.dim %984, %c1 : tensor<1x?x4096xi64>
    %985 = arith.index_cast %dim_334 : index to i64
    %from_elements_335 = tensor.from_elements %c1_i64, %985, %c4096_i64, %c1_i64 : tensor<4xi64>
    %986 = stablehlo.dynamic_reshape %984, %from_elements_335 : (tensor<1x?x4096xi64>, tensor<4xi64>) -> tensor<1x?x4096x1xi64>
    %987 = stablehlo.dynamic_broadcast_in_dim %160, %from_elements_331, dims = [2] : (tensor<4096xi64>, tensor<3xi64>) -> tensor<1x?x4096xi64>
    %dim_336 = tensor.dim %987, %c1 : tensor<1x?x4096xi64>
    %988 = arith.index_cast %dim_336 : index to i64
    %from_elements_337 = tensor.from_elements %c1_i64, %988, %c4096_i64, %c1_i64 : tensor<4xi64>
    %989 = stablehlo.dynamic_reshape %987, %from_elements_337 : (tensor<1x?x4096xi64>, tensor<4xi64>) -> tensor<1x?x4096x1xi64>
    %990 = stablehlo.concatenate %983, %986, %989, dim = 3 : (tensor<1x?x4096x1xi64>, tensor<1x?x4096x1xi64>, tensor<1x?x4096x1xi64>) -> tensor<1x?x4096x3xi64>
    %991 = "stablehlo.gather"(%787, %990) <{dimension_numbers = #stablehlo.gather<collapsed_slice_dims = [0, 1, 2], start_index_map = [0, 1, 2], index_vector_dim = 3>, indices_are_sorted = false, slice_sizes = array<i64: 1, 1, 1>}> : (tensor<1x3x4096xf32>, tensor<1x?x4096x3xi64>) -> tensor<1x?x4096xf32>
    %992 = shape.shape_of %991 : tensor<1x?x4096xf32> -> tensor<3xindex>
    %993 = shape.num_elements %992 : tensor<3xindex> -> index
    %994 = stablehlo.compute_reshape_shape %993, %c_23 : (index, tensor<2xi64>) -> tensor<2xi64>
    %995 = stablehlo.dynamic_reshape %991, %994 : (tensor<1x?x4096xf32>, tensor<2xi64>) -> tensor<?x4096xf32>
    %996 = stablehlo.dot %995, %190 : (tensor<?x4096xf32>, tensor<4096x14336xf32>) -> tensor<?x14336xf32>
    %997 = stablehlo.logistic %996 : tensor<?x14336xf32>
    %998 = shape.shape_of %997 : tensor<?x14336xf32> -> tensor<2xindex>
    %999 = shape.shape_of %996 : tensor<?x14336xf32> -> tensor<2xindex>
    %1000 = shape.cstr_broadcastable %998, %999 : tensor<2xindex>, tensor<2xindex>
    %1001 = shape.assuming %1000 -> (tensor<?x14336xf32>) {
      %19688 = shape.broadcast %998, %999 : tensor<2xindex>, tensor<2xindex> -> tensor<2xindex>
      %19689 = stablehlo.dynamic_broadcast_in_dim %997, %19688, dims = [0, 1] : (tensor<?x14336xf32>, tensor<2xindex>) -> tensor<?x14336xf32>
      %19690 = stablehlo.dynamic_broadcast_in_dim %996, %19688, dims = [0, 1] : (tensor<?x14336xf32>, tensor<2xindex>) -> tensor<?x14336xf32>
      %19691 = stablehlo.multiply %19689, %19690 : tensor<?x14336xf32>
      shape.assuming_yield %19691 : tensor<?x14336xf32>
    }
    %1002 = shape.shape_of %1001 : tensor<?x14336xf32> -> tensor<2xindex>
    %1003 = shape.cstr_broadcastable %1002, %999 : tensor<2xindex>, tensor<2xindex>
    %1004 = shape.assuming %1003 -> (tensor<?x14336xf32>) {
      %19688 = shape.broadcast %1002, %999 : tensor<2xindex>, tensor<2xindex> -> tensor<2xindex>
      %19689 = stablehlo.dynamic_broadcast_in_dim %1001, %19688, dims = [0, 1] : (tensor<?x14336xf32>, tensor<2xindex>) -> tensor<?x14336xf32>
      %19690 = stablehlo.dynamic_broadcast_in_dim %996, %19688, dims = [0, 1] : (tensor<?x14336xf32>, tensor<2xindex>) -> tensor<?x14336xf32>
      %19691 = stablehlo.multiply %19689, %19690 : tensor<?x14336xf32>
      shape.assuming_yield %19691 : tensor<?x14336xf32>
    }
    %1005 = stablehlo.dot %1004, %200 : (tensor<?x14336xf32>, tensor<14336x4096xf32>) -> tensor<?x4096xf32>
    %dim_338 = tensor.dim %977, %c0 : tensor<?xi64>
    %1006 = arith.index_cast %dim_338 : index to i64
    %from_elements_339 = tensor.from_elements %1006, %c1_i64 : tensor<2xi64>
    %1007 = stablehlo.dynamic_reshape %977, %from_elements_339 : (tensor<?xi64>, tensor<2xi64>) -> tensor<?x1xi64>
    %dim_340 = tensor.dim %974, %c0 : tensor<?xi64>
    %1008 = arith.index_cast %dim_340 : index to i64
    %from_elements_341 = tensor.from_elements %1008, %c1_i64 : tensor<2xi64>
    %1009 = stablehlo.dynamic_reshape %974, %from_elements_341 : (tensor<?xi64>, tensor<2xi64>) -> tensor<?x1xi64>
    %1010 = stablehlo.concatenate %1007, %1009, dim = 1 : (tensor<?x1xi64>, tensor<?x1xi64>) -> tensor<?x2xi64>
    %1011 = "stablehlo.gather"(%816, %1010) <{dimension_numbers = #stablehlo.gather<offset_dims = [1], collapsed_slice_dims = [0, 1], start_index_map = [0, 1], index_vector_dim = 1>, indices_are_sorted = false, slice_sizes = array<i64: 1, 1, 1>}> : (tensor<3x2x1xf32>, tensor<?x2xi64>) -> tensor<?x1xf32>
    %1012 = shape.shape_of %1005 : tensor<?x4096xf32> -> tensor<2xindex>
    %1013 = shape.shape_of %1011 : tensor<?x1xf32> -> tensor<2xindex>
    %1014 = shape.cstr_broadcastable %1012, %1013 : tensor<2xindex>, tensor<2xindex>
…
      %19689 = stablehlo.dynamic_broadcast_in_dim %19387, %19688, dims = [0, 1] : (tensor<?x14336xf32>, tensor<2xindex>) -> tensor<?x14336xf32>
      %19690 = stablehlo.dynamic_broadcast_in_dim %19386, %19688, dims = [0, 1] : (tensor<?x14336xf32>, tensor<2xindex>) -> tensor<?x14336xf32>
      %19691 = stablehlo.multiply %19689, %19690 : tensor<?x14336xf32>
      shape.assuming_yield %19691 : tensor<?x14336xf32>
    }
    %19392 = shape.shape_of %19391 : tensor<?x14336xf32> -> tensor<2xindex>
    %19393 = shape.cstr_broadcastable %19392, %19389 : tensor<2xindex>, tensor<2xindex>
    %19394 = shape.assuming %19393 -> (tensor<?x14336xf32>) {
      %19688 = shape.broadcast %19392, %19389 : tensor<2xindex>, tensor<2xindex> -> tensor<2xindex>
      %19689 = stablehlo.dynamic_broadcast_in_dim %19391, %19688, dims = [0, 1] : (tensor<?x14336xf32>, tensor<2xindex>) -> tensor<?x14336xf32>
      %19690 = stablehlo.dynamic_broadcast_in_dim %19386, %19688, dims = [0, 1] : (tensor<?x14336xf32>, tensor<2xindex>) -> tensor<?x14336xf32>
      %19691 = stablehlo.multiply %19689, %19690 : tensor<?x14336xf32>
      shape.assuming_yield %19691 : tensor<?x14336xf32>
    }
    %19395 = stablehlo.dot %19394, %200 : (tensor<?x14336xf32>, tensor<14336x4096xf32>) -> tensor<?x4096xf32>
    %dim_6818 = tensor.dim %19367, %c0 : tensor<?xi64>
    %19396 = arith.index_cast %dim_6818 : index to i64
    %from_elements_6819 = tensor.from_elements %19396, %c1_i64 : tensor<2xi64>
    %19397 = stablehlo.dynamic_reshape %19367, %from_elements_6819 : (tensor<?xi64>, tensor<2xi64>) -> tensor<?x1xi64>
    %dim_6820 = tensor.dim %19364, %c0 : tensor<?xi64>
    %19398 = arith.index_cast %dim_6820 : index to i64
    %from_elements_6821 = tensor.from_elements %19398, %c1_i64 : tensor<2xi64>
    %19399 = stablehlo.dynamic_reshape %19364, %from_elements_6821 : (tensor<?xi64>, tensor<2xi64>) -> tensor<?x1xi64>
    %19400 = stablehlo.concatenate %19397, %19399, dim = 1 : (tensor<?x1xi64>, tensor<?x1xi64>) -> tensor<?x2xi64>
    %19401 = "stablehlo.gather"(%19206, %19400) <{dimension_numbers = #stablehlo.gather<offset_dims = [1], collapsed_slice_dims = [0, 1], start_index_map = [0, 1], index_vector_dim = 1>, indices_are_sorted = false, slice_sizes = array<i64: 1, 1, 1>}> : (tensor<3x2x1xf32>, tensor<?x2xi64>) -> tensor<?x1xf32>
    %19402 = shape.shape_of %19395 : tensor<?x4096xf32> -> tensor<2xindex>
    %19403 = shape.shape_of %19401 : tensor<?x1xf32> -> tensor<2xindex>
    %19404 = shape.cstr_broadcastable %19402, %19403 : tensor<2xindex>, tensor<2xindex>
    %19405 = shape.assuming %19404 -> (tensor<?x4096xf32>) {
      %19688 = shape.broadcast %19402, %19403 : tensor<2xindex>, tensor<2xindex> -> tensor<2xindex>
      %19689 = stablehlo.dynamic_broadcast_in_dim %19395, %19688, dims = [0, 1] : (tensor<?x4096xf32>, tensor<2xindex>) -> tensor<?x4096xf32>
      %19690 = stablehlo.dynamic_broadcast_in_dim %19401, %19688, dims = [0, 1] : (tensor<?x1xf32>, tensor<2xindex>) -> tensor<?x4096xf32>
      %19691 = stablehlo.multiply %19689, %19690 : tensor<?x4096xf32>
      shape.assuming_yield %19691 : tensor<?x4096xf32>
    }
    %19406 = shape.shape_of %19405 : tensor<?x4096xf32> -> tensor<2xindex>
    %19407 = stablehlo.dynamic_broadcast_in_dim %19405, %19406, dims = [0, 1] : (tensor<?x4096xf32>, tensor<2xindex>) -> tensor<?x4096xf32>
    %19408 = stablehlo.dynamic_broadcast_in_dim %213, %19406, dims = [] : (tensor<f32>, tensor<2xindex>) -> tensor<?x4096xf32>
    %19409 = stablehlo.multiply %19407, %19408 : tensor<?x4096xf32>
    %dim_6822 = tensor.dim %19369, %c0 : tensor<?x1xi64>
    %19410 = arith.index_cast %dim_6822 : index to i64
    %dim_6823 = tensor.dim %19405, %c0 : tensor<?x4096xf32>
    %19411 = arith.index_cast %dim_6823 : index to i64
    %19412 = arith.maxsi %19410, %19411 : i64
    %19413 = arith.index_cast %19412 : i64 to index
    %from_elements_6824 = tensor.from_elements %19413, %c4096 : tensor<2xindex>
    %19414 = stablehlo.dynamic_broadcast_in_dim %19369, %from_elements_6824, dims = [0, 1] : (tensor<?x1xi64>, tensor<2xindex>) -> tensor<?x4096xi64>
    %dim_6825 = tensor.dim %19414, %c0 : tensor<?x4096xi64>
    %19415 = arith.index_cast %dim_6825 : index to i64
    %from_elements_6826 = tensor.from_elements %19415, %c4096_i64 : tensor<2xi64>
    %19416 = stablehlo.real_dynamic_slice %19409, %c_22, %from_elements_6826, %c_21 : (tensor<?x4096xf32>, tensor<2xi64>, tensor<2xi64>, tensor<2xi64>) -> tensor<?x4096xf32>
    %from_elements_6827 = tensor.from_elements %19415, %c4096_i64, %c1_i64 : tensor<3xi64>
    %19417 = stablehlo.dynamic_reshape %19414, %from_elements_6827 : (tensor<?x4096xi64>, tensor<3xi64>) -> tensor<?x4096x1xi64>
    %19418 = stablehlo.dynamic_iota %from_elements_6827, dim = 1 : (tensor<3xi64>) -> tensor<?x4096x1xi64>
    %19419 = stablehlo.concatenate %19417, %19418, dim = 2 : (tensor<?x4096x1xi64>, tensor<?x4096x1xi64>) -> tensor<?x4096x2xi64>
    %19420 = "stablehlo.scatter"(%19357, %19419, %19416) <{indices_are_sorted = false, scatter_dimension_numbers = #stablehlo.scatter<inserted_window_dims = [0, 1], scatter_dims_to_operand_dims = [0, 1], index_vector_dim = 2>, unique_indices = false}> ({
    ^bb0(%arg129: tensor<f32>, %arg130: tensor<f32>):
      %19688 = stablehlo.add %arg129, %arg130 : tensor<f32>
      stablehlo.return %19688 : tensor<f32>
    }) : (tensor<3x4096xf32>, tensor<?x4096x2xi64>, tensor<?x4096xf32>) -> tensor<3x4096xf32>
    %19421 = stablehlo.slice %19166 [4:5, 0:2, 0:3] : (tensor<8x2x3xi64>) -> tensor<1x2x3xi64>
    %19422 = stablehlo.reshape %19421 : (tensor<1x2x3xi64>) -> tensor<2x3xi64>
    %19423 = stablehlo.custom_call @byteir.non_zero(%19422) {byteir_attrs = {}} : (tensor<2x3xi64>) -> tensor<?x2xi64>
    %dim_6828 = tensor.dim %19423, %c0 : tensor<?x2xi64>
    %19424 = arith.index_cast %dim_6828 : index to i64
    %from_elements_6829 = tensor.from_elements %19424, %c1_i64 : tensor<2xi64>
    %19425 = stablehlo.real_dynamic_slice %19423, %c_22, %from_elements_6829, %c_21 : (tensor<?x2xi64>, tensor<2xi64>, tensor<2xi64>, tensor<2xi64>) -> tensor<?x1xi64>
    %dim_6830 = tensor.dim %19425, %c0 : tensor<?x1xi64>
    %19426 = arith.index_cast %dim_6830 : index to i64
    %from_elements_6831 = tensor.from_elements %19426 : tensor<1xi64>
    %19427 = stablehlo.dynamic_reshape %19425, %from_elements_6831 : (tensor<?x1xi64>, tensor<1xi64>) -> tensor<?xi64>
    %from_elements_6832 = tensor.from_elements %19424, %c2_i64 : tensor<2xi64>
    %19428 = stablehlo.real_dynamic_slice %19423, %c_24, %from_elements_6832, %c_21 : (tensor<?x2xi64>, tensor<2xi64>, tensor<2xi64>, tensor<2xi64>) -> tensor<?x1xi64>
    %dim_6833 = tensor.dim %19428, %c0 : tensor<?x1xi64>
    %19429 = arith.index_cast %dim_6833 : index to i64
    %from_elements_6834 = tensor.from_elements %19429 : tensor<1xi64>
    %19430 = stablehlo.dynamic_reshape %19428, %from_elements_6834 : (tensor<?x1xi64>, tensor<1xi64>) -> tensor<?xi64>
    %dim_6835 = tensor.dim %19430, %c0 : tensor<?xi64>
    %19431 = arith.index_cast %dim_6835 : index to i64
    %from_elements_6836 = tensor.from_elements %19431, %c1_i64 : tensor<2xi64>
    %19432 = stablehlo.dynamic_reshape %19430, %from_elements_6836 : (tensor<?xi64>, tensor<2xi64>) -> tensor<?x1xi64>
    %dim_6837 = tensor.dim %19432, %c0 : tensor<?x1xi64>
    %19433 = arith.index_cast %dim_6837 : index to i64
    %from_elements_6838 = tensor.from_elements %c1_i64, %19433, %c4096_i64 : tensor<3xi64>
    %19434 = stablehlo.dynamic_broadcast_in_dim %173, %from_elements_6838, dims = [0, 1, 2] : (tensor<1x1x1xi64>, tensor<3xi64>) -> tensor<1x?x4096xi64>
    %dim_6839 = tensor.dim %19434, %c1 : tensor<1x?x4096xi64>
    %19435 = arith.index_cast %dim_6839 : index to i64
    %from_elements_6840 = tensor.from_elements %c1_i64, %19435, %c4096_i64, %c1_i64 : tensor<4xi64>
    %19436 = stablehlo.dynamic_reshape %19434, %from_elements_6840 : (tensor<1x?x4096xi64>, tensor<4xi64>) -> tensor<1x?x4096x1xi64>
    %19437 = stablehlo.dynamic_broadcast_in_dim %19432, %from_elements_6838, dims = [1, 2] : (tensor<?x1xi64>, tensor<3xi64>) -> tensor<1x?x4096xi64>
    %dim_6841 = tensor.dim %19437, %c1 : tensor<1x?x4096xi64>
    %19438 = arith.index_cast %dim_6841 : index to i64
    %from_elements_6842 = tensor.from_elements %c1_i64, %19438, %c4096_i64, %c1_i64 : tensor<4xi64>
    %19439 = stablehlo.dynamic_reshape %19437, %from_elements_6842 : (tensor<1x?x4096xi64>, tensor<4xi64>) -> tensor<1x?x4096x1xi64>
    %19440 = stablehlo.dynamic_broadcast_in_dim %160, %from_elements_6838, dims = [2] : (tensor<4096xi64>, tensor<3xi64>) -> tensor<1x?x4096xi64>
    %dim_6843 = tensor.dim %19440, %c1 : tensor<1x?x4096xi64>
    %19441 = arith.index_cast %dim_6843 : index to i64
    %from_elements_6844 = tensor.from_elements %c1_i64, %19441, %c4096_i64, %c1_i64 : tensor<4xi64>
    %19442 = stablehlo.dynamic_reshape %19440, %from_elements_6844 : (tensor<1x?x4096xi64>, tensor<4xi64>) -> tensor<1x?x4096x1xi64>
    %19443 = stablehlo.concatenate %19436, %19439, %19442, dim = 3 : (tensor<1x?x4096x1xi64>, tensor<1x?x4096x1xi64>, tensor<1x?x4096x1xi64>) -> tensor<1x?x4096x3xi64>
    %19444 = "stablehlo.gather"(%19177, %19443) <{dimension_numbers = #stablehlo.gather<collapsed_slice_dims = [0, 1, 2], start_index_map = [0, 1, 2], index_vector_dim = 3>, indices_are_sorted = false, slice_sizes = array<i64: 1, 1, 1>}> : (tensor<1x3x4096xf32>, tensor<1x?x4096x3xi64>) -> tensor<1x?x4096xf32>
    %19445 = shape.shape_of %19444 : tensor<1x?x4096xf32> -> tensor<3xindex>
    %19446 = shape.num_elements %19445 : tensor<3xindex> -> index
    %19447 = stablehlo.compute_reshape_shape %19446, %c_23 : (index, tensor<2xi64>) -> tensor<2xi64>
    %19448 = stablehlo.dynamic_reshape %19444, %19447 : (tensor<1x?x4096xf32>, tensor<2xi64>) -> tensor<?x4096xf32>
    %19449 = stablehlo.dot %19448, %190 : (tensor<?x4096xf32>, tensor<4096x14336xf32>) -> tensor<?x14336xf32>
    %19450 = stablehlo.logistic %19449 : tensor<?x14336xf32>
    %19451 = shape.shape_of %19450 : tensor<?x14336xf32> -> tensor<2xindex>
    %19452 = shape.shape_of %19449 : tensor<?x14336xf32> -> tensor<2xindex>
    %19453 = shape.cstr_broadcastable %19451, %19452 : tensor<2xindex>, tensor<2xindex>
    %19454 = shape.assuming %19453 -> (tensor<?x14336xf32>) {
      %19688 = shape.broadcast %19451, %19452 : tensor<2xindex>, tensor<2xindex> -> tensor<2xindex>
      %19689 = stablehlo.dynamic_broadcast_in_dim %19450, %19688, dims = [0, 1] : (tensor<?x14336xf32>, tensor<2xindex>) -> tensor<?x14336xf32>
      %19690 = stablehlo.dynamic_broadcast_in_dim %19449, %19688, dims = [0, 1] : (tensor<?x14336xf32>, tensor<2xindex>) -> tensor<?x14336xf32>
      %19691 = stablehlo.multiply %19689, %19690 : tensor<?x14336xf32>
      shape.assuming_yield %19691 : tensor<?x14336xf32>
    }
    %19455 = shape.shape_of %19454 : tensor<?x14336xf32> -> tensor<2xindex>
    %19456 = shape.cstr_broadcastable %19455, %19452 : tensor<2xindex>, tensor<2xindex>
    %19457 = shape.assuming %19456 -> (tensor<?x14336xf32>) {
      %19688 = shape.broadcast %19455, %19452 : tensor<2xindex>, tensor<2xindex> -> tensor<2xindex>
      %19689 = stablehlo.dynamic_broadcast_in_dim %19454, %19688, dims = [0, 1] : (tensor<?x14336xf32>, tensor<2xindex>) -> tensor<?x14336xf32>
      %19690 = stablehlo.dynamic_broadcast_in_dim %19449, %19688, dims = [0, 1] : (tensor<?x14336xf32>, tensor<2xindex>) -> tensor<?x14336xf32>
      %19691 = stablehlo.multiply %19689, %19690 : tensor<?x14336xf32>
      shape.assuming_yield %19691 : tensor<?x14336xf32>
    }
    %19458 = stablehlo.dot %19457, %200 : (tensor<?x14336xf32>, tensor<14336x4096xf32>) -> tensor<?x4096xf32>
    %dim_6845 = tensor.dim %19430, %c0 : tensor<?xi64>
    %19459 = arith.index_cast %dim_6845 : index to i64
    %from_elements_6846 = tensor.from_elements %19459, %c1_i64 : tensor<2xi64>
    %19460 = stablehlo.dynamic_reshape %19430, %from_elements_6846 : (tensor<?xi64>, tensor<2xi64>) -> tensor<?x1xi64>
    %dim_6847 = tensor.dim %19427, %c0 : tensor<?xi64>
    %19461 = arith.index_cast %dim_6847 : index to i64
    %from_elements_6848 = tensor.from_elements %19461, %c1_i64 : tensor<2xi64>
    %19462 = stablehlo.dynamic_reshape %19427, %from_elements_6848 : (tensor<?xi64>, tensor<2xi64>) -> tensor<?x1xi64>
    %19463 = stablehlo.concatenate %19460, %19462, dim = 1 : (tensor<?x1xi64>, tensor<?x1xi64>) -> tensor<?x2xi64>
    %19464 = "stablehlo.gather"(%19206, %19463) <{dimension_numbers = #stablehlo.gather<offset_dims = [1], collapsed_slice_dims = [0, 1], start_index_map = [0, 1], index_vector_dim = 1>, indices_are_sorted = false, slice_sizes = array<i64: 1, 1, 1>}> : (tensor<3x2x1xf32>, tensor<?x2xi64>) -> tensor<?x1xf32>
    %19465 = shape.shape_of %19458 : tensor<?x4096xf32> -> tensor<2xindex>
    %19466 = shape.shape_of %19464 : tensor<?x1xf32> -> tensor<2xindex>
    %19467 = shape.cstr_broadcastable %19465, %19466 : tensor<2xindex>, tensor<2xindex>
    %19468 = shape.assuming %19467 -> (tensor<?x4096xf32>) {
      %19688 = shape.broadcast %19465, %19466 : tensor<2xindex>, tensor<2xindex> -> tensor<2xindex>
      %19689 = stablehlo.dynamic_broadcast_in_dim %19458, %19688, dims = [0, 1] : (tensor<?x4096xf32>, tensor<2xindex>) -> tensor<?x4096xf32>
      %19690 = stablehlo.dynamic_broadcast_in_dim %19464, %19688, dims = [0, 1] : (tensor<?x1xf32>, tensor<2xindex>) -> tensor<?x4096xf32>
      %19691 = stablehlo.multiply %19689, %19690 : tensor<?x4096xf32>
      shape.assuming_yield %19691 : tensor<?x4096xf32>
    }
    %19469 = shape.shape_of %19468 : tensor<?x4096xf32> -> tensor<2xindex>
    %19470 = stablehlo.dynamic_broadcast_in_dim %19468, %19469, dims = [0, 1] : (tensor<?x4096xf32>, tensor<2xindex>) -> tensor<?x4096xf32>
    %19471 = stablehlo.dynamic_broadcast_in_dim %213, %19469, dims = [] : (tensor<f32>, tensor<2xindex>) -> tensor<?x4096xf32>
    %19472 = stablehlo.multiply %19470, %19471 : tensor<?x4096xf32>
    %dim_6849 = tensor.dim %19432, %c0 : tensor<?x1xi64>
    %19473 = arith.index_cast %dim_6849 : index to i64
    %dim_6850 = tensor.dim %19468, %c0 : tensor<?x4096xf32>
    %19474 = arith.index_cast %dim_6850 : index to i64
    %19475 = arith.maxsi %19473, %19474 : i64
    %19476 = arith.index_cast %19475 : i64 to index
    %from_elements_6851 = tensor.from_elements %19476, %c4096 : tensor<2xindex>
    %19477 = stablehlo.dynamic_broadcast_in_dim %19432, %from_elements_6851, dims = [0, 1] : (tensor<?x1xi64>, tensor<2xindex>) -> tensor<?x4096xi64>
    %dim_6852 = tensor.dim %19477, %c0 : tensor<?x4096xi64>
    %19478 = arith.index_cast %dim_6852 : index to i64
    %from_elements_6853 = tensor.from_elements %19478, %c4096_i64 : tensor<2xi64>
    %19479 = stablehlo.real_dynamic_slice %19472, %c_22, %from_elements_6853, %c_21 : (tensor<?x4096xf32>, tensor<2xi64>, tensor<2xi64>, tensor<2xi64>) -> tensor<?x4096xf32>
    %from_elements_6854 = tensor.from_elements %19478, %c4096_i64, %c1_i64 : tensor<3xi64>
    %19480 = stablehlo.dynamic_reshape %19477, %from_elements_6854 : (tensor<?x4096xi64>, tensor<3xi64>) -> tensor<?x4096x1xi64>
    %19481 = stablehlo.dynamic_iota %from_elements_6854, dim = 1 : (tensor<3xi64>) -> tensor<?x4096x1xi64>
    %19482 = stablehlo.concatenate %19480, %19481, dim = 2 : (tensor<?x4096x1xi64>, tensor<?x4096x1xi64>) -> tensor<?x4096x2xi64>
    %19483 = "stablehlo.scatter"(%19420, %19482, %19479) <{indices_are_sorted = false, scatter_dimension_numbers = #stablehlo.scatter<inserted_window_dims = [0, 1], scatter_dims_to_operand_dims = [0, 1], index_vector_dim = 2>, unique_indices = false}> ({
    ^bb0(%arg129: tensor<f32>, %arg130: tensor<f32>):
      %19688 = stablehlo.add %arg129, %arg130 : tensor<f32>
      stablehlo.return %19688 : tensor<f32>
    }) : (tensor<3x4096xf32>, tensor<?x4096x2xi64>, tensor<?x4096xf32>) -> tensor<3x4096xf32>
    %19484 = stablehlo.slice %19166 [5:6, 0:2, 0:3] : (tensor<8x2x3xi64>) -> tensor<1x2x3xi64>
    %19485 = stablehlo.reshape %19484 : (tensor<1x2x3xi64>) -> tensor<2x3xi64>
    %19486 = stablehlo.custom_call @byteir.non_zero(%19485) {byteir_attrs = {}} : (tensor<2x3xi64>) -> tensor<?x2xi64>
    %dim_6855 = tensor.dim %19486, %c0 : tensor<?x2xi64>
    %19487 = arith.index_cast %dim_6855 : index to i64
    %from_elements_6856 = tensor.from_elements %19487, %c1_i64 : tensor<2xi64>
    %19488 = stablehlo.real_dynamic_slice %19486, %c_22, %from_elements_6856, %c_21 : (tensor<?x2xi64>, tensor<2xi64>, tensor<2xi64>, tensor<2xi64>) -> tensor<?x1xi64>
    %dim_6857 = tensor.dim %19488, %c0 : tensor<?x1xi64>
    %19489 = arith.index_cast %dim_6857 : index to i64
    %from_elements_6858 = tensor.from_elements %19489 : tensor<1xi64>
    %19490 = stablehlo.dynamic_reshape %19488, %from_elements_6858 : (tensor<?x1xi64>, tensor<1xi64>) -> tensor<?xi64>
    %from_elements_6859 = tensor.from_elements %19487, %c2_i64 : tensor<2xi64>
    %19491 = stablehlo.real_dynamic_slice %19486, %c_24, %from_elements_6859, %c_21 : (tensor<?x2xi64>, tensor<2xi64>, tensor<2xi64>, tensor<2xi64>) -> tensor<?x1xi64>
    %dim_6860 = tensor.dim %19491, %c0 : tensor<?x1xi64>
    %19492 = arith.index_cast %dim_6860 : index to i64
    %from_elements_6861 = tensor.from_elements %19492 : tensor<1xi64>
    %19493 = stablehlo.dynamic_reshape %19491, %from_elements_6861 : (tensor<?x1xi64>, tensor<1xi64>) -> tensor<?xi64>
    %dim_6862 = tensor.dim %19493, %c0 : tensor<?xi64>
    %19494 = arith.index_cast %dim_6862 : index to i64
    %from_elements_6863 = tensor.from_elements %19494, %c1_i64 : tensor<2xi64>
    %19495 = stablehlo.dynamic_reshape %19493, %from_elements_6863 : (tensor<?xi64>, tensor<2xi64>) -> tensor<?x1xi64>
    %dim_6864 = tensor.dim %19495, %c0 : tensor<?x1xi64>
    %19496 = arith.index_cast %dim_6864 : index to i64
    %from_elements_6865 = tensor.from_elements %c1_i64, %19496, %c4096_i64 : tensor<3xi64>
    %19497 = stablehlo.dynamic_broadcast_in_dim %173, %from_elements_6865, dims = [0, 1, 2] : (tensor<1x1x1xi64>, tensor<3xi64>) -> tensor<1x?x4096xi64>
    %dim_6866 = tensor.dim %19497, %c1 : tensor<1x?x4096xi64>
    %19498 = arith.index_cast %dim_6866 : index to i64
    %from_elements_6867 = tensor.from_elements %c1_i64, %19498, %c4096_i64, %c1_i64 : tensor<4xi64>
    %19499 = stablehlo.dynamic_reshape %19497, %from_elements_6867 : (tensor<1x?x4096xi64>, tensor<4xi64>) -> tensor<1x?x4096x1xi64>
    %19500 = stablehlo.dynamic_broadcast_in_dim %19495, %from_elements_6865, dims = [1, 2] : (tensor<?x1xi64>, tensor<3xi64>) -> tensor<1x?x4096xi64>
    %dim_6868 = tensor.dim %19500, %c1 : tensor<1x?x4096xi64>
    %19501 = arith.index_cast %dim_6868 : index to i64
    %from_elements_6869 = tensor.from_elements %c1_i64, %19501, %c4096_i64, %c1_i64 : tensor<4xi64>
    %19502 = stablehlo.dynamic_reshape %19500, %from_elements_6869 : (tensor<1x?x4096xi64>, tensor<4xi64>) -> tensor<1x?x4096x1xi64>
    %19503 = stablehlo.dynamic_broadcast_in_dim %160, %from_elements_6865, dims = [2] : (tensor<4096xi64>, tensor<3xi64>) -> tensor<1x?x4096xi64>
    %dim_6870 = tensor.dim %19503, %c1 : tensor<1x?x4096xi64>
    %19504 = arith.index_cast %dim_6870 : index to i64
    %from_elements_6871 = tensor.from_elements %c1_i64, %19504, %c4096_i64, %c1_i64 : tensor<4xi64>
    %19505 = stablehlo.dynamic_reshape %19503, %from_elements_6871 : (tensor<1x?x4096xi64>, tensor<4xi64>) -> tensor<1x?x4096x1xi64>
    %19506 = stablehlo.concatenate %19499, %19502, %19505, dim = 3 : (tensor<1x?x4096x1xi64>, tensor<1x?x4096x1xi64>, tensor<1x?x4096x1xi64>) -> tensor<1x?x4096x3xi64>
    %19507 = "stablehlo.gather"(%19177, %19506) <{dimension_numbers = #stablehlo.gather<collapsed_slice_dims = [0, 1, 2], start_index_map = [0, 1, 2], index_vector_dim = 3>, indices_are_sorted = false, slice_sizes = array<i64: 1, 1, 1>}> : (tensor<1x3x4096xf32>, tensor<1x?x4096x3xi64>) -> tensor<1x?x4096xf32>
    %19508 = shape.shape_of %19507 : tensor<1x?x4096xf32> -> tensor<3xindex>
    %19509 = shape.num_elements %19508 : tensor<3xindex> -> index
    %19510 = stablehlo.compute_reshape_shape %19509, %c_23 : (index, tensor<2xi64>) -> tensor<2xi64>
    %19511 = stablehlo.dynamic_reshape %19507, %19510 : (tensor<1x?x4096xf32>, tensor<2xi64>) -> tensor<?x4096xf32>
    %19512 = stablehlo.dot %19511, %190 : (tensor<?x4096xf32>, tensor<4096x14336xf32>) -> tensor<?x14336xf32>
    %19513 = stablehlo.logistic %19512 : tensor<?x14336xf32>
    %19514 = shape.shape_of %19513 : tensor<?x14336xf32> -> tensor<2xindex>
    %19515 = shape.shape_of %19512 : tensor<?x14336xf32> -> tensor<2xindex>
    %19516 = shape.cstr_broadcastable %19514, %19515 : tensor<2xindex>, tensor<2xindex>
    %19517 = shape.assuming %19516 -> (tensor<?x14336xf32>) {
      %19688 = shape.broadcast %19514, %19515 : tensor<2xindex>, tensor<2xindex> -> tensor<2xindex>
      %19689 = stablehlo.dynamic_broadcast_in_dim %19513, %19688, dims = [0, 1] : (tensor<?x14336xf32>, tensor<2xindex>) -> tensor<?x14336xf32>
      %19690 = stablehlo.dynamic_broadcast_in_dim %19512, %19688, dims = [0, 1] : (tensor<?x14336xf32>, tensor<2xindex>) -> tensor<?x14336xf32>
      %19691 = stablehlo.multiply %19689, %19690 : tensor<?x14336xf32>
      shape.assuming_yield %19691 : tensor<?x14336xf32>
    }
    %19518 = shape.shape_of %19517 : tensor<?x14336xf32> -> tensor<2xindex>
    %19519 = shape.cstr_broadcastable %19518, %19515 : tensor<2xindex>, tensor<2xindex>
    %19520 = shape.assuming %19519 -> (tensor<?x14336xf32>) {
      %19688 = shape.broadcast %19518, %19515 : tensor<2xindex>, tensor<2xindex> -> tensor<2xindex>
      %19689 = stablehlo.dynamic_broadcast_in_dim %19517, %19688, dims = [0, 1] : (tensor<?x14336xf32>, tensor<2xindex>) -> tensor<?x14336xf32>
      %19690 = stablehlo.dynamic_broadcast_in_dim %19512, %19688, dims = [0, 1] : (tensor<?x14336xf32>, tensor<2xindex>) -> tensor<?x14336xf32>
      %19691 = stablehlo.multiply %19689, %19690 : tensor<?x14336xf32>
      shape.assuming_yield %19691 : tensor<?x14336xf32>
    }
    %19521 = stablehlo.dot %19520, %200 : (tensor<?x14336xf32>, tensor<14336x4096xf32>) -> tensor<?x4096xf32>
    %dim_6872 = tensor.dim %19493, %c0 : tensor<?xi64>
    %19522 = arith.index_cast %dim_6872 : index to i64
    %from_elements_6873 = tensor.from_elements %19522, %c1_i64 : tensor<2xi64>
    %19523 = stablehlo.dynamic_reshape %19493, %from_elements_6873 : (tensor<?xi64>, tensor<2xi64>) -> tensor<?x1xi64>
    %dim_6874 = tensor.dim %19490, %c0 : tensor<?xi64>
    %19524 = arith.index_cast %dim_6874 : index to i64
    %from_elements_6875 = tensor.from_elements %19524, %c1_i64 : tensor<2xi64>
    %19525 = stablehlo.dynamic_reshape %19490, %from_elements_6875 : (tensor<?xi64>, tensor<2xi64>) -> tensor<?x1xi64>
    %19526 = stablehlo.concatenate %19523, %19525, dim = 1 : (tensor<?x1xi64>, tensor<?x1xi64>) -> tensor<?x2xi64>
    %19527 = "stablehlo.gather"(%19206, %19526) <{dimension_numbers = #stablehlo.gather<offset_dims = [1], collapsed_slice_dims = [0, 1], start_index_map = [0, 1], index_vector_dim = 1>, indices_are_sorted = false, slice_sizes = array<i64: 1, 1, 1>}> : (tensor<3x2x1xf32>, tensor<?x2xi64>) -> tensor<?x1xf32>
    %19528 = shape.shape_of %19521 : tensor<?x4096xf32> -> tensor<2xindex>
    %19529 = shape.shape_of %19527 : tensor<?x1xf32> -> tensor<2xindex>
    %19530 = shape.cstr_broadcastable %19528, %19529 : tensor<2xindex>, tensor<2xindex>
    %19531 = shape.assuming %19530 -> (tensor<?x4096xf32>) {
      %19688 = shape.broadcast %19528, %19529 : tensor<2xindex>, tensor<2xindex> -> tensor<2xindex>
      %19689 = stablehlo.dynamic_broadcast_in_dim %19521, %19688, dims = [0, 1] : (tensor<?x4096xf32>, tensor<2xindex>) -> tensor<?x4096xf32>
      %19690 = stablehlo.dynamic_broadcast_in_dim %19527, %19688, dims = [0, 1] : (tensor<?x1xf32>, tensor<2xindex>) -> tensor<?x4096xf32>
      %19691 = stablehlo.multiply %19689, %19690 : tensor<?x4096xf32>
      shape.assuming_yield %19691 : tensor<?x4096xf32>
    }
    %19532 = shape.shape_of %19531 : tensor<?x4096xf32> -> tensor<2xindex>
    %19533 = stablehlo.dynamic_broadcast_in_dim %19531, %19532, dims = [0, 1] : (tensor<?x4096xf32>, tensor<2xindex>) -> tensor<?x4096xf32>
    %19534 = stablehlo.dynamic_broadcast_in_dim %213, %19532, dims = [] : (tensor<f32>, tensor<2xindex>) -> tensor<?x4096xf32>
    %19535 = stablehlo.multiply %19533, %19534 : tensor<?x4096xf32>
    %dim_6876 = tensor.dim %19495, %c0 : tensor<?x1xi64>
    %19536 = arith.index_cast %dim_6876 : index to i64
    %dim_6877 = tensor.dim %19531, %c0 : tensor<?x4096xf32>
    %19537 = arith.index_cast %dim_6877 : index to i64
    %19538 = arith.maxsi %19536, %19537 : i64
    %19539 = arith.index_cast %19538 : i64 to index
    %from_elements_6878 = tensor.from_elements %19539, %c4096 : tensor<2xindex>
    %19540 = stablehlo.dynamic_broadcast_in_dim %19495, %from_elements_6878, dims = [0, 1] : (tensor<?x1xi64>, tensor<2xindex>) -> tensor<?x4096xi64>
    %dim_6879 = tensor.dim %19540, %c0 : tensor<?x4096xi64>
    %19541 = arith.index_cast %dim_6879 : index to i64
    %from_elements_6880 = tensor.from_elements %19541, %c4096_i64 : tensor<2xi64>
    %19542 = stablehlo.real_dynamic_slice %19535, %c_22, %from_elements_6880, %c_21 : (tensor<?x4096xf32>, tensor<2xi64>, tensor<2xi64>, tensor<2xi64>) -> tensor<?x4096xf32>
    %from_elements_6881 = tensor.from_elements %19541, %c4096_i64, %c1_i64 : tensor<3xi64>
    %19543 = stablehlo.dynamic_reshape %19540, %from_elements_6881 : (tensor<?x4096xi64>, tensor<3xi64>) -> tensor<?x4096x1xi64>
    %19544 = stablehlo.dynamic_iota %from_elements_6881, dim = 1 : (tensor<3xi64>) -> tensor<?x4096x1xi64>
    %19545 = stablehlo.concatenate %19543, %19544, dim = 2 : (tensor<?x4096x1xi64>, tensor<?x4096x1xi64>) -> tensor<?x4096x2xi64>
    %19546 = "stablehlo.scatter"(%19483, %19545, %19542) <{indices_are_sorted = false, scatter_dimension_numbers = #stablehlo.scatter<inserted_window_dims = [0, 1], scatter_dims_to_operand_dims = [0, 1], index_vector_dim = 2>, unique_indices = false}> ({
    ^bb0(%arg129: tensor<f32>, %arg130: tensor<f32>):
      %19688 = stablehlo.add %arg129, %arg130 : tensor<f32>
      stablehlo.return %19688 : tensor<f32>
    }) : (tensor<3x4096xf32>, tensor<?x4096x2xi64>, tensor<?x4096xf32>) -> tensor<3x4096xf32>
    %19547 = stablehlo.slice %19166 [6:7, 0:2, 0:3] : (tensor<8x2x3xi64>) -> tensor<1x2x3xi64>
    %19548 = stablehlo.reshape %19547 : (tensor<1x2x3xi64>) -> tensor<2x3xi64>
    %19549 = stablehlo.custom_call @byteir.non_zero(%19548) {byteir_attrs = {}} : (tensor<2x3xi64>) -> tensor<?x2xi64>
    %dim_6882 = tensor.dim %19549, %c0 : tensor<?x2xi64>
    %19550 = arith.index_cast %dim_6882 : index to i64
    %from_elements_6883 = tensor.from_elements %19550, %c1_i64 : tensor<2xi64>
    %19551 = stablehlo.real_dynamic_slice %19549, %c_22, %from_elements_6883, %c_21 : (tensor<?x2xi64>, tensor<2xi64>, tensor<2xi64>, tensor<2xi64>) -> tensor<?x1xi64>
    %dim_6884 = tensor.dim %19551, %c0 : tensor<?x1xi64>
    %19552 = arith.index_cast %dim_6884 : index to i64
    %from_elements_6885 = tensor.from_elements %19552 : tensor<1xi64>
    %19553 = stablehlo.dynamic_reshape %19551, %from_elements_6885 : (tensor<?x1xi64>, tensor<1xi64>) -> tensor<?xi64>
    %from_elements_6886 = tensor.from_elements %19550, %c2_i64 : tensor<2xi64>
    %19554 = stablehlo.real_dynamic_slice %19549, %c_24, %from_elements_6886, %c_21 : (tensor<?x2xi64>, tensor<2xi64>, tensor<2xi64>, tensor<2xi64>) -> tensor<?x1xi64>
    %dim_6887 = tensor.dim %19554, %c0 : tensor<?x1xi64>
    %19555 = arith.index_cast %dim_6887 : index to i64
    %from_elements_6888 = tensor.from_elements %19555 : tensor<1xi64>
    %19556 = stablehlo.dynamic_reshape %19554, %from_elements_6888 : (tensor<?x1xi64>, tensor<1xi64>) -> tensor<?xi64>
    %dim_6889 = tensor.dim %19556, %c0 : tensor<?xi64>
    %19557 = arith.index_cast %dim_6889 : index to i64
    %from_elements_6890 = tensor.from_elements %19557, %c1_i64 : tensor<2xi64>
    %19558 = stablehlo.dynamic_reshape %19556, %from_elements_6890 : (tensor<?xi64>, tensor<2xi64>) -> tensor<?x1xi64>
    %dim_6891 = tensor.dim %19558, %c0 : tensor<?x1xi64>
    %19559 = arith.index_cast %dim_6891 : index to i64
    %from_elements_6892 = tensor.from_elements %c1_i64, %19559, %c4096_i64 : tensor<3xi64>
    %19560 = stablehlo.dynamic_broadcast_in_dim %173, %from_elements_6892, dims = [0, 1, 2] : (tensor<1x1x1xi64>, tensor<3xi64>) -> tensor<1x?x4096xi64>
    %dim_6893 = tensor.dim %19560, %c1 : tensor<1x?x4096xi64>
    %19561 = arith.index_cast %dim_6893 : index to i64
    %from_elements_6894 = tensor.from_elements %c1_i64, %19561, %c4096_i64, %c1_i64 : tensor<4xi64>
    %19562 = stablehlo.dynamic_reshape %19560, %from_elements_6894 : (tensor<1x?x4096xi64>, tensor<4xi64>) -> tensor<1x?x4096x1xi64>
    %19563 = stablehlo.dynamic_broadcast_in_dim %19558, %from_elements_6892, dims = [1, 2] : (tensor<?x1xi64>, tensor<3xi64>) -> tensor<1x?x4096xi64>
    %dim_6895 = tensor.dim %19563, %c1 : tensor<1x?x4096xi64>
    %19564 = arith.index_cast %dim_6895 : index to i64
    %from_elements_6896 = tensor.from_elements %c1_i64, %19564, %c4096_i64, %c1_i64 : tensor<4xi64>
    %19565 = stablehlo.dynamic_reshape %19563, %from_elements_6896 : (tensor<1x?x4096xi64>, tensor<4xi64>) -> tensor<1x?x4096x1xi64>
    %19566 = stablehlo.dynamic_broadcast_in_dim %160, %from_elements_6892, dims = [2] : (tensor<4096xi64>, tensor<3xi64>) -> tensor<1x?x4096xi64>
    %dim_6897 = tensor.dim %19566, %c1 : tensor<1x?x4096xi64>
    %19567 = arith.index_cast %dim_6897 : index to i64
    %from_elements_6898 = tensor.from_elements %c1_i64, %19567, %c4096_i64, %c1_i64 : tensor<4xi64>
    %19568 = stablehlo.dynamic_reshape %19566, %from_elements_6898 : (tensor<1x?x4096xi64>, tensor<4xi64>) -> tensor<1x?x4096x1xi64>
    %19569 = stablehlo.concatenate %19562, %19565, %19568, dim = 3 : (tensor<1x?x4096x1xi64>, tensor<1x?x4096x1xi64>, tensor<1x?x4096x1xi64>) -> tensor<1x?x4096x3xi64>
    %19570 = "stablehlo.gather"(%19177, %19569) <{dimension_numbers = #stablehlo.gather<collapsed_slice_dims = [0, 1, 2], start_index_map = [0, 1, 2], index_vector_dim = 3>, indices_are_sorted = false, slice_sizes = array<i64: 1, 1, 1>}> : (tensor<1x3x4096xf32>, tensor<1x?x4096x3xi64>) -> tensor<1x?x4096xf32>
    %19571 = shape.shape_of %19570 : tensor<1x?x4096xf32> -> tensor<3xindex>
    %19572 = shape.num_elements %19571 : tensor<3xindex> -> index
    %19573 = stablehlo.compute_reshape_shape %19572, %c_23 : (index, tensor<2xi64>) -> tensor<2xi64>
    %19574 = stablehlo.dynamic_reshape %19570, %19573 : (tensor<1x?x4096xf32>, tensor<2xi64>) -> tensor<?x4096xf32>
    %19575 = stablehlo.dot %19574, %190 : (tensor<?x4096xf32>, tensor<4096x14336xf32>) -> tensor<?x14336xf32>
    %19576 = stablehlo.logistic %19575 : tensor<?x14336xf32>
    %19577 = shape.shape_of %19576 : tensor<?x14336xf32> -> tensor<2xindex>
    %19578 = shape.shape_of %19575 : tensor<?x14336xf32> -> tensor<2xindex>
    %19579 = shape.cstr_broadcastable %19577, %19578 : tensor<2xindex>, tensor<2xindex>
    %19580 = shape.assuming %19579 -> (tensor<?x14336xf32>) {
      %19688 = shape.broadcast %19577, %19578 : tensor<2xindex>, tensor<2xindex> -> tensor<2xindex>
      %19689 = stablehlo.dynamic_broadcast_in_dim %19576, %19688, dims = [0, 1] : (tensor<?x14336xf32>, tensor<2xindex>) -> tensor<?x14336xf32>
      %19690 = stablehlo.dynamic_broadcast_in_dim %19575, %19688, dims = [0, 1] : (tensor<?x14336xf32>, tensor<2xindex>) -> tensor<?x14336xf32>
      %19691 = stablehlo.multiply %19689, %19690 : tensor<?x14336xf32>
      shape.assuming_yield %19691 : tensor<?x14336xf32>
    }
    %19581 = shape.shape_of %19580 : tensor<?x14336xf32> -> tensor<2xindex>
    %19582 = shape.cstr_broadcastable %19581, %19578 : tensor<2xindex>, tensor<2xindex>
    %19583 = shape.assuming %19582 -> (tensor<?x14336xf32>) {
      %19688 = shape.broadcast %19581, %19578 : tensor<2xindex>, tensor<2xindex> -> tensor<2xindex>
      %19689 = stablehlo.dynamic_broadcast_in_dim %19580, %19688, dims = [0, 1] : (tensor<?x14336xf32>, tensor<2xindex>) -> tensor<?x14336xf32>
      %19690 = stablehlo.dynamic_broadcast_in_dim %19575, %19688, dims = [0, 1] : (tensor<?x14336xf32>, tensor<2xindex>) -> tensor<?x14336xf32>
      %19691 = stablehlo.multiply %19689, %19690 : tensor<?x14336xf32>
      shape.assuming_yield %19691 : tensor<?x14336xf32>
    }
    %19584 = stablehlo.dot %19583, %200 : (tensor<?x14336xf32>, tensor<14336x4096xf32>) -> tensor<?x4096xf32>
    %dim_6899 = tensor.dim %19556, %c0 : tensor<?xi64>
    %19585 = arith.index_cast %dim_6899 : index to i64
    %from_elements_6900 = tensor.from_elements %19585, %c1_i64 : tensor<2xi64>
    %19586 = stablehlo.dynamic_reshape %19556, %from_elements_6900 : (tensor<?xi64>, tensor<2xi64>) -> tensor<?x1xi64>
    %dim_6901 = tensor.dim %19553, %c0 : tensor<?xi64>
    %19587 = arith.index_cast %dim_6901 : index to i64
    %from_elements_6902 = tensor.from_elements %19587, %c1_i64 : tensor<2xi64>
    %19588 = stablehlo.dynamic_reshape %19553, %from_elements_6902 : (tensor<?xi64>, tensor<2xi64>) -> tensor<?x1xi64>
    %19589 = stablehlo.concatenate %19586, %19588, dim = 1 : (tensor<?x1xi64>, tensor<?x1xi64>) -> tensor<?x2xi64>
    %19590 = "stablehlo.gather"(%19206, %19589) <{dimension_numbers = #stablehlo.gather<offset_dims = [1], collapsed_slice_dims = [0, 1], start_index_map = [0, 1], index_vector_dim = 1>, indices_are_sorted = false, slice_sizes = array<i64: 1, 1, 1>}> : (tensor<3x2x1xf32>, tensor<?x2xi64>) -> tensor<?x1xf32>
    %19591 = shape.shape_of %19584 : tensor<?x4096xf32> -> tensor<2xindex>
    %19592 = shape.shape_of %19590 : tensor<?x1xf32> -> tensor<2xindex>
    %19593 = shape.cstr_broadcastable %19591, %19592 : tensor<2xindex>, tensor<2xindex>
    %19594 = shape.assuming %19593 -> (tensor<?x4096xf32>) {
      %19688 = shape.broadcast %19591, %19592 : tensor<2xindex>, tensor<2xindex> -> tensor<2xindex>
      %19689 = stablehlo.dynamic_broadcast_in_dim %19584, %19688, dims = [0, 1] : (tensor<?x4096xf32>, tensor<2xindex>) -> tensor<?x4096xf32>
      %19690 = stablehlo.dynamic_broadcast_in_dim %19590, %19688, dims = [0, 1] : (tensor<?x1xf32>, tensor<2xindex>) -> tensor<?x4096xf32>
      %19691 = stablehlo.multiply %19689, %19690 : tensor<?x4096xf32>
      shape.assuming_yield %19691 : tensor<?x4096xf32>
    }
    %19595 = shape.shape_of %19594 : tensor<?x4096xf32> -> tensor<2xindex>
    %19596 = stablehlo.dynamic_broadcast_in_dim %19594, %19595, dims = [0, 1] : (tensor<?x4096xf32>, tensor<2xindex>) -> tensor<?x4096xf32>
    %19597 = stablehlo.dynamic_broadcast_in_dim %213, %19595, dims = [] : (tensor<f32>, tensor<2xindex>) -> tensor<?x4096xf32>
    %19598 = stablehlo.multiply %19596, %19597 : tensor<?x4096xf32>
    %dim_6903 = tensor.dim %19558, %c0 : tensor<?x1xi64>
    %19599 = arith.index_cast %dim_6903 : index to i64
    %dim_6904 = tensor.dim %19594, %c0 : tensor<?x4096xf32>
    %19600 = arith.index_cast %dim_6904 : index to i64
    %19601 = arith.maxsi %19599, %19600 : i64
    %19602 = arith.index_cast %19601 : i64 to index
    %from_elements_6905 = tensor.from_elements %19602, %c4096 : tensor<2xindex>
    %19603 = stablehlo.dynamic_broadcast_in_dim %19558, %from_elements_6905, dims = [0, 1] : (tensor<?x1xi64>, tensor<2xindex>) -> tensor<?x4096xi64>
    %dim_6906 = tensor.dim %19603, %c0 : tensor<?x4096xi64>
    %19604 = arith.index_cast %dim_6906 : index to i64
    %from_elements_6907 = tensor.from_elements %19604, %c4096_i64 : tensor<2xi64>
    %19605 = stablehlo.real_dynamic_slice %19598, %c_22, %from_elements_6907, %c_21 : (tensor<?x4096xf32>, tensor<2xi64>, tensor<2xi64>, tensor<2xi64>) -> tensor<?x4096xf32>
    %from_elements_6908 = tensor.from_elements %19604, %c4096_i64, %c1_i64 : tensor<3xi64>
    %19606 = stablehlo.dynamic_reshape %19603, %from_elements_6908 : (tensor<?x4096xi64>, tensor<3xi64>) -> tensor<?x4096x1xi64>
    %19607 = stablehlo.dynamic_iota %from_elements_6908, dim = 1 : (tensor<3xi64>) -> tensor<?x4096x1xi64>
    %19608 = stablehlo.concatenate %19606, %19607, dim = 2 : (tensor<?x4096x1xi64>, tensor<?x4096x1xi64>) -> tensor<?x4096x2xi64>
    %19609 = "stablehlo.scatter"(%19546, %19608, %19605) <{indices_are_sorted = false, scatter_dimension_numbers = #stablehlo.scatter<inserted_window_dims = [0, 1], scatter_dims_to_operand_dims = [0, 1], index_vector_dim = 2>, unique_indices = false}> ({
    ^bb0(%arg129: tensor<f32>, %arg130: tensor<f32>):
      %19688 = stablehlo.add %arg129, %arg130 : tensor<f32>
      stablehlo.return %19688 : tensor<f32>
    }) : (tensor<3x4096xf32>, tensor<?x4096x2xi64>, tensor<?x4096xf32>) -> tensor<3x4096xf32>
    %19610 = stablehlo.slice %19166 [7:8, 0:2, 0:3] : (tensor<8x2x3xi64>) -> tensor<1x2x3xi64>
    %19611 = stablehlo.reshape %19610 : (tensor<1x2x3xi64>) -> tensor<2x3xi64>
    %19612 = stablehlo.custom_call @byteir.non_zero(%19611) {byteir_attrs = {}} : (tensor<2x3xi64>) -> tensor<?x2xi64>
    %dim_6909 = tensor.dim %19612, %c0 : tensor<?x2xi64>
    %19613 = arith.index_cast %dim_6909 : index to i64
    %from_elements_6910 = tensor.from_elements %19613, %c1_i64 : tensor<2xi64>
    %19614 = stablehlo.real_dynamic_slice %19612, %c_22, %from_elements_6910, %c_21 : (tensor<?x2xi64>, tensor<2xi64>, tensor<2xi64>, tensor<2xi64>) -> tensor<?x1xi64>
    %dim_6911 = tensor.dim %19614, %c0 : tensor<?x1xi64>
    %19615 = arith.index_cast %dim_6911 : index to i64
    %from_elements_6912 = tensor.from_elements %19615 : tensor<1xi64>
    %19616 = stablehlo.dynamic_reshape %19614, %from_elements_6912 : (tensor<?x1xi64>, tensor<1xi64>) -> tensor<?xi64>
    %from_elements_6913 = tensor.from_elements %19613, %c2_i64 : tensor<2xi64>
    %19617 = stablehlo.real_dynamic_slice %19612, %c_24, %from_elements_6913, %c_21 : (tensor<?x2xi64>, tensor<2xi64>, tensor<2xi64>, tensor<2xi64>) -> tensor<?x1xi64>
    %dim_6914 = tensor.dim %19617, %c0 : tensor<?x1xi64>
    %19618 = arith.index_cast %dim_6914 : index to i64
    %from_elements_6915 = tensor.from_elements %19618 : tensor<1xi64>
    %19619 = stablehlo.dynamic_reshape %19617, %from_elements_6915 : (tensor<?x1xi64>, tensor<1xi64>) -> tensor<?xi64>
    %dim_6916 = tensor.dim %19619, %c0 : tensor<?xi64>
    %19620 = arith.index_cast %dim_6916 : index to i64
    %from_elements_6917 = tensor.from_elements %19620, %c1_i64 : tensor<2xi64>
    %19621 = stablehlo.dynamic_reshape %19619, %from_elements_6917 : (tensor<?xi64>, tensor<2xi64>) -> tensor<?x1xi64>
    %dim_6918 = tensor.dim %19621, %c0 : tensor<?x1xi64>
    %19622 = arith.index_cast %dim_6918 : index to i64
    %from_elements_6919 = tensor.from_elements %c1_i64, %19622, %c4096_i64 : tensor<3xi64>
    %19623 = stablehlo.dynamic_broadcast_in_dim %173, %from_elements_6919, dims = [0, 1, 2] : (tensor<1x1x1xi64>, tensor<3xi64>) -> tensor<1x?x4096xi64>
    %dim_6920 = tensor.dim %19623, %c1 : tensor<1x?x4096xi64>
    %19624 = arith.index_cast %dim_6920 : index to i64
    %from_elements_6921 = tensor.from_elements %c1_i64, %19624, %c4096_i64, %c1_i64 : tensor<4xi64>
    %19625 = stablehlo.dynamic_reshape %19623, %from_elements_6921 : (tensor<1x?x4096xi64>, tensor<4xi64>) -> tensor<1x?x4096x1xi64>
    %19626 = stablehlo.dynamic_broadcast_in_dim %19621, %from_elements_6919, dims = [1, 2] : (tensor<?x1xi64>, tensor<3xi64>) -> tensor<1x?x4096xi64>
    %dim_6922 = tensor.dim %19626, %c1 : tensor<1x?x4096xi64>
    %19627 = arith.index_cast %dim_6922 : index to i64
    %from_elements_6923 = tensor.from_elements %c1_i64, %19627, %c4096_i64, %c1_i64 : tensor<4xi64>
    %19628 = stablehlo.dynamic_reshape %19626, %from_elements_6923 : (tensor<1x?x4096xi64>, tensor<4xi64>) -> tensor<1x?x4096x1xi64>
    %19629 = stablehlo.dynamic_broadcast_in_dim %160, %from_elements_6919, dims = [2] : (tensor<4096xi64>, tensor<3xi64>) -> tensor<1x?x4096xi64>
    %dim_6924 = tensor.dim %19629, %c1 : tensor<1x?x4096xi64>
    %19630 = arith.index_cast %dim_6924 : index to i64
    %from_elements_6925 = tensor.from_elements %c1_i64, %19630, %c4096_i64, %c1_i64 : tensor<4xi64>
    %19631 = stablehlo.dynamic_reshape %19629, %from_elements_6925 : (tensor<1x?x4096xi64>, tensor<4xi64>) -> tensor<1x?x4096x1xi64>
    %19632 = stablehlo.concatenate %19625, %19628, %19631, dim = 3 : (tensor<1x?x4096x1xi64>, tensor<1x?x4096x1xi64>, tensor<1x?x4096x1xi64>) -> tensor<1x?x4096x3xi64>
    %19633 = "stablehlo.gather"(%19177, %19632) <{dimension_numbers = #stablehlo.gather<collapsed_slice_dims = [0, 1, 2], start_index_map = [0, 1, 2], index_vector_dim = 3>, indices_are_sorted = false, slice_sizes = array<i64: 1, 1, 1>}> : (tensor<1x3x4096xf32>, tensor<1x?x4096x3xi64>) -> tensor<1x?x4096xf32>
    %19634 = shape.shape_of %19633 : tensor<1x?x4096xf32> -> tensor<3xindex>
    %19635 = shape.num_elements %19634 : tensor<3xindex> -> index
    %19636 = stablehlo.compute_reshape_shape %19635, %c_23 : (index, tensor<2xi64>) -> tensor<2xi64>
    %19637 = stablehlo.dynamic_reshape %19633, %19636 : (tensor<1x?x4096xf32>, tensor<2xi64>) -> tensor<?x4096xf32>
    %19638 = stablehlo.dot %19637, %190 : (tensor<?x4096xf32>, tensor<4096x14336xf32>) -> tensor<?x14336xf32>
    %19639 = stablehlo.logistic %19638 : tensor<?x14336xf32>
    %19640 = shape.shape_of %19639 : tensor<?x14336xf32> -> tensor<2xindex>
    %19641 = shape.shape_of %19638 : tensor<?x14336xf32> -> tensor<2xindex>
    %19642 = shape.cstr_broadcastable %19640, %19641 : tensor<2xindex>, tensor<2xindex>
    %19643 = shape.assuming %19642 -> (tensor<?x14336xf32>) {
      %19688 = shape.broadcast %19640, %19641 : tensor<2xindex>, tensor<2xindex> -> tensor<2xindex>
      %19689 = stablehlo.dynamic_broadcast_in_dim %19639, %19688, dims = [0, 1] : (tensor<?x14336xf32>, tensor<2xindex>) -> tensor<?x14336xf32>
      %19690 = stablehlo.dynamic_broadcast_in_dim %19638, %19688, dims = [0, 1] : (tensor<?x14336xf32>, tensor<2xindex>) -> tensor<?x14336xf32>
      %19691 = stablehlo.multiply %19689, %19690 : tensor<?x14336xf32>
      shape.assuming_yield %19691 : tensor<?x14336xf32>
    }
    %19644 = shape.shape_of %19643 : tensor<?x14336xf32> -> tensor<2xindex>
    %19645 = shape.cstr_broadcastable %19644, %19641 : tensor<2xindex>, tensor<2xindex>
    %19646 = shape.assuming %19645 -> (tensor<?x14336xf32>) {
      %19688 = shape.broadcast %19644, %19641 : tensor<2xindex>, tensor<2xindex> -> tensor<2xindex>
      %19689 = stablehlo.dynamic_broadcast_in_dim %19643, %19688, dims = [0, 1] : (tensor<?x14336xf32>, tensor<2xindex>) -> tensor<?x14336xf32>
      %19690 = stablehlo.dynamic_broadcast_in_dim %19638, %19688, dims = [0, 1] : (tensor<?x14336xf32>, tensor<2xindex>) -> tensor<?x14336xf32>
      %19691 = stablehlo.multiply %19689, %19690 : tensor<?x14336xf32>
      shape.assuming_yield %19691 : tensor<?x14336xf32>
    }
    %19647 = stablehlo.dot %19646, %200 : (tensor<?x14336xf32>, tensor<14336x4096xf32>) -> tensor<?x4096xf32>
    %dim_6926 = tensor.dim %19619, %c0 : tensor<?xi64>
    %19648 = arith.index_cast %dim_6926 : index to i64
    %from_elements_6927 = tensor.from_elements %19648, %c1_i64 : tensor<2xi64>
    %19649 = stablehlo.dynamic_reshape %19619, %from_elements_6927 : (tensor<?xi64>, tensor<2xi64>) -> tensor<?x1xi64>
    %dim_6928 = tensor.dim %19616, %c0 : tensor<?xi64>
    %19650 = arith.index_cast %dim_6928 : index to i64
    %from_elements_6929 = tensor.from_elements %19650, %c1_i64 : tensor<2xi64>
    %19651 = stablehlo.dynamic_reshape %19616, %from_elements_6929 : (tensor<?xi64>, tensor<2xi64>) -> tensor<?x1xi64>
    %19652 = stablehlo.concatenate %19649, %19651, dim = 1 : (tensor<?x1xi64>, tensor<?x1xi64>) -> tensor<?x2xi64>
    %19653 = "stablehlo.gather"(%19206, %19652) <{dimension_numbers = #stablehlo.gather<offset_dims = [1], collapsed_slice_dims = [0, 1], start_index_map = [0, 1], index_vector_dim = 1>, indices_are_sorted = false, slice_sizes = array<i64: 1, 1, 1>}> : (tensor<3x2x1xf32>, tensor<?x2xi64>) -> tensor<?x1xf32>
    %19654 = shape.shape_of %19647 : tensor<?x4096xf32> -> tensor<2xindex>
    %19655 = shape.shape_of %19653 : tensor<?x1xf32> -> tensor<2xindex>
    %19656 = shape.cstr_broadcastable %19654, %19655 : tensor<2xindex>, tensor<2xindex>
    %19657 = shape.assuming %19656 -> (tensor<?x4096xf32>) {
      %19688 = shape.broadcast %19654, %19655 : tensor<2xindex>, tensor<2xindex> -> tensor<2xindex>
      %19689 = stablehlo.dynamic_broadcast_in_dim %19647, %19688, dims = [0, 1] : (tensor<?x4096xf32>, tensor<2xindex>) -> tensor<?x4096xf32>
      %19690 = stablehlo.dynamic_broadcast_in_dim %19653, %19688, dims = [0, 1] : (tensor<?x1xf32>, tensor<2xindex>) -> tensor<?x4096xf32>
      %19691 = stablehlo.multiply %19689, %19690 : tensor<?x4096xf32>
      shape.assuming_yield %19691 : tensor<?x4096xf32>
    }
    %19658 = shape.shape_of %19657 : tensor<?x4096xf32> -> tensor<2xindex>
    %19659 = stablehlo.dynamic_broadcast_in_dim %19657, %19658, dims = [0, 1] : (tensor<?x4096xf32>, tensor<2xindex>) -> tensor<?x4096xf32>
    %19660 = stablehlo.dynamic_broadcast_in_dim %213, %19658, dims = [] : (tensor<f32>, tensor<2xindex>) -> tensor<?x4096xf32>
    %19661 = stablehlo.multiply %19659, %19660 : tensor<?x4096xf32>
    %dim_6930 = tensor.dim %19621, %c0 : tensor<?x1xi64>
    %19662 = arith.index_cast %dim_6930 : index to i64
    %dim_6931 = tensor.dim %19657, %c0 : tensor<?x4096xf32>
    %19663 = arith.index_cast %dim_6931 : index to i64
    %19664 = arith.maxsi %19662, %19663 : i64
    %19665 = arith.index_cast %19664 : i64 to index
    %from_elements_6932 = tensor.from_elements %19665, %c4096 : tensor<2xindex>
    %19666 = stablehlo.dynamic_broadcast_in_dim %19621, %from_elements_6932, dims = [0, 1] : (tensor<?x1xi64>, tensor<2xindex>) -> tensor<?x4096xi64>
    %dim_6933 = tensor.dim %19666, %c0 : tensor<?x4096xi64>
    %19667 = arith.index_cast %dim_6933 : index to i64
    %from_elements_6934 = tensor.from_elements %19667, %c4096_i64 : tensor<2xi64>
    %19668 = stablehlo.real_dynamic_slice %19661, %c_22, %from_elements_6934, %c_21 : (tensor<?x4096xf32>, tensor<2xi64>, tensor<2xi64>, tensor<2xi64>) -> tensor<?x4096xf32>
    %from_elements_6935 = tensor.from_elements %19667, %c4096_i64, %c1_i64 : tensor<3xi64>
    %19669 = stablehlo.dynamic_reshape %19666, %from_elements_6935 : (tensor<?x4096xi64>, tensor<3xi64>) -> tensor<?x4096x1xi64>
    %19670 = stablehlo.dynamic_iota %from_elements_6935, dim = 1 : (tensor<3xi64>) -> tensor<?x4096x1xi64>
    %19671 = stablehlo.concatenate %19669, %19670, dim = 2 : (tensor<?x4096x1xi64>, tensor<?x4096x1xi64>) -> tensor<?x4096x2xi64>
    %19672 = "stablehlo.scatter"(%19609, %19671, %19668) <{indices_are_sorted = false, scatter_dimension_numbers = #stablehlo.scatter<inserted_window_dims = [0, 1], scatter_dims_to_operand_dims = [0, 1], index_vector_dim = 2>, unique_indices = false}> ({
    ^bb0(%arg129: tensor<f32>, %arg130: tensor<f32>):
      %19688 = stablehlo.add %arg129, %arg130 : tensor<f32>
      stablehlo.return %19688 : tensor<f32>
    }) : (tensor<3x4096xf32>, tensor<?x4096x2xi64>, tensor<?x4096xf32>) -> tensor<3x4096xf32>
    %19673 = stablehlo.reshape %19672 : (tensor<3x4096xf32>) -> tensor<3x1x4096xf32>
    %19674 = stablehlo.add %19139, %19673 : tensor<3x1x4096xf32>
    %19675 = stablehlo.broadcast_in_dim %19674, dims = [0, 1, 2] : (tensor<3x1x4096xf32>) -> tensor<3x1x4096xf32>
    %19676 = stablehlo.power %19675, %15 : tensor<3x1x4096xf32>
    %19677 = stablehlo.reduce(%19676 init: %cst_20) applies stablehlo.add across dimensions = [2] : (tensor<3x1x4096xf32>, tensor<f32>) -> tensor<3x1xf32>
    %19678 = stablehlo.reshape %19677 : (tensor<3x1xf32>) -> tensor<3x1x1xf32>
    %19679 = stablehlo.broadcast_in_dim %19678, dims = [0, 1, 2] : (tensor<3x1x1xf32>) -> tensor<3x1x1xf32>
    %19680 = stablehlo.divide %19679, %21 : tensor<3x1x1xf32>
    %19681 = stablehlo.broadcast_in_dim %19680, dims = [0, 1, 2] : (tensor<3x1x1xf32>) -> tensor<3x1x1xf32>
    %19682 = stablehlo.add %19681, %25 : tensor<3x1x1xf32>
    %19683 = stablehlo.rsqrt %19682 : tensor<3x1x1xf32>
    %19684 = stablehlo.broadcast_in_dim %19683, dims = [0, 1, 2] : (tensor<3x1x1xf32>) -> tensor<3x1x4096xf32>
    %19685 = stablehlo.multiply %19675, %19684 : tensor<3x1x4096xf32>
    %19686 = stablehlo.broadcast_in_dim %19685, dims = [0, 1, 2] : (tensor<3x1x4096xf32>) -> tensor<3x1x4096xf32>
    %19687 = stablehlo.multiply %19686, %31 : tensor<3x1x4096xf32>
    return %19687, %73, %74, %722, %723, %1335, %1336, %1948, %1949, %2561, %2562, %3174, %3175, %3787, %3788, %4400, %4401, %5013, %5014, %5626, %5627, %6239, %6240, %6852, %6853, %7465, %7466, %8078, %8079, %8691, %8692, %9304, %9305, %9917, %9918, %10530, %10531, %11143, %11144, %11756, %11757, %12369, %12370, %12982, %12983, %13595, %13596, %14208, %14209, %14821, %14822, %15434, %15435, %16047, %16048, %16660, %16661, %17273, %17274, %17886, %17887, %18499, %18500, %19112, %19113 : tensor<3x1x4096xf32>, tensor<3x8x8x128xf32>, tensor<3x8x8x128xf32>, tensor<3x8x8x128xf32>, tensor<3x8x8x128xf32>, tensor<3x8x8x128xf32>, tensor<3x8x8x128xf32>, tensor<3x8x8x128xf32>, tensor<3x8x8x128xf32>, tensor<3x8x8x128xf32>, tensor<3x8x8x128xf32>, tensor<3x8x8x128xf32>, tensor<3x8x8x128xf32>, tensor<3x8x8x128xf32>, tensor<3x8x8x128xf32>, tensor<3x8x8x128xf32>, tensor<3x8x8x128xf32>, tensor<3x8x8x128xf32>, tensor<3x8x8x128xf32>, tensor<3x8x8x128xf32>, tensor<3x8x8x128xf32>, tensor<3x8x8x128xf32>, tensor<3x8x8x128xf32>, tensor<3x8x8x128xf32>, tensor<3x8x8x128xf32>, tensor<3x8x8x128xf32>, tensor<3x8x8x128xf32>, tensor<3x8x8x128xf32>, tensor<3x8x8x128xf32>, tensor<3x8x8x128xf32>, tensor<3x8x8x128xf32>, tensor<3x8x8x128xf32>, tensor<3x8x8x128xf32>, tensor<3x8x8x128xf32>, tensor<3x8x8x128xf32>, tensor<3x8x8x128xf32>, tensor<3x8x8x128xf32>, tensor<3x8x8x128xf32>, tensor<3x8x8x128xf32>, tensor<3x8x8x128xf32>, tensor<3x8x8x128xf32>, tensor<3x8x8x128xf32>, tensor<3x8x8x128xf32>, tensor<3x8x8x128xf32>, tensor<3x8x8x128xf32>, tensor<3x8x8x128xf32>, tensor<3x8x8x128xf32>, tensor<3x8x8x128xf32>, tensor<3x8x8x128xf32>, tensor<3x8x8x128xf32>, tensor<3x8x8x128xf32>, tensor<3x8x8x128xf32>, tensor<3x8x8x128xf32>, tensor<3x8x8x128xf32>, tensor<3x8x8x128xf32>, tensor<3x8x8x128xf32>, tensor<3x8x8x128xf32>, tensor<3x8x8x128xf32>, tensor<3x8x8x128xf32>, tensor<3x8x8x128xf32>, tensor<3x8x8x128xf32>, tensor<3x8x8x128xf32>, tensor<3x8x8x128xf32>, tensor<3x8x8x128xf32>, tensor<3x8x8x128xf32>
  }
}
