From 3cf8a37a71465f9c466b1fdea5b8d0b5e97114af Mon Sep 17 00:00:00 2001
From: Yan Xu <yan.xu0210@bytedance.com>
Date: Wed, 20 Dec 2023 03:17:15 -0500
Subject: [PATCH 01/11] [StableHlo] add more ops lowering to StableHlo

Signed-off-by: Yan Xu <yan.xu0210@bytedance.com>
---
 src/Conversion/ONNXToStableHlo/CMakeLists.txt |   4 +
 .../ConvertONNXToStableHlo.cpp                |  31 +-
 .../ONNXToStableHlo/DialectBuilder.cpp        |  57 +
 .../ONNXToStableHlo/DialectBuilder.hpp        |  43 +
 .../ONNXToStableHlo/Math/Elementwise.cpp      |  49 +-
 .../ONNXToStableHlo/ONNXToStableHloCommon.cpp | 160 ++-
 .../ONNXToStableHlo/ONNXToStableHloCommon.hpp |  43 +-
 src/Conversion/ONNXToStableHlo/RNN/LSTM.cpp   | 830 +++++++++++++++
 .../ONNXToStableHlo/RNN/RNNBase.cpp           | 234 +++++
 .../ONNXToStableHlo/RNN/RNNBase.hpp           | 203 ++++
 .../ONNXToStableHlo/Tensor/OneHot.cpp         | 129 +++
 src/Conversion/ONNXToStableHlo/Tensor/Pad.cpp |   2 +-
 .../ONNXToStableHlo/Tensor/ScatterND.cpp      |  92 ++
 src/Tools/onnx-mlir-opt/RegisterPasses.cpp    |   4 +
 .../onnx_to_stablehlo/Math/Elementwise.mlir   |  52 +
 .../onnx_to_stablehlo/RNN/LSTM-loop.mlir      | 621 +++++++++++
 .../onnx_to_stablehlo/RNN/LSTM.mlir           | 991 ++++++++++++++++++
 .../onnx_to_stablehlo/Tensor/OneHot.mlir      |  31 +
 .../onnx_to_stablehlo/Tensor/ScatterND.mlir   |  29 +
 19 files changed, 3583 insertions(+), 22 deletions(-)
 create mode 100644 src/Conversion/ONNXToStableHlo/RNN/LSTM.cpp
 create mode 100644 src/Conversion/ONNXToStableHlo/RNN/RNNBase.cpp
 create mode 100644 src/Conversion/ONNXToStableHlo/RNN/RNNBase.hpp
 create mode 100644 src/Conversion/ONNXToStableHlo/Tensor/OneHot.cpp
 create mode 100644 src/Conversion/ONNXToStableHlo/Tensor/ScatterND.cpp
 create mode 100644 test/mlir/conversion/onnx_to_stablehlo/RNN/LSTM-loop.mlir
 create mode 100644 test/mlir/conversion/onnx_to_stablehlo/RNN/LSTM.mlir
 create mode 100644 test/mlir/conversion/onnx_to_stablehlo/Tensor/OneHot.mlir
 create mode 100644 test/mlir/conversion/onnx_to_stablehlo/Tensor/ScatterND.mlir

diff --git a/src/Conversion/ONNXToStableHlo/CMakeLists.txt b/src/Conversion/ONNXToStableHlo/CMakeLists.txt
index 16bfd487fe..e1cd1b2157 100644
--- a/src/Conversion/ONNXToStableHlo/CMakeLists.txt
+++ b/src/Conversion/ONNXToStableHlo/CMakeLists.txt
@@ -50,6 +50,8 @@ add_onnx_mlir_library(OMONNXToStableHlo
   NN/ConvTranspose.cpp
   NN/Normalization.cpp
   NN/Pooling.cpp
+  RNN/LSTM.cpp
+  RNN/RNNBase.cpp
   Tensor/ArgMax.cpp
   Tensor/Concat.cpp
   Tensor/Constant.cpp
@@ -58,8 +60,10 @@ add_onnx_mlir_library(OMONNXToStableHlo
   Tensor/Gather.cpp
   Tensor/GatherElements.cpp
   Tensor/Identity.cpp
+  Tensor/OneHot.cpp
   Tensor/Pad.cpp
   Tensor/Reshape.cpp
+  Tensor/ScatterND.cpp
   Tensor/Shape.cpp
   Tensor/Slice.cpp
   Tensor/Split.cpp
diff --git a/src/Conversion/ONNXToStableHlo/ConvertONNXToStableHlo.cpp b/src/Conversion/ONNXToStableHlo/ConvertONNXToStableHlo.cpp
index 4f5d15b09c..03a97790d5 100644
--- a/src/Conversion/ONNXToStableHlo/ConvertONNXToStableHlo.cpp
+++ b/src/Conversion/ONNXToStableHlo/ConvertONNXToStableHlo.cpp
@@ -23,7 +23,7 @@ using namespace mlir;
 namespace onnx_mlir {

 void populateONNXToStableHloConversionPattern(
-    RewritePatternSet &patterns, MLIRContext *ctx) {
+    RewritePatternSet &patterns, MLIRContext *ctx, bool enableUnroll) {
   // Math
   populateLoweringONNXClipOpToStableHloPattern(patterns, ctx);
   populateLoweringONNXElementwiseOpToStableHloPattern(patterns, ctx);
@@ -35,6 +35,8 @@ void populateONNXToStableHloConversionPattern(
   populateLoweringONNXConvTransposeOpToStableHloPattern(patterns, ctx);
   populateLoweringONNXNormalizationOpToStableHloPattern(patterns, ctx);
   populateLoweringONNXPoolingOpToStableHloPattern(patterns, ctx);
+  // Recurrent neural network
+  populateLoweringONNXLSTMOpToStableHloPattern(patterns, ctx, enableUnroll);
   // Tensor
   populateLoweringONNXArgMaxOpToStableHloPattern(patterns, ctx);
   populateLoweringONNXConcatOpToStableHloPattern(patterns, ctx);
@@ -44,8 +46,10 @@ void populateONNXToStableHloConversionPattern(
   populateLoweringONNXGatherOpToStableHloPattern(patterns, ctx);
   populateLoweringONNXGatherElementsOpToStableHloPattern(patterns, ctx);
   populateLoweringONNXIdentityOpToStableHloPattern(patterns, ctx);
+  populateLoweringONNXOneHotOpToStableHloPattern(patterns, ctx);
   populateLoweringONNXPadOpToStableHloPattern(patterns, ctx);
   populateLoweringONNXReshapeOpToStableHloPattern(patterns, ctx);
+  populateLoweringONNXScatterNDOpToStableHloPattern(patterns, ctx);
   populateLoweringONNXShapeOpToStableHloPattern(patterns, ctx);
   populateLoweringONNXSliceOpToStableHloPattern(patterns, ctx);
   populateLoweringONNXSplitOpToStableHloPattern(patterns, ctx);
@@ -75,12 +79,27 @@ struct FrontendToStableHloLoweringPass
   FrontendToStableHloLoweringPass(const FrontendToStableHloLoweringPass &pass)
       : PassWrapper<FrontendToStableHloLoweringPass,
             OperationPass<ModuleOp>>() {}
+  FrontendToStableHloLoweringPass(bool enableUnroll) {
+    // Below, need explicit assignment to enable implicit conversion of bool
+    // to Option<bool>.
+    this->enableUnroll = enableUnroll;
+  }

   void getDependentDialects(DialectRegistry &registry) const override {
     registry.insert<mlir::stablehlo::StablehloDialect>();
+    registry.insert<shape::ShapeDialect>();
   }

   void runOnOperation() final;
+
+public:
+  // Some ops (RNN ops for example) will have loops inside them. We can
+  // choose to unroll the loop, which means to expand the loops completely
+  // so there are no loops left, or to rewrite the loop into stablehlo::WhileOp
+  Option<bool> enableUnroll{*this, "enable-unroll",
+      llvm::cl::desc(
+          "Enable unroll rather than lowering to stablehlo::WhileOp."),
+      llvm::cl::init(true)};
 };

 void FrontendToStableHloLoweringPass::runOnOperation() {
@@ -96,16 +115,14 @@ void FrontendToStableHloLoweringPass::runOnOperation() {
   target.addLegalDialect<stablehlo::StablehloDialect, func::FuncDialect,
       arith::ArithDialect, shape::ShapeDialect, mlir::affine::AffineDialect,
       tensor::TensorDialect>();
-  // Needed to support unsigned int computations. To be removed if we use a
-  // scheme that does not rely on the UnrealizedConversionCastOp.
-  target.addLegalOp<::mlir::UnrealizedConversionCastOp>();

   // Now that the conversion target has been defined, we just need to provide
   // the set of patterns that will lower the frontend operations.
   RewritePatternSet patterns(&getContext());

   // Define patterns.
-  populateONNXToStableHloConversionPattern(patterns, &getContext());
+  populateONNXToStableHloConversionPattern(
+      patterns, &getContext(), enableUnroll);

   // add illegal op
   target.addIllegalOp<ONNXSoftmaxOp>();
@@ -122,4 +139,8 @@ std::unique_ptr<Pass> createLowerToStableHloPass() {
   return std::make_unique<FrontendToStableHloLoweringPass>();
 }

+std::unique_ptr<Pass> createLowerToStableHloPass(bool enableUnroll) {
+  return std::make_unique<FrontendToStableHloLoweringPass>(enableUnroll);
+}
+
 } // namespace onnx_mlir
diff --git a/src/Conversion/ONNXToStableHlo/DialectBuilder.cpp b/src/Conversion/ONNXToStableHlo/DialectBuilder.cpp
index 9193b3cf38..10f959097e 100644
--- a/src/Conversion/ONNXToStableHlo/DialectBuilder.cpp
+++ b/src/Conversion/ONNXToStableHlo/DialectBuilder.cpp
@@ -14,6 +14,7 @@
 //===----------------------------------------------------------------------===//

 #include "mlir/Dialect/Arith/IR/Arith.h"
+#include "llvm/ADT/TypeSwitch.h"
 #include "stablehlo/dialect/StablehloOps.h"

 #include "src/Conversion/ONNXToStableHlo/DialectBuilder.hpp"
@@ -24,6 +25,62 @@ using namespace mlir;

 namespace onnx_mlir {

+Value StablehloBuilder::constant(mlir::Type type, double val) const {
+  Value constant = nullptr;
+  // Could be a vector type; look at the element type.
+  Type elementType = type;
+  VectorType vectorType = type.dyn_cast<VectorType>();
+  if (vectorType)
+    elementType = vectorType.getElementType();
+  TypeSwitch<Type>(elementType)
+      .Case<Float16Type>([&](Type) {
+        constant =
+            b().create<stablehlo::ConstantOp>(loc(), b().getF16FloatAttr(val));
+      })
+      .Case<Float32Type>([&](Type) {
+        constant =
+            b().create<stablehlo::ConstantOp>(loc(), b().getF32FloatAttr(val));
+      })
+      .Case<Float64Type>([&](Type) {
+        constant =
+            b().create<stablehlo::ConstantOp>(loc(), b().getF64FloatAttr(val));
+      })
+      .Case<IntegerType>([&](IntegerType elementType) {
+        assert(val == (int64_t)val && "value is ambiguous");
+        unsigned width = elementType.getWidth();
+
+        if (width == 1)
+          constant =
+              b().create<stablehlo::ConstantOp>(loc(), b().getBoolAttr(val != 0));
+        else {
+          if (elementType.isUnsignedInteger()) {
+            constant = b().create<stablehlo::ConstantOp>(loc(),
+                b().getIntegerAttr(elementType, APInt(width, (uint64_t)val, false)));
+          } else {
+            constant = b().create<stablehlo::ConstantOp>(loc(),
+                b().getIntegerAttr(elementType, APInt(width, (int64_t)val, true)));
+          }
+        }
+      })
+      .Case<IndexType>([&](Type elementType) {
+        constant = b().create<stablehlo::ConstantOp>(
+            loc(), b().getIntegerAttr(elementType, val));
+      })
+      .Default([](Type) { llvm_unreachable("unsupported element type"); });
+
+  assert(constant != nullptr && "Expecting valid constant value");
+  return constant;
+}
+
+Value StablehloBuilder::constantIndex(int64_t val) const {
+  IntegerAttr constantAttr = b().getIntegerAttr(b().getIndexType(), val);
+  return b().create<stablehlo::ConstantOp>(loc(), constantAttr);
+}
+
+Value StablehloBuilder::shaped_zero(mlir::Type type) const {
+  return b().create<stablehlo::ConstantOp>(loc(), b().getZeroAttr(type));
+}
+
 // =============================================================================
 // IndexExpr Builder for Lowering using Shape/StableHlo Dialect.
 // =============================================================================
diff --git a/src/Conversion/ONNXToStableHlo/DialectBuilder.hpp b/src/Conversion/ONNXToStableHlo/DialectBuilder.hpp
index 7f182ae09d..820c94d58a 100644
--- a/src/Conversion/ONNXToStableHlo/DialectBuilder.hpp
+++ b/src/Conversion/ONNXToStableHlo/DialectBuilder.hpp
@@ -27,6 +27,33 @@

 namespace onnx_mlir {

+// =============================================================================
+// stablehlo Builder
+// =============================================================================
+
+struct StablehloBuilder : DialectBuilder {
+  StablehloBuilder(mlir::Location loc) : DialectBuilder(loc) {}
+  StablehloBuilder(mlir::OpBuilder &b, mlir::Location loc)
+      : DialectBuilder(b, loc), patternRewriter(&b) {}
+  StablehloBuilder(const DialectBuilder &db) : DialectBuilder(db) {}
+  virtual ~StablehloBuilder() {}
+
+  // ConstantOp
+  mlir::Value constant(mlir::Type type, double val) const;
+  mlir::Value constantIndex(int64_t val) const;
+  mlir::Value shaped_zero(mlir::Type type) const;
+
+protected:
+  // Private getters of builder (concise version).
+  mlir::OpBuilder &rewriter() const {
+    assert(patternRewriter && "rewriter is null");
+    return *patternRewriter;
+  }
+
+private:
+  mlir::OpBuilder *patternRewriter;
+};
+
 // =============================================================================
 // IndexExpr Builder for Shape lowering
 // =============================================================================
@@ -45,6 +72,22 @@ struct IndexExprBuilderForStableHlo : IndexExprBuilder {
   mlir::Value getShapeVal(mlir::Value tensorOrMemrefValue, uint64_t i) final;
 };

+// =============================================================================
+// MultiDialectBuilder for Stablehlo
+// =============================================================================
+
+// Recursive class specialized for StablehloBuilder referred to as
+// stablehlo.
+template <class... Ts>
+struct MultiDialectBuilder<StablehloBuilder, Ts...>
+    : MultiDialectBuilder<Ts...> {
+  MultiDialectBuilder(mlir::OpBuilder &b, mlir::Location loc)
+      : MultiDialectBuilder<Ts...>(b, loc), stablehlo(b, loc) {}
+  MultiDialectBuilder(const DialectBuilder &db)
+      : MultiDialectBuilder<Ts...>(db), stablehlo(db) {}
+  StablehloBuilder stablehlo;
+};
+
 // Recursive class specialized for AffineBuilder refereed to as affine.
 template <class... Ts>
 struct MultiDialectBuilder<IndexExprBuilderForStableHlo, Ts...>
diff --git a/src/Conversion/ONNXToStableHlo/Math/Elementwise.cpp b/src/Conversion/ONNXToStableHlo/Math/Elementwise.cpp
index 5970fdf68b..a161d0bea4 100644
--- a/src/Conversion/ONNXToStableHlo/Math/Elementwise.cpp
+++ b/src/Conversion/ONNXToStableHlo/Math/Elementwise.cpp
@@ -66,6 +66,11 @@ struct StableHloDialectOp<ONNXMaxOp> {
   using Op = stablehlo::MaxOp;
 };

+template <>
+struct StableHloDialectOp<ONNXMinOp> {
+  using Op = stablehlo::MinOp;
+};
+
 template <>
 struct StableHloDialectOp<ONNXMulOp> {
   using Op = stablehlo::MulOp;
@@ -106,6 +111,11 @@ struct StableHloDialectOp<ONNXTanhOp> {
   using Op = stablehlo::TanhOp;
 };

+template <>
+struct StableHloDialectOp<ONNXWhereOp> {
+  using Op = stablehlo::SelectOp;
+};
+
 namespace {

 template <typename ONNXOp>
@@ -296,6 +306,40 @@ struct ONNXElementwiseBinaryOpLoweringToStableHlo : public ConversionPattern {
   }
 };

+// ONNXPReluOp(x) = alpha * x if x < 0 else x.
+template <>
+struct ONNXElementwiseBinaryOpLoweringToStableHlo<ONNXPReluOp>
+    : public ConversionPattern {
+  ONNXElementwiseBinaryOpLoweringToStableHlo(MLIRContext *ctx)
+      : ConversionPattern(ONNXPReluOp::getOperationName(), 1, ctx) {}
+  LogicalResult matchAndRewrite(Operation *op, ArrayRef<Value> operands,
+      ConversionPatternRewriter &rewriter) const final {
+    Location loc = op->getLoc();
+    // Prior code here used the "analysis" version that did not generate code.
+    // Since code is actually not needed here at this time, one could use
+    // IndexExprBuilderForAnalysis createIE(loc) instead.
+    IndexExprBuilderForStableHlo createShapeIE(rewriter, loc);
+    ONNXBroadcastOpShapeHelper shapeHelper(op, operands, &createShapeIE);
+    shapeHelper.computeShapeAndAssertOnFailure();
+
+    int64_t outputRank = shapeHelper.outputRank;
+    llvm::SmallVector<Value, 4> broadcastedOperands =
+        getBroadcastedOperands(op, rewriter, loc, outputRank);
+    Value inp = broadcastedOperands[0];
+    Value broadcastedSlope = broadcastedOperands[1];
+    Type resultType = *op->result_type_begin();
+    Value PReluActivationVal =
+        rewriter.create<stablehlo::MulOp>(loc, inp, broadcastedSlope);
+    Value broadcastedZero = getShapedZero(loc, rewriter, inp);
+    Value compareGtZero = rewriter.create<stablehlo::CompareOp>(
+        loc, inp, broadcastedZero, stablehlo::ComparisonDirection::GT);
+    Value resultOp = rewriter.create<stablehlo::SelectOp>(
+        loc, resultType, compareGtZero, inp, PReluActivationVal);
+    rewriter.replaceOp(op, resultOp);
+    return success();
+  }
+};
+
 // Element-wise variadic ops lowering to StableHlo dialect.
 //===----------------------------------------------------------------------===//
 template <typename ElementwiseVariadicOp>
@@ -346,12 +390,15 @@ void populateLoweringONNXElementwiseOpToStableHloPattern(
       ONNXElementwiseCompareBinaryOpLoweringToStableHlo<ONNXLessOp>,
       ONNXElementwiseCompareBinaryOpLoweringToStableHlo<ONNXLessOrEqualOp>,
       ONNXElementwiseBinaryOpLoweringToStableHlo<ONNXPowOp>,
+      ONNXElementwiseBinaryOpLoweringToStableHlo<ONNXPReluOp>,
       ONNXElementwiseVariadicOpLoweringToStableHlo<ONNXAddOp>,
       ONNXElementwiseVariadicOpLoweringToStableHlo<ONNXAndOp>,
       ONNXElementwiseVariadicOpLoweringToStableHlo<ONNXDivOp>,
       ONNXElementwiseVariadicOpLoweringToStableHlo<ONNXMaxOp>,
+      ONNXElementwiseVariadicOpLoweringToStableHlo<ONNXMinOp>,
       ONNXElementwiseVariadicOpLoweringToStableHlo<ONNXMulOp>,
-      ONNXElementwiseVariadicOpLoweringToStableHlo<ONNXSubOp>>(ctx);
+      ONNXElementwiseVariadicOpLoweringToStableHlo<ONNXSubOp>,
+      ONNXElementwiseVariadicOpLoweringToStableHlo<ONNXWhereOp>>(ctx);
 }

 } // namespace onnx_mlir
diff --git a/src/Conversion/ONNXToStableHlo/ONNXToStableHloCommon.cpp b/src/Conversion/ONNXToStableHlo/ONNXToStableHloCommon.cpp
index 697968403e..c5b4c006bc 100644
--- a/src/Conversion/ONNXToStableHlo/ONNXToStableHloCommon.cpp
+++ b/src/Conversion/ONNXToStableHlo/ONNXToStableHloCommon.cpp
@@ -15,6 +15,9 @@
 //===----------------------------------------------------------------------===//

 #include "src/Conversion/ONNXToStableHlo/ONNXToStableHloCommon.hpp"
+#include "src/Dialect/ONNX/ONNXOps/OpHelper.hpp"
+#include "src/Dialect/ONNX/OnnxElementsAttrBuilder.hpp"
+
 #include "stablehlo/dialect/BroadcastUtils.h"

 using namespace mlir;
@@ -45,11 +48,6 @@ llvm::SmallVector<Value, 4> getBroadcastedOperands(Operation *op,
   Type outputType = *op->result_type_begin();
   assert(outputType.isa<ShapedType>() && "output type is not shaped");
   ShapedType outputShapedType = outputType.cast<ShapedType>();
-  Type elementType =
-      op->getOperands()[0].getType().dyn_cast<ShapedType>().getElementType();
-  RankedTensorType broadcastedOutputType =
-      RankedTensorType::get(outputShapedType.getShape(), elementType);
-
   Value resultExtents =
       mlir::hlo::computeNaryElementwiseBroadcastingResultExtents(
           loc, op->getOperands(), rewriter);
@@ -59,6 +57,10 @@ llvm::SmallVector<Value, 4> getBroadcastedOperands(Operation *op,
     assert(operandType != nullptr && "operand type is not ranked");
     SmallVector<int64_t, 4> broadcastDimensions = llvm::to_vector<4>(
         llvm::seq<int64_t>(outputRank - operandType.getRank(), outputRank));
+    Type elementType =
+        operand.getType().dyn_cast<ShapedType>().getElementType();
+    RankedTensorType broadcastedOutputType =
+        RankedTensorType::get(outputShapedType.getShape(), elementType);
     Value broadcast = rewriter.create<stablehlo::DynamicBroadcastInDimOp>(loc,
         broadcastedOutputType, operand, resultExtents,
         rewriter.getI64TensorAttr(broadcastDimensions));
@@ -73,11 +75,6 @@ llvm::SmallVector<Value, 4> getBroadcastedOperands(
   llvm::SmallVector<Value, 4> broadcastedOperands;
   assert(outputType.isa<ShapedType>() && "output type is not shaped");
   ShapedType outputShapedType = outputType.cast<ShapedType>();
-  Type elementType =
-      operands[0].getType().dyn_cast<ShapedType>().getElementType();
-  RankedTensorType broadcastedOutputType =
-      RankedTensorType::get(outputShapedType.getShape(), elementType);
-
   Value resultExtents =
       mlir::hlo::computeNaryElementwiseBroadcastingResultExtents(
           loc, operands, rewriter);
@@ -87,6 +84,10 @@ llvm::SmallVector<Value, 4> getBroadcastedOperands(
     assert(operandType != nullptr && "operand type is not ranked");
     SmallVector<int64_t, 4> broadcastDimensions = llvm::to_vector<4>(
         llvm::seq<int64_t>(outputRank - operandType.getRank(), outputRank));
+    Type elementType =
+        operands[0].getType().dyn_cast<ShapedType>().getElementType();
+    RankedTensorType broadcastedOutputType =
+        RankedTensorType::get(outputShapedType.getShape(), elementType);
     Value broadcast = rewriter.create<stablehlo::DynamicBroadcastInDimOp>(loc,
         broadcastedOutputType, operand, resultExtents,
         rewriter.getI64TensorAttr(broadcastDimensions));
@@ -95,16 +96,147 @@ llvm::SmallVector<Value, 4> getBroadcastedOperands(
   return broadcastedOperands;
 }

-ElementsAttr getElementAttributeFromStablehloValue(Value value) {
+ElementsAttr getElementAttributeFromConstValue(Value value) {
   auto definingOp = value.getDefiningOp();
-  if (auto constantOp = dyn_cast_or_null<stablehlo::ConstantOp>(definingOp))
+  if (auto constantOp = dyn_cast_or_null<stablehlo::ConstantOp>(definingOp)) {
     return constantOp.getValue().dyn_cast<ElementsAttr>();
-  else if (auto constantOp =
-               dyn_cast_or_null<mlir::ONNXConstantOp>(definingOp)) {
+  } else if (auto constantOp =
+                 dyn_cast_or_null<mlir::ONNXConstantOp>(definingOp)) {
     if (constantOp.getValue().has_value())
       return constantOp.getValueAttr().dyn_cast<ElementsAttr>();
   }
   return nullptr;
 }

+DenseIntElementsAttr GetI64ElementsAttr(
+    ArrayRef<int64_t> values, Builder *builder) {
+  RankedTensorType ty = RankedTensorType::get(
+      {static_cast<int64_t>(values.size())}, builder->getIntegerType(64));
+  return DenseIntElementsAttr::get(ty, values);
+}
+
+namespace {
+// Returns the DenseElementsAttr of input if it's a stablehlo constant or
+// onnx.Constant. Otherwise returns a nullptr attribute.
+DenseElementsAttr getDenseElementAttrFromConstValue(mlir::Value value) {
+  Operation *definingOp = value.getDefiningOp();
+  if (auto globalOp = dyn_cast_or_null<stablehlo::ConstantOp>(definingOp)) {
+    return globalOp.getValueAttr().dyn_cast<DenseElementsAttr>();
+  } else if (auto constOp =
+                 dyn_cast_or_null<mlir::ONNXConstantOp>(definingOp)) {
+    if (constOp.getValue().has_value())
+      return constOp.getValueAttr().dyn_cast<DenseElementsAttr>();
+  }
+  return nullptr;
+}
+} // namespace
+
+// Emit an ONNXSqueezeOp. If the input is constant, do const propagation,
+/// and return a constant.
+Value foldOrEmitONNXSqueezeOpStableHlo(ConversionPatternRewriter &rewriter,
+    Location loc, Type resultType, Value input, int64_t axis) {
+  MultiDialectBuilder<OnnxBuilder> create(rewriter, loc);
+  TensorType tensorType = create.onnx.toTensor(resultType);
+  if (DenseElementsAttr inputElements =
+          getDenseElementAttrFromConstValue(input)) {
+    DenseElementsAttr squeezedElements = inputElements.reshape(tensorType);
+    Value constVal = create.onnx.constant(squeezedElements);
+    return constVal;
+  } else {
+    return rewriter
+        .create<ONNXSqueezeOp>(loc, tensorType, create.onnx.toTensor(input),
+            create.onnx.constantInt64({axis}))
+        .getResult();
+  }
+}
+
+/// Emit an ONNXUnsqueezeOp. If the input is constant, do const
+/// propagation, and return a constant.
+Value foldOrEmitONNXUnsqueezeOpStableHlo(ConversionPatternRewriter &rewriter,
+    Location loc, Type resultType, Value input, int64_t axis) {
+  MultiDialectBuilder<OnnxBuilder> create(rewriter, loc);
+  TensorType tensorType = create.onnx.toTensor(resultType);
+  if (DenseElementsAttr inputElements =
+          getDenseElementAttrFromConstValue(input)) {
+    DenseElementsAttr unsqueezedElements = inputElements.reshape(tensorType);
+    Value constVal = create.onnx.constant(unsqueezedElements);
+    return constVal;
+  } else {
+    return rewriter
+        .create<ONNXUnsqueezeOp>(loc, tensorType, create.onnx.toTensor(input),
+            create.onnx.constantInt64({axis}))
+        .getResult();
+  }
+}
+
+/// Emit an ONNXSplitOp. If the input is constant, do const propagation, and
+/// return constants.
+/// Only support evenly splitting.
+std::vector<Value> foldOrEmitONNXSplitOpStableHlo(
+    ConversionPatternRewriter &rewriter, Location loc,
+    ArrayRef<Type> resultTypes, Value input, int64_t axis) {
+  MultiDialectBuilder<OnnxBuilder> create(rewriter, loc);
+  std::vector<Value> resVals;
+  int outputNum = resultTypes.size();
+  if (DenseElementsAttr inputElements =
+          getDenseElementAttrFromConstValue(input)) {
+    auto inputShape = inputElements.getType().getShape();
+    assert(outputNum == 0 || inputShape[axis] % outputNum == 0);
+    int64_t sizeOfEachSplit = outputNum != 0 ? inputShape[axis] / outputNum : 0;
+    SmallVector<int64_t, 4> sizes(outputNum, sizeOfEachSplit);
+
+    OnnxElementsAttrBuilder elementsBuilder(rewriter.getContext());
+    std::vector<ElementsAttr> splits =
+        elementsBuilder.split(inputElements, axis, sizes);
+    for (ElementsAttr splitElements : splits) {
+      // Avoid DisposableElementsAttr during conversion.
+      DenseElementsAttr denseSplitElements =
+          elementsBuilder.toDenseElementsAttr(splitElements);
+      Value constVal = create.onnx.constant(denseSplitElements);
+      resVals.emplace_back(constVal);
+    }
+  } else {
+    SmallVector<Type, 4> convertedTypes;
+    SmallVector<int64_t> splitSizesI64;
+    for (auto t : resultTypes) {
+      convertedTypes.emplace_back(create.onnx.toTensor(t));
+      splitSizesI64.emplace_back(t.cast<ShapedType>().getShape()[axis]);
+    }
+    Value splitSizes = create.onnx.constantInt64(splitSizesI64);
+    ONNXSplitOp split = rewriter.create<ONNXSplitOp>(loc, convertedTypes,
+        create.onnx.toTensor(input), splitSizes,
+        /*axis=*/axis, nullptr);
+    for (int i = 0; i < outputNum; ++i)
+      resVals.emplace_back(split.getOutputs()[i]);
+  }
+  return resVals;
+}
+
+/// Emit an ONNXTransposeOp. If the input is constant, do const propagation,
+/// and return a constant.
+Value foldOrEmitONNXTransposeOpStableHlo(ConversionPatternRewriter &rewriter,
+    Location loc, Type resultType, Value input, ArrayAttr permAttr) {
+  MultiDialectBuilder<OnnxBuilder> create(rewriter, loc);
+  if (DenseElementsAttr inputElements =
+          getDenseElementAttrFromConstValue(input)) {
+    SmallVector<uint64_t, 4> perm;
+    for (auto permVal : permAttr.getValue())
+      perm.emplace_back(permVal.cast<IntegerAttr>().getInt());
+
+    OnnxElementsAttrBuilder elementsBuilder(rewriter.getContext());
+    ElementsAttr transposedElements =
+        elementsBuilder.transpose(inputElements, perm);
+    // Avoid DisposableElementsAttr during conversion.
+    DenseElementsAttr denseTransposedElements =
+        elementsBuilder.toDenseElementsAttr(transposedElements);
+    Value constVal = create.onnx.constant(denseTransposedElements);
+    return constVal;
+  } else {
+    return rewriter
+        .create<ONNXTransposeOp>(loc, create.onnx.toTensor(resultType),
+            create.onnx.toTensor(input), permAttr)
+        .getResult();
+  }
+}
+
 } // namespace onnx_mlir
diff --git a/src/Conversion/ONNXToStableHlo/ONNXToStableHloCommon.hpp b/src/Conversion/ONNXToStableHlo/ONNXToStableHloCommon.hpp
index 824df1e1b0..411c598ed6 100644
--- a/src/Conversion/ONNXToStableHlo/ONNXToStableHloCommon.hpp
+++ b/src/Conversion/ONNXToStableHlo/ONNXToStableHloCommon.hpp
@@ -30,6 +30,8 @@

 #include "stablehlo/dialect/StablehloOps.h"

+#include "src/Conversion/ONNXToStableHlo/DialectBuilder.hpp"
+#include "src/Dialect/Mlir/DialectBuilder.hpp"
 #include "src/Dialect/Mlir/IndexExpr.hpp"
 #include "src/Dialect/ONNX/DialectBuilder.hpp"
 #include "src/Dialect/ONNX/ONNXOps.hpp"
@@ -116,7 +118,39 @@ llvm::SmallVector<Value, 4> getBroadcastedOperands(
     llvm::SmallVector<Value, 4> &operands, Type outputType,
     ConversionPatternRewriter &rewriter, Location loc, int64_t outputRank);

-mlir::ElementsAttr getElementAttributeFromStablehloValue(mlir::Value value);
+mlir::ElementsAttr getElementAttributeFromConstValue(mlir::Value value);
+
+DenseIntElementsAttr GetI64ElementsAttr(
+    ArrayRef<int64_t> values, Builder *builder);
+
+//===----------------------------------------------------------------------===//
+// Fold and emit support.
+//===----------------------------------------------------------------------===//
+
+/// Emit an ONNXSqueezeOp. If the input is constant, do const propagation, and
+/// return a constant.
+mlir::Value foldOrEmitONNXSqueezeOpStableHlo(
+    mlir::ConversionPatternRewriter &rewriter, mlir::Location loc,
+    mlir::Type resultType, mlir::Value input, int64_t axis);
+
+/// Emit an ONNXUnsqueezeOp. If the input is constant, do const propagation, and
+/// return a constant.
+mlir::Value foldOrEmitONNXUnsqueezeOpStableHlo(
+    mlir::ConversionPatternRewriter &rewriter, mlir::Location loc,
+    mlir::Type resultType, mlir::Value input, int64_t axis);
+
+/// Emit an ONNXSplitOp. If the input is constant, do const propagation, and
+/// return constants.
+/// Only support evenly splitting.
+std::vector<mlir::Value> foldOrEmitONNXSplitOpStableHlo(
+    mlir::ConversionPatternRewriter &rewriter, mlir::Location loc,
+    llvm::ArrayRef<mlir::Type> resultTypes, mlir::Value input, int64_t axis);
+
+/// Emit an ONNXTransposeOp. If the input is constant, do const propagation, and
+/// return a constant.
+mlir::Value foldOrEmitONNXTransposeOpStableHlo(
+    mlir::ConversionPatternRewriter &rewriter, mlir::Location loc,
+    mlir::Type resultType, mlir::Value input, mlir::ArrayAttr permAttr);

 // `Math` directory methods:
 void populateLoweringONNXClipOpToStableHloPattern(
@@ -138,6 +172,9 @@ void populateLoweringONNXNormalizationOpToStableHloPattern(
     RewritePatternSet &, MLIRContext *);
 void populateLoweringONNXPoolingOpToStableHloPattern(
     RewritePatternSet &, MLIRContext *);
+// `RNN` directory methods:
+void populateLoweringONNXLSTMOpToStableHloPattern(
+    RewritePatternSet &, MLIRContext *, bool);
 // `Tensor` directory methods:
 void populateLoweringONNXArgMaxOpToStableHloPattern(
     RewritePatternSet &, MLIRContext *);
@@ -157,10 +194,14 @@ void populateLoweringONNXGatherElementsOpToStableHloPattern(
     RewritePatternSet &, MLIRContext *);
 void populateLoweringONNXIdentityOpToStableHloPattern(
     RewritePatternSet &, MLIRContext *);
+void populateLoweringONNXOneHotOpToStableHloPattern(
+    RewritePatternSet &, MLIRContext *);
 void populateLoweringONNXPadOpToStableHloPattern(
     RewritePatternSet &, MLIRContext *);
 void populateLoweringONNXReshapeOpToStableHloPattern(
     RewritePatternSet &, MLIRContext *);
+void populateLoweringONNXScatterNDOpToStableHloPattern(
+    RewritePatternSet &, MLIRContext *);
 void populateLoweringONNXShapeOpToStableHloPattern(
     RewritePatternSet &, MLIRContext *);
 void populateLoweringONNXSliceOpToStableHloPattern(
diff --git a/src/Conversion/ONNXToStableHlo/RNN/LSTM.cpp b/src/Conversion/ONNXToStableHlo/RNN/LSTM.cpp
new file mode 100644
index 0000000000..cdeafcee7e
--- /dev/null
+++ b/src/Conversion/ONNXToStableHlo/RNN/LSTM.cpp
@@ -0,0 +1,830 @@
+/*
+ * SPDX-License-Identifier: Apache-2.0
+ */
+
+//===--------------- LSTM.cpp - Lowering LSTM Op --------------------------===//
+//
+// Copyright 2023
+//
+// =============================================================================
+//
+// This file lowers the ONNX LSTM Operators to StableHlo dialect.
+//
+//===----------------------------------------------------------------------===//
+
+#include "src/Conversion/ONNXToStableHlo/DialectBuilder.hpp"
+#include "src/Conversion/ONNXToStableHlo/RNN/RNNBase.hpp"
+#include "src/Dialect/Mlir/DialectBuilder.hpp"
+
+#include "llvm/Support/Debug.h"
+
+#define DEBUG_TYPE "lstm"
+
+using namespace mlir;
+
+namespace onnx_mlir {
+
+namespace stablehlo {
+
+struct LstmState {
+  SmallVector<Value, 512> forwardAllH;
+  SmallVector<Value, 512> reverseAllH;
+
+  Value allHForward;
+  Value allHReverse;
+
+  Value ht;
+  Value ct;
+  // intermediate states.
+  Value forwardHt;
+  Value reverseHt;
+  Value forwardCt;
+  Value reverseCt;
+};
+
+struct LstmActivationPack {
+  RNNActivation f;
+  RNNActivation g;
+  RNNActivation h;
+};
+
+struct LstmWeightPack {
+  Value WT;
+  Value RT;
+};
+
+struct LstmBiasPack {
+  bool hasBias = false;
+  Value Wbi;
+  Value Wbo;
+  Value Wbf;
+  Value Wbc;
+  Value Rbi;
+  Value Rbo;
+  Value Rbf;
+  Value Rbc;
+  // Put peephole here.
+  bool hasPeephole = false;
+  Value Pi;
+  Value Po;
+  Value Pf;
+};
+
+template <>
+bool hasAllNoneOutput<ONNXLSTMOp>(ONNXLSTMOp *op) {
+  return (isNoneValue(op->getY()) && isNoneValue(op->getYH()) &&
+          isNoneValue(op->getYC()));
+}
+
+template <>
+std::tuple<LstmActivationPack, LstmActivationPack>
+getActivationPack<ONNXLSTMOp, LstmActivationPack>(ONNXLSTMOp *op) {
+  auto direction = op->getDirection();
+  auto activations = op->getActivations();
+  auto activationAlpha = op->getActivationAlpha();
+  auto activationBeta = op->getActivationBeta();
+
+  LstmActivationPack activationForward, activationReverse;
+
+  // Get activation function name.
+  // Default forward functions
+  activationForward.f.name = "sigmoid";
+  activationForward.g.name = "tanh";
+  activationForward.h.name = "tanh";
+  // Default backward functions
+  activationReverse.f.name = "sigmoid";
+  activationReverse.g.name = "tanh";
+  activationReverse.h.name = "tanh";
+  if (activations) {
+    ArrayAttr activationArrAttr = activations.value();
+    if (direction == FORWARD || direction == BIDIRECTIONAL) {
+      // Forward activations.
+      if (activationArrAttr.size() > 0) {
+        activationForward.f.name =
+            activationArrAttr[0].cast<StringAttr>().getValue();
+      }
+      if (activationArrAttr.size() > 1) {
+        activationForward.g.name =
+            activationArrAttr[1].cast<StringAttr>().getValue();
+      }
+      if (activationArrAttr.size() > 2) {
+        activationForward.h.name =
+            activationArrAttr[2].cast<StringAttr>().getValue();
+      }
+    }
+
+    // Reverse activations.
+    if (direction == REVERSE || direction == BIDIRECTIONAL) {
+      unsigned int startIndex = (direction == REVERSE) ? 0 : 3;
+      if (activationArrAttr.size() > startIndex) {
+        activationReverse.f.name =
+            activationArrAttr[startIndex].cast<StringAttr>().getValue();
+      }
+      if (activationArrAttr.size() > startIndex + 1) {
+        activationReverse.g.name =
+            activationArrAttr[startIndex + 1].cast<StringAttr>().getValue();
+      }
+      if (activationArrAttr.size() > startIndex + 2) {
+        activationReverse.h.name =
+            activationArrAttr[startIndex + 2].cast<StringAttr>().getValue();
+      }
+    }
+  }
+
+  // Get alpha attributes.
+  if (activationAlpha) {
+    ArrayAttr activationArrAttr = activationAlpha.value();
+    if (direction == FORWARD || direction == BIDIRECTIONAL) {
+      // Forward activations.
+      if (activationArrAttr.size() > 0) {
+        activationForward.f.alpha = activationArrAttr[0].cast<FloatAttr>();
+      }
+      if (activationArrAttr.size() > 1) {
+        activationForward.g.alpha = activationArrAttr[1].cast<FloatAttr>();
+      }
+      if (activationArrAttr.size() > 2) {
+        activationForward.h.alpha = activationArrAttr[2].cast<FloatAttr>();
+      }
+    }
+
+    // Reverse activations.
+    if (direction == REVERSE || direction == BIDIRECTIONAL) {
+      unsigned int startIndex = (direction == REVERSE) ? 0 : 3;
+      if (activationArrAttr.size() > startIndex) {
+        activationReverse.f.alpha =
+            activationArrAttr[startIndex].cast<FloatAttr>();
+      }
+      if (activationArrAttr.size() > startIndex + 1) {
+        activationReverse.g.alpha =
+            activationArrAttr[startIndex + 1].cast<FloatAttr>();
+      }
+      if (activationArrAttr.size() > startIndex + 2) {
+        activationReverse.h.alpha =
+            activationArrAttr[startIndex + 2].cast<FloatAttr>();
+      }
+    }
+  }
+
+  // Get beta attributes.
+  if (activationBeta) {
+    ArrayAttr activationArrAttr = activationBeta.value();
+    if (direction == FORWARD || direction == BIDIRECTIONAL) {
+      // Forward activations.
+      if (activationArrAttr.size() > 0) {
+        activationForward.f.beta = activationArrAttr[0].cast<FloatAttr>();
+      }
+      if (activationArrAttr.size() > 1) {
+        activationForward.g.beta = activationArrAttr[1].cast<FloatAttr>();
+      }
+      if (activationArrAttr.size() > 2) {
+        activationForward.h.beta = activationArrAttr[2].cast<FloatAttr>();
+      }
+    }
+
+    // Reverse activations.
+    if (direction == REVERSE || direction == BIDIRECTIONAL) {
+      unsigned int startIndex = (direction == REVERSE) ? 0 : 3;
+      if (activationArrAttr.size() > startIndex) {
+        activationReverse.f.beta =
+            activationArrAttr[startIndex].cast<FloatAttr>();
+      }
+      if (activationArrAttr.size() > startIndex + 1) {
+        activationReverse.g.beta =
+            activationArrAttr[startIndex + 1].cast<FloatAttr>();
+      }
+      if (activationArrAttr.size() > startIndex + 2) {
+        activationReverse.h.beta =
+            activationArrAttr[startIndex + 2].cast<FloatAttr>();
+      }
+    }
+  }
+
+  return std::make_tuple(activationForward, activationReverse);
+}
+
+template <>
+std::tuple<LstmWeightPack, LstmWeightPack>
+getWeightPack<ONNXLSTMOp, LstmWeightPack>(
+    ConversionPatternRewriter &rewriter, Location loc, ONNXLSTMOp *op) {
+  // Return values.
+  LstmWeightPack weightForward, weightReverse;
+
+  // parameter weight: [direction, 4*hiddenSize, inputSize]
+  Value W = op->getW();
+  // recurrence weight: [direction, 4*hiddenSize, hiddenSize]
+  Value R = op->getR();
+  // direction
+  StringRef direction = op->getDirection();
+
+  ArrayRef<int64_t> wShape = W.getType().cast<ShapedType>().getShape();
+  Type elementType = W.getType().cast<ShapedType>().getElementType();
+  int64_t hiddenSize = wShape[1] / 4;
+  int64_t inputSize = wShape[2];
+
+  // RankedTensorType types for parameter weights.
+  auto w3DTy =
+      RankedTensorType::get({1, 4 * hiddenSize, inputSize}, elementType);
+  auto w2DTy = RankedTensorType::get({4 * hiddenSize, inputSize}, elementType);
+  auto wTranspose2DTy =
+      RankedTensorType::get({inputSize, 4 * hiddenSize}, elementType);
+  SmallVector<Type, 4> w3D2Ty(2, w3DTy);
+
+  // RankedTensorType types for recurrence weights.
+  auto r3DTy =
+      RankedTensorType::get({1, 4 * hiddenSize, hiddenSize}, elementType);
+  auto r2DTy = RankedTensorType::get({4 * hiddenSize, hiddenSize}, elementType);
+  auto rTranspose2DTy =
+      RankedTensorType::get({hiddenSize, 4 * hiddenSize}, elementType);
+  SmallVector<Type, 4> r3D2Ty(2, r3DTy);
+
+  // Squeeze the direction axis from W and R.
+  Value fW, bW, fR, bR;
+  if (direction == FORWARD) {
+    fW = foldOrEmitONNXSqueezeOpStableHlo(rewriter, loc, w2DTy, W, /*axis=*/0);
+    fR = foldOrEmitONNXSqueezeOpStableHlo(rewriter, loc, r2DTy, R, /*axis=*/0);
+  } else if (direction == REVERSE) {
+    bW = foldOrEmitONNXSqueezeOpStableHlo(rewriter, loc, w2DTy, W, /*axis=*/0);
+    bR = foldOrEmitONNXSqueezeOpStableHlo(rewriter, loc, r2DTy, R, /*axis=*/0);
+  } else { // BIDIRECTIONAL
+    // W
+    std::vector<Value> vals =
+        foldOrEmitONNXSplitOpStableHlo(rewriter, loc, w3D2Ty, W, 0);
+    fW = foldOrEmitONNXSqueezeOpStableHlo(
+        rewriter, loc, w2DTy, vals[0], /*axis=*/0);
+    bW = foldOrEmitONNXSqueezeOpStableHlo(
+        rewriter, loc, w2DTy, vals[1], /*axis=*/0);
+    // R
+    vals.clear();
+    vals = foldOrEmitONNXSplitOpStableHlo(rewriter, loc, r3D2Ty, R, 0);
+    fR = foldOrEmitONNXSqueezeOpStableHlo(
+        rewriter, loc, r2DTy, vals[0], /*axis=*/0);
+    bR = foldOrEmitONNXSqueezeOpStableHlo(
+        rewriter, loc, r2DTy, vals[1], /*axis=*/0);
+  }
+
+  // Transpose W and R.
+  ArrayAttr permAttr = rewriter.getI64ArrayAttr({1, 0});
+  if (direction == FORWARD || direction == BIDIRECTIONAL) {
+    // W
+    weightForward.WT = foldOrEmitONNXTransposeOpStableHlo(
+        rewriter, loc, wTranspose2DTy, fW, permAttr);
+    // R
+    weightForward.RT = foldOrEmitONNXTransposeOpStableHlo(
+        rewriter, loc, rTranspose2DTy, fR, permAttr);
+  }
+  if (direction == REVERSE || direction == BIDIRECTIONAL) {
+    // W
+    weightReverse.WT = foldOrEmitONNXTransposeOpStableHlo(
+        rewriter, loc, wTranspose2DTy, bW, permAttr);
+    // R
+    weightReverse.RT = foldOrEmitONNXTransposeOpStableHlo(
+        rewriter, loc, rTranspose2DTy, bR, permAttr);
+  }
+  return std::make_tuple(weightForward, weightReverse);
+}
+
+template <>
+std::tuple<LstmBiasPack, LstmBiasPack> getBiasPack<ONNXLSTMOp, LstmBiasPack>(
+    ConversionPatternRewriter &rewriter, Location loc, ONNXLSTMOp *op) {
+  // Return values.
+  LstmBiasPack biasForward, biasReverse;
+
+  // bias: [direction, 8*hiddenSize] for both parameter and recurrence weights.
+  Value B = op->getB();
+  // peephold: [direction, 3*hiddenSize] for input, output and forget gates.
+  Value P = op->getP();
+
+  // direction
+  StringRef direction = op->getDirection();
+
+  // Split B.
+  if (!isNoneValue(B)) {
+    ArrayRef<int64_t> bShape = B.getType().cast<ShapedType>().getShape();
+    Type elementType = B.getType().cast<ShapedType>().getElementType();
+    int64_t hiddenSize = bShape[1] / 8;
+
+    // MemRef types.
+    auto bType2D = RankedTensorType::get({1, 8 * hiddenSize}, elementType);
+    auto bType1D = RankedTensorType::get({8 * hiddenSize}, elementType);
+    auto bSplitType1D = RankedTensorType::get({hiddenSize}, elementType);
+    SmallVector<Type, 4> split1D8Ty(8, bSplitType1D);
+    SmallVector<Type, 4> split2D2Ty(2, bType2D);
+
+    // Squeeze the direction axis from B.
+    Value fB, bB;
+    if (direction == FORWARD) {
+      fB = foldOrEmitONNXSqueezeOpStableHlo(
+          rewriter, loc, bType1D, B, /*axis=*/0);
+    } else if (direction == REVERSE) {
+      bB = foldOrEmitONNXSqueezeOpStableHlo(
+          rewriter, loc, bType1D, B, /*axis=*/0);
+    } else { // BIDIRECTIONAL
+      std::vector<Value> vals;
+      vals = foldOrEmitONNXSplitOpStableHlo(rewriter, loc, split2D2Ty, B, 0);
+      fB = foldOrEmitONNXSqueezeOpStableHlo(
+          rewriter, loc, bType1D, vals[0], /*axis=*/0);
+      bB = foldOrEmitONNXSqueezeOpStableHlo(
+          rewriter, loc, bType1D, vals[1], /*axis=*/0);
+    }
+
+    // Split B into individual bias tensors.
+    if (direction == FORWARD || direction == BIDIRECTIONAL) {
+      std::vector<Value> vals =
+          foldOrEmitONNXSplitOpStableHlo(rewriter, loc, split1D8Ty, fB, 0);
+      biasForward.Wbi = vals[0];
+      biasForward.Wbo = vals[1];
+      biasForward.Wbf = vals[2];
+      biasForward.Wbc = vals[3];
+      biasForward.Rbi = vals[4];
+      biasForward.Rbo = vals[5];
+      biasForward.Rbf = vals[6];
+      biasForward.Rbc = vals[7];
+      biasForward.hasBias = true;
+    }
+    if (direction == REVERSE || direction == BIDIRECTIONAL) {
+      std::vector<Value> vals =
+          foldOrEmitONNXSplitOpStableHlo(rewriter, loc, split1D8Ty, bB, 0);
+      biasReverse.Wbi = vals[0];
+      biasReverse.Wbo = vals[1];
+      biasReverse.Wbf = vals[2];
+      biasReverse.Wbc = vals[3];
+      biasReverse.Rbi = vals[4];
+      biasReverse.Rbo = vals[5];
+      biasReverse.Rbf = vals[6];
+      biasReverse.Rbc = vals[7];
+      biasReverse.hasBias = true;
+    }
+  }
+
+  // Split P.
+  if (!isNoneValue(P)) {
+    ArrayRef<int64_t> pShape = P.getType().cast<ShapedType>().getShape();
+    Type elementType = P.getType().cast<ShapedType>().getElementType();
+    int64_t hiddenSize = pShape[1] / 3;
+
+    // MemRef types.
+    auto pType2D = RankedTensorType::get({1, 3 * hiddenSize}, elementType);
+    auto pType1D = RankedTensorType::get({3 * hiddenSize}, elementType);
+    auto pSplitType1D = RankedTensorType::get({hiddenSize}, elementType);
+    SmallVector<Type, 4> split1D3Ty(3, pSplitType1D);
+    SmallVector<Type, 4> split2D2Ty(2, pType2D);
+
+    // Squeeze the direction axis from P.
+    Value fP, bP;
+    if (direction == FORWARD) {
+      fP = foldOrEmitONNXSqueezeOpStableHlo(
+          rewriter, loc, pType1D, P, /*axis=*/0);
+    } else if (direction == REVERSE) {
+      bP = foldOrEmitONNXSqueezeOpStableHlo(
+          rewriter, loc, pType1D, P, /*axis=*/0);
+    } else { // BIDIRECTIONAL
+      std::vector<Value> vals =
+          foldOrEmitONNXSplitOpStableHlo(rewriter, loc, split2D2Ty, P, 0);
+      fP = foldOrEmitONNXSqueezeOpStableHlo(
+          rewriter, loc, pType1D, vals[0], /*axis=*/0);
+      bP = foldOrEmitONNXSqueezeOpStableHlo(
+          rewriter, loc, pType1D, vals[1], /*axis=*/0);
+    }
+
+    // Split P into individual tensors.
+    if (direction == FORWARD || direction == BIDIRECTIONAL) {
+      std::vector<Value> vals =
+          foldOrEmitONNXSplitOpStableHlo(rewriter, loc, split1D3Ty, fP, 0);
+      biasForward.Pi = vals[0];
+      biasForward.Po = vals[1];
+      biasForward.Pf = vals[2];
+      biasForward.hasPeephole = true;
+    }
+    if (direction == REVERSE || direction == BIDIRECTIONAL) {
+      std::vector<Value> vals =
+          foldOrEmitONNXSplitOpStableHlo(rewriter, loc, split1D3Ty, bP, 0);
+      biasReverse.Pi = vals[0];
+      biasReverse.Po = vals[1];
+      biasReverse.Pf = vals[2];
+      biasReverse.hasPeephole = true;
+    }
+  }
+
+  return std::make_tuple(biasForward, biasReverse);
+}
+
+template <>
+LstmState allocAndInitializeStates<ONNXLSTMOp, LstmState>(
+    ConversionPatternRewriter &rewriter, Location loc, ONNXLSTMOp *op,
+    typename ONNXLSTMOp::Adaptor operandAdaptor, bool enableUnroll) {
+  LstmState state;
+
+  // direction
+  StringRef direction = op->getDirection();
+
+  // allocation for the results of this operation.
+  // If the result is not returned, then no allocation happens.
+  if (!enableUnroll) {
+    if (direction == FORWARD || direction == BIDIRECTIONAL)
+      state.allHForward = allocAllHidden(
+          rewriter, loc, operandAdaptor.getX(), operandAdaptor.getR());
+    if (direction == REVERSE || direction == BIDIRECTIONAL)
+      state.allHReverse = allocAllHidden(
+          rewriter, loc, operandAdaptor.getX(), operandAdaptor.getR());
+  }
+  // Y :: [seq_length, num_directions, batch_size, hidden_size]
+  // Y_h :: [num_directions, batch_size, hidden_size]
+  state.ht = allocHiddenOrCell(rewriter, loc, operandAdaptor.getX(),
+      operandAdaptor.getW(), operandAdaptor.getR());
+  // Y_c :: [num_directions, batch_size, hidden_size]
+  state.ct = allocHiddenOrCell(rewriter, loc, operandAdaptor.getX(),
+      operandAdaptor.getW(), operandAdaptor.getR());
+
+  // Insert allocation and deallocation the intermediate Ht and Ct for the
+  // forward and reverse directions.
+  // Ht :: [batch_size, hidden_size]
+  // Ct :: [batch_size, hidden_size]
+  if (direction == FORWARD || direction == BIDIRECTIONAL) {
+    state.forwardHt = allocIntermediateState(
+        rewriter, loc, operandAdaptor.getX(), operandAdaptor.getR());
+    state.forwardCt = allocIntermediateState(
+        rewriter, loc, operandAdaptor.getX(), operandAdaptor.getR());
+  }
+  if (direction == REVERSE || direction == BIDIRECTIONAL) {
+    state.reverseHt = allocIntermediateState(
+        rewriter, loc, operandAdaptor.getX(), operandAdaptor.getR());
+    state.reverseCt = allocIntermediateState(
+        rewriter, loc, operandAdaptor.getX(), operandAdaptor.getR());
+  }
+
+  // Initialize Ht and Ct.
+  initializeIntermediateStates(rewriter, loc, state.forwardHt, state.reverseHt,
+      state.forwardCt, state.reverseCt, operandAdaptor.getInitialH(),
+      operandAdaptor.getInitialC(),
+      operandAdaptor.getX().getType().cast<RankedTensorType>().getElementType(),
+      direction, /*onlyHidden=*/false);
+  return state;
+}
+
+template <>
+void calculateState<LstmState, LstmActivationPack, LstmWeightPack,
+    LstmBiasPack>(ConversionPatternRewriter &rewriter, Location loc, Value Xt,
+    LstmState &state, LstmActivationPack activationPack,
+    LstmWeightPack weightPack, LstmBiasPack biasPack, Value sequenceIV,
+    Value directionIV, Value sequenceLens, Value initialH, bool enableUnroll,
+    bool isForward) {
+  // Equations for LSTM.
+  // it = f(Xt*(Wi^T) + Ht-1*(Ri^T) + Pi (.) Ct-1 + Wbi + Rbi)
+  // ft = f(Xt*(Wf^T) + Ht-1*(Rf^T) + Pf (.) Ct-1 + Wbf + Rbf)
+  // ct = g(Xt*(Wc^T) + Ht-1*(Rc^T) + Wbc + Rbc)
+  // Ct = ft (.) Ct-1 + it (.) ct
+  // ot = f(Xt*(Wo^T) + Ht-1*(Ro^T) + Po (.) Ct + Wbo + Rbo)
+  // Ht = ot (.) h(Ct)
+
+  MultiDialectBuilder<OnnxBuilder> create(rewriter, loc);
+
+  ArrayRef<int64_t> xtShape = Xt.getType().cast<ShapedType>().getShape();
+  int64_t batchSize = xtShape[0];
+
+  // Get Ht, Ct.
+  Value Ht = (isForward) ? state.forwardHt : state.reverseHt;
+  Value Ct = (isForward) ? state.forwardCt : state.reverseCt;
+
+  ArrayRef<int64_t> htShape = Ht.getType().cast<ShapedType>().getShape();
+  int64_t hiddenSize = htShape[1];
+
+  // Frequently used types.
+  RankedTensorType matrixType = Ht.getType().cast<RankedTensorType>();
+  Type elementType = matrixType.getElementType();
+  RankedTensorType matrixAllGatesType =
+      RankedTensorType::get({batchSize, 4 * hiddenSize}, elementType);
+
+  // Do matrix multiplications.
+  // Xt * (Wi^T ++ Wo^T ++ Wf^T ++ Wc^T)
+  // Ht * (Ri^T ++ Ro^T ++ Rf^T ++ Rc^T)
+  // where '++' is matrix concatenation.
+  // XtWT: [B, 4H], HtRT: [B, 4H]
+  Value XtWT = create.onnx.matmul(matrixAllGatesType, Xt, weightPack.WT);
+  Value HtRT = create.onnx.matmul(matrixAllGatesType, Ht, weightPack.RT);
+  Value commonSum = create.onnx.add(XtWT, HtRT);
+  RankedTensorType matrixSingleGateType =
+      RankedTensorType::get({batchSize, hiddenSize}, elementType);
+  Value zeroIndex = create.onnx.constantInt64({0});
+  Value oneIndex = create.onnx.constantInt64({1});
+  Value oneHiddenIndex = create.onnx.constantInt64({hiddenSize});
+  Value twoHiddenIndex = create.onnx.constantInt64({2 * hiddenSize});
+  Value threeHiddenIndex = create.onnx.constantInt64({3 * hiddenSize});
+  Value fourHiddenIndex = create.onnx.constantInt64({4 * hiddenSize});
+  Value it = create.onnx.slice(matrixSingleGateType, commonSum, zeroIndex,
+      oneHiddenIndex, oneIndex, oneIndex);
+  Value ot = create.onnx.slice(matrixSingleGateType, commonSum, oneHiddenIndex,
+      twoHiddenIndex, oneIndex, oneIndex);
+  Value ft = create.onnx.slice(matrixSingleGateType, commonSum, twoHiddenIndex,
+      threeHiddenIndex, oneIndex, oneIndex);
+  Value ct = create.onnx.slice(matrixSingleGateType, commonSum,
+      threeHiddenIndex, fourHiddenIndex, oneIndex, oneIndex);
+  if (biasPack.hasBias) {
+    it = create.onnx.add(it, biasPack.Wbi);
+    it = create.onnx.add(it, biasPack.Rbi);
+  }
+  if (biasPack.hasPeephole) {
+    Value PiCt = create.onnx.mul(biasPack.Pi, Ct);
+    it = create.onnx.add(it, PiCt);
+  }
+  it = applyActivation(rewriter, loc, activationPack.f, it);
+  if (biasPack.hasBias) {
+    ft = create.onnx.add(ft, biasPack.Wbf);
+    ft = create.onnx.add(ft, biasPack.Rbf);
+  }
+  if (biasPack.hasPeephole) {
+    Value PfCt = create.onnx.mul(biasPack.Pf, Ct);
+    ft = create.onnx.add(ft, PfCt);
+  }
+  ft = applyActivation(rewriter, loc, activationPack.f, ft);
+  if (biasPack.hasBias) {
+    ct = create.onnx.add(ct, biasPack.Wbc);
+    ct = create.onnx.add(ct, biasPack.Rbc);
+  }
+  ct = applyActivation(rewriter, loc, activationPack.g, ct);
+
+  Value ftCt = create.onnx.mul(ft, Ct);
+  Value itct = create.onnx.mul(it, ct);
+  Value nextCt = create.onnx.add(ftCt, itct);
+
+  if (biasPack.hasBias) {
+    ot = create.onnx.add(ot, biasPack.Wbo);
+    ot = create.onnx.add(ot, biasPack.Rbo);
+  }
+  if (biasPack.hasPeephole) {
+    Value PoCt = create.onnx.mul(biasPack.Po, nextCt);
+    ot = create.onnx.add(ot, PoCt);
+  }
+  ot = applyActivation(rewriter, loc, activationPack.f, ot);
+  // Ht = ot (.) h(Ct)
+  Value nextHt = applyActivation(rewriter, loc, activationPack.h, nextCt);
+  nextHt = create.onnx.mul(ot, nextHt);
+  if (isForward) {
+    state.forwardHt = nextHt;
+    state.forwardCt = nextCt;
+  } else {
+    state.reverseHt = nextHt;
+    state.reverseCt = nextCt;
+  }
+  if (enableUnroll) {
+    RankedTensorType unsqueezedHtType =
+        RankedTensorType::get({1, 1, batchSize, hiddenSize}, elementType);
+    if (isForward)
+      state.forwardAllH.emplace_back(create.onnx.unsqueeze(
+          unsqueezedHtType, nextHt, create.onnx.constantInt64({0, 1})));
+    else
+      state.reverseAllH.insert(state.reverseAllH.begin(),
+          create.onnx.unsqueeze(
+              unsqueezedHtType, nextHt, create.onnx.constantInt64({0, 1})));
+  } else {
+    RankedTensorType unsqueezedHtType =
+        RankedTensorType::get({1, 1, batchSize, hiddenSize}, elementType);
+    RankedTensorType unsqueezedIdxType =
+        RankedTensorType::get({1, 1}, rewriter.getI64Type());
+    Value unsqueezedHt = create.onnx.unsqueeze(
+        unsqueezedHtType, nextHt, create.onnx.constantInt64({0, 1}));
+    Value unsqueezedIdx = create.onnx.unsqueeze(
+        unsqueezedIdxType, sequenceIV, create.onnx.constantInt64({0}));
+    if (isForward)
+      state.allHForward =
+          rewriter.create<ONNXScatterNDOp>(loc, state.allHForward.getType(),
+              state.allHForward, unsqueezedIdx, unsqueezedHt);
+    else
+      state.allHReverse =
+          rewriter.create<ONNXScatterNDOp>(loc, state.allHReverse.getType(),
+              state.allHReverse, unsqueezedIdx, unsqueezedHt);
+  }
+}
+
+template <>
+void stateToOutput<ONNXLSTMOp, LstmState>(ConversionPatternRewriter &rewriter,
+    Location loc, ONNXLSTMOp *op, LstmState state, std::vector<Value> &outputs,
+    bool enableUnroll) {
+  Value noneValue;
+  auto direction = op->getDirection();
+  MultiDialectBuilder<OnnxBuilder> create(rewriter, loc);
+  // First output: all sequences.
+  if (isNoneValue(op->getY()))
+    outputs.emplace_back(noneValue);
+  else {
+    if (enableUnroll) {
+      if (direction == FORWARD) {
+        outputs.emplace_back(create.onnx.concat(
+            op->getY().getType(), ValueRange(state.forwardAllH), 0));
+      } else if (direction == REVERSE) {
+        outputs.emplace_back(create.onnx.concat(
+            op->getY().getType(), ValueRange(state.reverseAllH), 0));
+      } else {
+        auto outputShape = op->getY().getType().cast<ShapedType>().getShape();
+        RankedTensorType singleDirectionType = RankedTensorType::get(
+            {outputShape[0], 1, outputShape[2], outputShape[3]},
+            op->getY().getType().cast<ShapedType>().getElementType());
+        outputs.emplace_back(create.onnx.concat(op->getY().getType(),
+            {create.onnx.concat(
+                 singleDirectionType, ValueRange(state.forwardAllH), 0),
+                create.onnx.concat(
+                    singleDirectionType, ValueRange(state.reverseAllH), 0)},
+            1));
+      }
+    } else {
+      if (direction == FORWARD) {
+        outputs.emplace_back(state.allHForward);
+      } else if (direction == REVERSE) {
+        outputs.emplace_back(state.allHReverse);
+      } else {
+        outputs.emplace_back(create.onnx.concat(
+            op->getY().getType(), {state.allHForward, state.allHReverse}, 1));
+      }
+    }
+  }
+  // Second output: hidden.
+  if (isNoneValue(op->getYH()))
+    outputs.emplace_back(noneValue);
+  else {
+    stateToOutputForHiddenOrCell(
+        rewriter, loc, state.forwardHt, state.reverseHt, direction, state.ht);
+    outputs.emplace_back(state.ht);
+  }
+  // Third output: cell.
+  if (isNoneValue(op->getYC()))
+    outputs.emplace_back(noneValue);
+  else {
+    stateToOutputForHiddenOrCell(
+        rewriter, loc, state.forwardCt, state.reverseCt, direction, state.ct);
+    outputs.emplace_back(state.ct);
+  }
+}
+
+template <>
+void calculateStateWithUnroll<ONNXLSTMOp, LstmState, LstmActivationPack,
+    LstmWeightPack, LstmBiasPack>(mlir::ConversionPatternRewriter &rewriter,
+    mlir::Location loc, llvm::StringRef direction, int64_t sequenceDimSize,
+    Value X, LstmState &state, LstmActivationPack activationForward,
+    LstmActivationPack activationReverse, LstmWeightPack weightForward,
+    LstmWeightPack weightReverse, LstmBiasPack biasForward,
+    LstmBiasPack biasReverse, Value sequenceLens, Value initialH) {
+  MultiDialectBuilder<OnnxBuilder> create(rewriter, loc);
+
+  if (direction == FORWARD || direction == BIDIRECTIONAL) {
+    for (int64_t i = 0; i < sequenceDimSize; i++) {
+      mlir::Value directionIV = create.onnx.constantInt64({0});
+      mlir::Value sequenceIV = create.onnx.constantInt64({i});
+      // Get a slice of X at the current timestep.
+      mlir::Value Xt = emitXSliceAt(rewriter, loc, X, sequenceIV);
+      // Emit calculation for one RNN step.
+      calculateState<LstmState, LstmActivationPack, LstmWeightPack,
+          LstmBiasPack>(rewriter, loc, Xt, state, activationForward,
+          weightForward, biasForward, sequenceIV, directionIV, sequenceLens,
+          initialH, /*enableUnroll=*/true, /*isForward=*/true);
+    }
+  }
+
+  if (direction == REVERSE || direction == BIDIRECTIONAL) {
+    for (int64_t i = 0; i < sequenceDimSize; i++) {
+      mlir::Value directionIV =
+          create.onnx.constantInt64({(direction == REVERSE) ? 0 : 1});
+      mlir::Value reverseSequenceIV =
+          create.onnx.constantInt64({sequenceDimSize - i - 1});
+      // Get a slice of X at the current timestep.
+      mlir::Value Xt = emitXSliceAt(rewriter, loc, X, reverseSequenceIV);
+      // Emit calculation for one RNN step.
+      calculateState<LstmState, LstmActivationPack, LstmWeightPack,
+          LstmBiasPack>(rewriter, loc, Xt, state, activationReverse,
+          weightReverse, biasReverse, reverseSequenceIV, directionIV,
+          sequenceLens, initialH, /*enableUnroll=*/true, /*isForward=*/false);
+    }
+  }
+}
+
+template <>
+void calculateStateWithLoop<ONNXLSTMOp, LstmState, LstmActivationPack,
+    LstmWeightPack, LstmBiasPack>(mlir::ConversionPatternRewriter &rewriter,
+    mlir::Location loc, llvm::StringRef direction, int64_t sequenceDimSize,
+    Value X, LstmState &state, LstmActivationPack activationForward,
+    LstmActivationPack activationReverse, LstmWeightPack weightForward,
+    LstmWeightPack weightReverse, LstmBiasPack biasForward,
+    LstmBiasPack biasReverse, Value sequenceLens, Value initialH) {
+  MultiDialectBuilder<OnnxBuilder> create(rewriter, loc);
+
+  if (direction == FORWARD || direction == BIDIRECTIONAL) {
+    mlir::Value directionIV = create.onnx.constantInt64({0});
+    mlir::Value sequenceIV = create.onnx.constantInt64({0});
+    SmallVector<Value> operands = {
+        sequenceIV, state.allHForward, state.forwardHt, state.forwardCt};
+    SmallVector<Type> returnedTypes = {sequenceIV.getType(),
+        state.allHForward.getType(), state.forwardHt.getType(),
+        state.forwardCt.getType()};
+    SmallVector<Location> locations(returnedTypes.size(), loc);
+    ::stablehlo::WhileOp whileLoopOp =
+        rewriter.create<::stablehlo::WhileOp>(loc, returnedTypes, operands);
+    Region &condRegion = whileLoopOp.getCond();
+    Region &bodyRegion = whileLoopOp.getBody();
+    Block &condBlock = condRegion.emplaceBlock();
+    Block &bodyBlock = bodyRegion.emplaceBlock();
+    condBlock.addArguments(returnedTypes, locations);
+    {
+      OpBuilder::InsertionGuard guard(rewriter);
+      rewriter.setInsertionPointToStart(&condBlock);
+      BlockArgument lhs = condBlock.getArgument(0);
+      mlir::Value rhs = create.onnx.constantInt64({sequenceDimSize});
+      Value compareResult = rewriter.create<::stablehlo::CompareOp>(
+          loc, lhs, rhs, ::stablehlo::ComparisonDirection::LT);
+      compareResult = rewriter.create<::stablehlo::ReshapeOp>(
+          loc, RankedTensorType::get({}, rewriter.getI1Type()), compareResult);
+      rewriter.create<::stablehlo::ReturnOp>(loc, compareResult);
+    }
+    bodyBlock.addArguments(returnedTypes, locations);
+    {
+      OpBuilder::InsertionGuard guard(rewriter);
+      rewriter.setInsertionPointToStart(&bodyBlock);
+      BlockArgument seqIV = bodyBlock.getArgument(0);
+      BlockArgument allH = bodyBlock.getArgument(1);
+      BlockArgument ht = bodyBlock.getArgument(2);
+      BlockArgument ct = bodyBlock.getArgument(3);
+      state.allHForward = allH;
+      state.forwardHt = ht;
+      state.forwardCt = ct;
+      mlir::Value Xt = emitXSliceAt(rewriter, loc, X, seqIV);
+      calculateState<LstmState, LstmActivationPack, LstmWeightPack,
+          LstmBiasPack>(rewriter, loc, Xt, state, activationForward,
+          weightForward, biasForward, seqIV, directionIV, sequenceLens,
+          initialH, /*enableUnroll=*/false, /*isForward=*/true);
+      mlir::Value one = create.onnx.constantInt64({1});
+      Value newSeqIV = create.onnx.add(seqIV, one);
+      rewriter.create<::stablehlo::ReturnOp>(loc,
+          ValueRange(
+              {newSeqIV, state.allHForward, state.forwardHt, state.forwardCt}));
+    }
+    state.allHForward = whileLoopOp.getResults()[1];
+    state.forwardHt = whileLoopOp.getResults()[2];
+    state.forwardCt = whileLoopOp.getResults()[3];
+  }
+
+  if (direction == REVERSE || direction == BIDIRECTIONAL) {
+    mlir::Value directionIV =
+        create.onnx.constantInt64({(direction == REVERSE) ? 0 : 1});
+    mlir::Value reverseSequenceIV =
+        create.onnx.constantInt64({sequenceDimSize - 1});
+
+    SmallVector<Value> operands = {
+        reverseSequenceIV, state.allHReverse, state.reverseHt, state.reverseCt};
+    SmallVector<Type> returnedTypes = {reverseSequenceIV.getType(),
+        state.allHReverse.getType(), state.reverseHt.getType(),
+        state.reverseCt.getType()};
+    SmallVector<Location> locations(returnedTypes.size(), loc);
+    ::stablehlo::WhileOp whileLoopOp =
+        rewriter.create<::stablehlo::WhileOp>(loc, returnedTypes, operands);
+    Region &condRegion = whileLoopOp.getCond();
+    Region &bodyRegion = whileLoopOp.getBody();
+    Block &condBlock = condRegion.emplaceBlock();
+    Block &bodyBlock = bodyRegion.emplaceBlock();
+    condBlock.addArguments(returnedTypes, locations);
+    {
+      OpBuilder::InsertionGuard guard(rewriter);
+      rewriter.setInsertionPointToStart(&condBlock);
+      BlockArgument lhs = condBlock.getArgument(0);
+      mlir::Value rhs = create.onnx.constantInt64({0});
+      Value compareResult = rewriter.create<::stablehlo::CompareOp>(
+          loc, lhs, rhs, ::stablehlo::ComparisonDirection::GE);
+      compareResult = rewriter.create<::stablehlo::ReshapeOp>(
+          loc, RankedTensorType::get({}, rewriter.getI1Type()), compareResult);
+      rewriter.create<::stablehlo::ReturnOp>(loc, compareResult);
+    }
+    bodyBlock.addArguments(returnedTypes, locations);
+    {
+      OpBuilder::InsertionGuard guard(rewriter);
+      rewriter.setInsertionPointToStart(&bodyBlock);
+      BlockArgument revseqIV = bodyBlock.getArgument(0);
+      BlockArgument allH = bodyBlock.getArgument(1);
+      BlockArgument ht = bodyBlock.getArgument(2);
+      BlockArgument ct = bodyBlock.getArgument(3);
+      state.allHReverse = allH;
+      state.reverseHt = ht;
+      state.reverseCt = ct;
+      mlir::Value Xt = emitXSliceAt(rewriter, loc, X, revseqIV);
+      calculateState<LstmState, LstmActivationPack, LstmWeightPack,
+          LstmBiasPack>(rewriter, loc, Xt, state, activationReverse,
+          weightReverse, biasReverse, revseqIV, directionIV, sequenceLens,
+          initialH, /*enableUnroll=*/false, /*isForward=*/false);
+      mlir::Value one = create.onnx.constantInt64({1});
+      Value newrevseqIV = create.onnx.sub(revseqIV, one);
+      rewriter.create<::stablehlo::ReturnOp>(
+          loc, ValueRange({newrevseqIV, state.allHReverse, state.reverseHt,
+                   state.reverseCt}));
+    }
+    state.allHReverse = whileLoopOp.getResults()[1];
+    state.reverseHt = whileLoopOp.getResults()[2];
+    state.reverseCt = whileLoopOp.getResults()[3];
+  }
+}
+
+} // namespace stablehlo
+
+void populateLoweringONNXLSTMOpToStableHloPattern(
+    RewritePatternSet &patterns, MLIRContext *ctx, bool enableUnroll) {
+  patterns.insert<onnx_mlir::stablehlo::ONNXRNNOpLowering<ONNXLSTMOp,
+      onnx_mlir::stablehlo::LstmState, onnx_mlir::stablehlo::LstmActivationPack,
+      onnx_mlir::stablehlo::LstmWeightPack,
+      onnx_mlir::stablehlo::LstmBiasPack>>(ctx, enableUnroll);
+}
+
+} // namespace onnx_mlir
diff --git a/src/Conversion/ONNXToStableHlo/RNN/RNNBase.cpp b/src/Conversion/ONNXToStableHlo/RNN/RNNBase.cpp
new file mode 100644
index 0000000000..6c771cfa0b
--- /dev/null
+++ b/src/Conversion/ONNXToStableHlo/RNN/RNNBase.cpp
@@ -0,0 +1,234 @@
+/*
+ * SPDX-License-Identifier: Apache-2.0
+ */
+
+//===--------------- RNNBase.cpp - Lowering RNN Ops -----------------------===//
+//
+// Copyright 2023
+//
+// =============================================================================
+//
+// This file defines base functions for lowering the ONNX RNN Operators.
+//
+//===----------------------------------------------------------------------===//
+
+#include "src/Conversion/ONNXToStableHlo/RNN/RNNBase.hpp"
+#include "src/Conversion/ONNXToStableHlo/ONNXToStableHloCommon.hpp"
+
+#include "llvm/Support/Debug.h"
+
+#define DEBUG_TYPE "lstm"
+
+using namespace mlir;
+
+namespace onnx_mlir {
+
+namespace stablehlo {
+
+// Get a dimension of the tensor's shape.
+int64_t dimAt(Value val, int index) {
+  return val.getType().cast<ShapedType>().getShape()[index];
+}
+
+/// Allocate the all hidden output.
+/// Shape :: [seq_length, num_directions, batch_size, hidden_size]
+Value allocAllHidden(
+    ConversionPatternRewriter &rewriter, Location loc, Value X, Value R) {
+  LLVM_DEBUG(llvm::dbgs() << "allocAllHidden\n");
+  MultiDialectBuilder<OnnxBuilder> create(rewriter, loc);
+  RankedTensorType zeroType =
+      RankedTensorType::get({dimAt(X, 0), 1, dimAt(X, 1), dimAt(R, 2)},
+          X.getType().cast<ShapedType>().getElementType());
+  DenseElementsAttr zeroAttr = DenseElementsAttr::get(zeroType, 0.0f);
+  return create.onnx.constant(zeroAttr);
+}
+
+/// Allocate the hidden or cell output.
+mlir::Value allocHiddenOrCell(mlir::ConversionPatternRewriter &rewriter,
+    mlir::Location loc, mlir::Value X, mlir::Value W, mlir::Value R) {
+  LLVM_DEBUG(llvm::dbgs() << "allocHiddenOrCell\n");
+  MultiDialectBuilder<OnnxBuilder> create(rewriter, loc);
+  RankedTensorType zeroType = RankedTensorType::get(
+      {/*num_directions=*/dimAt(W, 0), /*batch_size=*/dimAt(X, 1),
+          /*hidden_size=*/dimAt(R, 2)},
+      X.getType().cast<ShapedType>().getElementType());
+  DenseElementsAttr zeroAttr = DenseElementsAttr::get(zeroType, 0.0f);
+  return create.onnx.constant(zeroAttr);
+}
+
+/// Allocate the intermediate hidden or cell states.
+/// Shape :: [batch_size, hidden_size]
+Value allocIntermediateState(
+    ConversionPatternRewriter &rewriter, Location loc, Value X, Value R) {
+  LLVM_DEBUG(llvm::dbgs() << "allocIntermediateState\n");
+  MultiDialectBuilder<OnnxBuilder> create(rewriter, loc);
+  RankedTensorType zeroType =
+      RankedTensorType::get({/*batch_size=*/dimAt(X, 1),
+                                /*hidden_size=*/dimAt(R, 2)},
+          X.getType().cast<ShapedType>().getElementType());
+  DenseElementsAttr zeroAttr = DenseElementsAttr::get(zeroType, 0.0f);
+  return create.onnx.constant(zeroAttr);
+}
+
+/// Initialize the intermediate hidden and cell states.
+/// forward(reverse)Ht, forward(reverse)Ct
+void initializeIntermediateStates(ConversionPatternRewriter &rewriter,
+    Location loc, Value &forwardHt, Value &reverseHt, Value &forwardCt,
+    Value &reverseCt, Value initialH, Value initialC, Type elementType,
+    StringRef direction, bool onlyHidden) {
+  LLVM_DEBUG(llvm::dbgs() << "initializeIntermediateStates\n");
+  MultiDialectBuilder<OnnxBuilder> create(rewriter, loc);
+
+  Value zeroIndex = create.onnx.constantInt64({0});
+  Value oneIndex = create.onnx.constantInt64({1});
+  Value twoIndex = create.onnx.constantInt64({2});
+
+  Value boundVal = (direction == FORWARD || direction == BIDIRECTIONAL)
+                       ? forwardHt
+                       : reverseHt;
+  auto valShape = boundVal.getType().cast<ShapedType>().getShape();
+  RankedTensorType sliceType =
+      RankedTensorType::get({1, valShape[0], valShape[1]},
+          boundVal.getType().cast<RankedTensorType>().getElementType());
+  RankedTensorType valType = boundVal.getType().cast<RankedTensorType>();
+  if (direction == FORWARD || direction == BIDIRECTIONAL) {
+    if (!isNoneValue(initialH)) {
+      forwardHt = create.onnx.slice(
+          sliceType, initialH, zeroIndex, oneIndex, zeroIndex, oneIndex);
+      forwardHt = create.onnx.squeeze(valType, forwardHt, zeroIndex);
+    }
+    if (!onlyHidden && !isNoneValue(initialC)) {
+      forwardCt = create.onnx.slice(
+          sliceType, initialC, zeroIndex, oneIndex, zeroIndex, oneIndex);
+      forwardCt = create.onnx.squeeze(valType, forwardCt, zeroIndex);
+    }
+  }
+  if (direction == REVERSE || direction == BIDIRECTIONAL) {
+    if (!isNoneValue(initialH)) {
+      if (direction == REVERSE) {
+        reverseHt = create.onnx.slice(
+            sliceType, initialH, zeroIndex, oneIndex, zeroIndex, oneIndex);
+        reverseHt = create.onnx.squeeze(valType, reverseHt, zeroIndex);
+      } else {
+        reverseHt = create.onnx.slice(
+            sliceType, initialH, oneIndex, twoIndex, zeroIndex, oneIndex);
+        reverseHt = create.onnx.squeeze(valType, reverseHt, zeroIndex);
+      }
+    }
+    if (!onlyHidden and !isNoneValue(initialC)) {
+      if (direction == REVERSE) {
+        reverseCt = create.onnx.slice(
+            sliceType, initialC, zeroIndex, oneIndex, zeroIndex, oneIndex);
+        reverseCt = create.onnx.squeeze(valType, reverseCt, zeroIndex);
+      } else {
+        reverseCt = create.onnx.slice(
+            sliceType, initialC, oneIndex, twoIndex, zeroIndex, oneIndex);
+        reverseCt = create.onnx.squeeze(valType, reverseCt, zeroIndex);
+      }
+    }
+  }
+}
+
+/// Store a state into the output of the RNN op.
+/// The input state is 2D and the output state is 3D with '1' or '2' is
+/// pretended, depending on 'direction'.
+void stateToOutputForHiddenOrCell(ConversionPatternRewriter &rewriter,
+    Location loc, Value forwardVal, Value reverseVal, StringRef direction,
+    Value &output) {
+  MultiDialectBuilder<OnnxBuilder> create(rewriter, loc);
+  if (direction == FORWARD || direction == REVERSE) {
+    Value val = (direction == FORWARD) ? forwardVal : reverseVal;
+    output = val;
+  } else { // BIDIRECTIONAL
+    SmallVector<int64_t, 4> bForwardValShape(
+        forwardVal.getType().cast<ShapedType>().getShape());
+    SmallVector<int64_t, 4> bValShape(
+        forwardVal.getType().cast<ShapedType>().getShape());
+    SmallVector<int64_t, 4> bReverseValShape(
+        reverseVal.getType().cast<ShapedType>().getShape());
+    bForwardValShape.insert(bForwardValShape.begin(), 1);
+    bReverseValShape.insert(bReverseValShape.begin(), 1);
+    bValShape.insert(bValShape.begin(), 2);
+    Type valElementType =
+        forwardVal.getType().cast<ShapedType>().getElementType();
+    Value zero = create.onnx.constantInt64({0});
+    Value bForwardVal = create.onnx.unsqueeze(
+        RankedTensorType::get(bForwardValShape, valElementType), forwardVal,
+        zero);
+    Value bReverseVal = create.onnx.unsqueeze(
+        RankedTensorType::get(bReverseValShape, valElementType), reverseVal,
+        zero);
+    output =
+        create.onnx.concat(RankedTensorType::get(bValShape, valElementType),
+            {bForwardVal, bReverseVal}, 0);
+  }
+}
+
+// Apply an activation function on a given scalar operand.
+Value applyActivation(OpBuilder &rewriter, Location loc,
+    RNNActivation activation, Value operand) {
+  Value res;
+
+  std::vector<mlir::NamedAttribute> attributes;
+  if (activation.alpha) {
+    attributes.emplace_back(
+        rewriter.getNamedAttr("alpha", activation.alpha.value()));
+  }
+  if (activation.beta) {
+    attributes.emplace_back(
+        rewriter.getNamedAttr("beta", activation.beta.value()));
+  }
+  Type resType = operand.getType();
+
+  // Change equality to be case insensitive.
+  if (activation.name.equals_insensitive("relu"))
+    res = rewriter.create<ONNXReluOp>(loc, resType, operand);
+  else if (activation.name.equals_insensitive("tanh"))
+    res = rewriter.create<ONNXTanhOp>(loc, resType, operand);
+  else if (activation.name.equals_insensitive("sigmoid"))
+    res = rewriter.create<ONNXSigmoidOp>(loc, resType, operand);
+  else if (activation.name.equals_insensitive("affine"))
+    llvm_unreachable("Unsupported activation");
+  else if (activation.name.equals_insensitive("leakyrelu"))
+    res = rewriter.create<ONNXLeakyReluOp>(loc, resType, operand, attributes);
+  else if (activation.name.equals_insensitive("thresholdedrelu"))
+    res = rewriter.create<ONNXThresholdedReluOp>(
+        loc, resType, operand, attributes);
+  else if (activation.name.equals_insensitive("scaledtanh"))
+    llvm_unreachable("Unsupported activation");
+  else if (activation.name.equals_insensitive("hardsigmoid"))
+    res = rewriter.create<ONNXHardSigmoidOp>(loc, resType, operand, attributes);
+  else if (activation.name.equals_insensitive("elu"))
+    res = rewriter.create<ONNXEluOp>(loc, resType, operand, attributes);
+  else if (activation.name.equals_insensitive("softsign"))
+    res = rewriter.create<ONNXSoftsignOp>(loc, resType, operand);
+  else if (activation.name.equals_insensitive("softplus"))
+    res = rewriter.create<ONNXSoftplusOp>(loc, resType, operand);
+  else
+    llvm_unreachable("Unsupported activation");
+
+  return res;
+}
+
+/// Create a copy of a slice of X at a specific timestep.
+Value emitXSliceAt(ConversionPatternRewriter &rewriter, Location loc, Value X,
+    Value timestepIV) {
+  MultiDialectBuilder<OnnxBuilder> create(rewriter, loc);
+  int64_t batchSize = dimAt(X, 1);
+  int64_t inputSize = dimAt(X, 2);
+  Type elementType = X.getType().cast<ShapedType>().getElementType();
+  RankedTensorType sliceXType =
+      RankedTensorType::get({1, batchSize, inputSize}, elementType);
+  RankedTensorType squeezedXType =
+      RankedTensorType::get({batchSize, inputSize}, elementType);
+  Value sliceX = create.onnx.slice(sliceXType, X, timestepIV,
+      create.onnx.add(timestepIV, create.onnx.constantInt64({1})),
+      create.onnx.constantInt64({0}), create.onnx.constantInt64({1}));
+  sliceX = create.onnx.squeeze(
+      squeezedXType, sliceX, create.onnx.constantInt64({0}));
+  return sliceX;
+}
+
+} // namespace stablehlo
+
+} // namespace onnx_mlir
diff --git a/src/Conversion/ONNXToStableHlo/RNN/RNNBase.hpp b/src/Conversion/ONNXToStableHlo/RNN/RNNBase.hpp
new file mode 100644
index 0000000000..a0dbde620a
--- /dev/null
+++ b/src/Conversion/ONNXToStableHlo/RNN/RNNBase.hpp
@@ -0,0 +1,203 @@
+/*
+ * SPDX-License-Identifier: Apache-2.0
+ */
+
+//===--------------- RNNBase.hpp - Lowering RNN Ops -----------------------===//
+//
+// Copyright 2023
+//
+// =============================================================================
+//
+// This file defines base functions for lowering the ONNX RNN Operators.
+//
+//===----------------------------------------------------------------------===//
+
+#pragma once
+
+#include "src/Conversion/ONNXToStableHlo/ONNXToStableHloCommon.hpp"
+
+static constexpr llvm::StringRef FORWARD = "forward";
+static constexpr llvm::StringRef REVERSE = "reverse";
+static constexpr llvm::StringRef BIDIRECTIONAL = "bidirectional";
+
+namespace onnx_mlir {
+
+namespace stablehlo {
+
+struct RNNActivation {
+  llvm::StringRef name;
+  std::optional<mlir::FloatAttr> alpha;
+  std::optional<mlir::FloatAttr> beta;
+};
+
+/// Get a dimension of the tensor's shape.
+int64_t dimAt(mlir::Value val, int index);
+
+/// Allocate the all hidden output.
+mlir::Value allocAllHidden(mlir::ConversionPatternRewriter &rewriter,
+    mlir::Location loc, mlir::Value X, mlir::Value R);
+
+/// Allocate the hidden or cell output.
+mlir::Value allocHiddenOrCell(mlir::ConversionPatternRewriter &rewriter,
+    mlir::Location loc, mlir::Value X, mlir::Value W, mlir::Value R);
+
+/// Allocate the intermediate hidden or cell state.
+mlir::Value allocIntermediateState(mlir::ConversionPatternRewriter &rewriter,
+    mlir::Location loc, mlir::Value X, mlir::Value R);
+
+/// Initialize the intermediate hidden and cell states.
+void initializeIntermediateStates(mlir::ConversionPatternRewriter &rewriter,
+    mlir::Location loc, mlir::Value &forwardHt, mlir::Value &reverseHt,
+    mlir::Value &forwardCt, mlir::Value &reverseCt, mlir::Value initialH,
+    mlir::Value initialC, mlir::Type elementType, llvm::StringRef direction,
+    bool onlyHidden);
+
+/// Store a state into the output of the RNN op.
+/// The input state is 2D and the output state is 3D with '1' or '2' is
+/// pretended, depending on 'direction'.
+void stateToOutputForHiddenOrCell(mlir::ConversionPatternRewriter &rewriter,
+    mlir::Location loc, mlir::Value forwardVal, mlir::Value reverseVal,
+    llvm::StringRef direction, mlir::Value &output);
+
+/// Apply an activation function on a given operand.
+mlir::Value applyActivation(mlir::OpBuilder &rewriter, mlir::Location loc,
+    RNNActivation activation, mlir::Value operand);
+
+/// Get a slice of X at a specific timestep.
+mlir::Value emitXSliceAt(mlir::ConversionPatternRewriter &rewriter,
+    mlir::Location loc, mlir::Value X, mlir::Value timestep);
+
+// Override the following methods when lowering an RNN operation:
+// - hasAllNoneOutput
+// - getActivationPack
+// - getWeightPack
+// - getBiasPack
+// - allocAndInitializeStates
+// - calculateState
+// - stateToOutput
+
+// Check whether all outputs have NoneType or not.
+template <typename RNNOp>
+bool hasAllNoneOutput(RNNOp *op);
+
+// Obtain activations functions for a specific operation.
+template <typename RNNOp, typename A>
+std::tuple<A, A> getActivationPack(RNNOp *op);
+
+/// Obtain weight tensors in 2D for each gate.
+/// In ONNX, weights for gates and directions are combined in a single tensor.
+/// This function splits them into 2D tensors.
+template <typename RNNOp, typename W>
+std::tuple<W, W> getWeightPack(
+    mlir::ConversionPatternRewriter &rewriter, mlir::Location loc, RNNOp *op);
+
+/// Obtain biases in 1D for each gate.
+/// In ONNX, biases for gates and directions are combined in a single tensor.
+/// This function splits them into 1D tensors.
+template <typename RNNOp, typename B>
+std::tuple<B, B> getBiasPack(
+    mlir::ConversionPatternRewriter &rewriter, mlir::Location loc, RNNOp *op);
+
+// Allocate memory for RNN states and initialize them.
+template <typename RNNOp, typename S>
+S allocAndInitializeStates(mlir::ConversionPatternRewriter &rewriter,
+    mlir::Location loc, RNNOp *op, typename RNNOp::Adaptor operandAdaptor,
+    bool enableUnroll);
+
+// Calculate new states from the current input and states.
+template <typename S, typename A, typename W, typename B>
+void calculateState(mlir::ConversionPatternRewriter &rewriter,
+    mlir::Location loc, mlir::Value Xt, S &state, A activationSet, W weight,
+    B bias, mlir::Value sequenceIV, mlir::Value directionIV,
+    mlir::Value sequenceLens, mlir::Value initialH, bool enableUnroll,
+    bool isForward);
+
+// Write states to the RNN's outputs.
+template <typename RNNOp, typename S>
+void stateToOutput(mlir::ConversionPatternRewriter &rewriter,
+    mlir::Location loc, RNNOp *op, S state, std::vector<mlir::Value> &outputs,
+    bool enableUnroll);
+
+// Calculate all states using unroll
+template <typename RNNOp, typename S, typename A, typename W, typename B>
+void calculateStateWithUnroll(mlir::ConversionPatternRewriter &rewriter,
+    mlir::Location loc, llvm::StringRef direction, int64_t sequenceDimSize,
+    Value X, S &state, A activationForward, A activationReverse,
+    W weightForward, W weightReverse, B biasForward, B biasReverse,
+    Value sequenceLens, Value initialH);
+
+// Calculate all states using loop
+template <typename RNNOp, typename S, typename A, typename W, typename B>
+void calculateStateWithLoop(mlir::ConversionPatternRewriter &rewriter,
+    mlir::Location loc, llvm::StringRef direction, int64_t sequenceDimSize,
+    Value X, S &state, A activationForward, A activationReverse,
+    W weightForward, W weightReverse, B biasForward, B biasReverse,
+    Value sequenceLens, Value initialH);
+
+// A common template for lowering an RNN operation.
+template <typename RNNOp, typename S, typename A, typename W, typename B>
+struct ONNXRNNOpLowering : public mlir::OpConversionPattern<RNNOp> {
+  using OpAdaptor = typename RNNOp::Adaptor;
+  bool enableUnroll;
+
+  ONNXRNNOpLowering(mlir::MLIRContext *ctx, bool enableUnroll)
+      : mlir::OpConversionPattern<RNNOp>(ctx) {
+    this->enableUnroll = enableUnroll;
+  }
+
+  mlir::LogicalResult matchAndRewrite(RNNOp rnnOp, OpAdaptor adaptor,
+      mlir::ConversionPatternRewriter &rewriter) const final {
+    mlir::Operation *op = rnnOp.getOperation();
+    mlir::Location loc = ONNXLoc<RNNOp>(op);
+    mlir::Value X = adaptor.getX();
+    mlir::Value sequenceLens = adaptor.getSequenceLens();
+    mlir::Value initialH = adaptor.getInitialH();
+
+    if (hasAllNoneOutput<RNNOp>(&rnnOp)) {
+      rewriter.eraseOp(op);
+      return mlir::success();
+    }
+
+    // Initialize output states.
+    S state = allocAndInitializeStates<RNNOp, S>(
+        rewriter, loc, &rnnOp, adaptor, this->enableUnroll);
+
+    // Activation functions.
+    A activationForward, activationReverse;
+    std::tie(activationForward, activationReverse) =
+        getActivationPack<RNNOp, A>(&rnnOp);
+
+    // Prepare weights.
+    W weightForward, weightReverse;
+    std::tie(weightForward, weightReverse) =
+        getWeightPack<RNNOp, W>(rewriter, loc, &rnnOp);
+
+    // Prepare biases.
+    B biasForward, biasReverse;
+    std::tie(biasForward, biasReverse) =
+        getBiasPack<RNNOp, B>(rewriter, loc, &rnnOp);
+
+    int64_t sequenceDimSize = dimAt(rnnOp.getX(), 0);
+    auto direction = rnnOp.getDirection();
+
+    if (this->enableUnroll)
+      calculateStateWithUnroll<RNNOp, S, A, W, B>(rewriter, loc, direction,
+          sequenceDimSize, X, state, activationForward, activationReverse,
+          weightForward, weightReverse, biasForward, biasReverse, sequenceLens,
+          initialH);
+    else
+      calculateStateWithLoop<RNNOp, S, A, W, B>(rewriter, loc, direction,
+          sequenceDimSize, X, state, activationForward, activationReverse,
+          weightForward, weightReverse, biasForward, biasReverse, sequenceLens,
+          initialH);
+    std::vector<mlir::Value> outputs;
+    stateToOutput<RNNOp, S>(
+        rewriter, loc, &rnnOp, state, outputs, this->enableUnroll);
+    rewriter.replaceOp(op, outputs);
+    return mlir::success();
+  }
+};
+
+} // namespace stablehlo
+
+} // namespace onnx_mlir
diff --git a/src/Conversion/ONNXToStableHlo/Tensor/OneHot.cpp b/src/Conversion/ONNXToStableHlo/Tensor/OneHot.cpp
new file mode 100644
index 0000000000..f69e0ac48f
--- /dev/null
+++ b/src/Conversion/ONNXToStableHlo/Tensor/OneHot.cpp
@@ -0,0 +1,129 @@
+/*
+ * SPDX-License-Identifier: Apache-2.0
+ */
+
+//===---------------- OneHot.cpp - Lowering OneHot Op -------------------===//
+//
+// Copyright 2023
+//
+// =============================================================================
+//
+// This file lowers the ONNX OneHot Operator to StableHlo dialect.
+//
+//===----------------------------------------------------------------------===//
+
+#include "src/Conversion/ONNXToStableHlo/DialectBuilder.hpp"
+#include "src/Conversion/ONNXToStableHlo/ONNXToStableHloCommon.hpp"
+#include "src/Dialect/ONNX/ONNXOps/ShapeHelper.hpp"
+
+#include <numeric>
+
+using namespace mlir;
+
+namespace onnx_mlir {
+
+struct ONNXOneHotOpLoweringToStableHlo
+    : public OpConversionPattern<ONNXOneHotOp> {
+  ONNXOneHotOpLoweringToStableHlo(MLIRContext *ctx)
+      : OpConversionPattern(ctx) {}
+
+  LogicalResult matchAndRewrite(ONNXOneHotOp onehotOp,
+      ONNXOneHotOpAdaptor adaptor,
+      ConversionPatternRewriter &rewriter) const final {
+    Operation *op = onehotOp.getOperation();
+    Location loc = ONNXLoc<ONNXOneHotOp>(op);
+    ValueRange operands = adaptor.getOperands();
+    Value indices = adaptor.getIndices();
+    Value depthValue = adaptor.getDepth();
+    Value values = adaptor.getValues();
+    Type outputType = *op->result_type_begin();
+
+    IndexExprBuilderForStableHlo createIE(rewriter, loc);
+    ONNXOneHotOpShapeHelper shapeHelper(op, operands, &createIE);
+    shapeHelper.computeShapeAndAssertOnFailure();
+    int64_t axis = shapeHelper.axis;
+
+    RankedTensorType indicesType =
+        indices.getType().dyn_cast<RankedTensorType>();
+    if (!indicesType || !indicesType.hasStaticShape())
+      return failure();
+    ArrayRef<int64_t> indicesShape = indicesType.getShape();
+    Type indicesElementType = indicesType.getElementType();
+
+    DenseIntElementsAttr depthAttr;
+    if (!matchPattern(depthValue, m_Constant(&depthAttr))) {
+      return failure();
+    }
+
+    int64_t depth = depthAttr.getValues<APInt>()[0].getSExtValue();
+
+    llvm::SmallVector<int64_t, 4> broadcastDims(indicesShape.size());
+    std::iota(broadcastDims.begin(), broadcastDims.begin() + axis, 0);
+    std::iota(broadcastDims.begin() + axis, broadcastDims.end(), axis + 1);
+
+    llvm::SmallVector<int64_t, 4> outputDims = llvm::to_vector<4>(indicesShape);
+    outputDims.insert(outputDims.begin() + axis, depth);
+
+    RankedTensorType indexType =
+        RankedTensorType::get(llvm::ArrayRef(outputDims), indicesElementType);
+
+    Value iota = rewriter.create<stablehlo::IotaOp>(
+        loc, indexType, IntegerAttr::get(rewriter.getIntegerType(64), axis));
+    Value broadcastIndices = rewriter.create<stablehlo::BroadcastInDimOp>(
+        loc, indexType, indices, GetI64ElementsAttr(broadcastDims, &rewriter));
+    Value zero = rewriter.create<stablehlo::ConstantOp>(loc,
+        DenseIntElementsAttr::get(RankedTensorType::get({}, indicesElementType),
+            ArrayRef<int64_t>{0}));
+    Value broadcastZero = rewriter.create<stablehlo::BroadcastInDimOp>(
+        loc, indexType, zero, rewriter.getI64TensorAttr({}));
+    Value broadcastDepth;
+    int64_t depthRank = depthValue.getType().cast<RankedTensorType>().getRank();
+    if (depthRank == 1)
+      broadcastDepth = rewriter.create<stablehlo::BroadcastInDimOp>(
+          loc, indexType, depthValue, rewriter.getI64TensorAttr({0}));
+    else
+      broadcastDepth = rewriter.create<stablehlo::BroadcastInDimOp>(
+          loc, indexType, depthValue, rewriter.getI64TensorAttr({}));
+    Value compareGeZero = rewriter.create<stablehlo::CompareOp>(loc,
+        broadcastIndices, broadcastZero, stablehlo::ComparisonDirection::GE);
+    Value positiveIndices = rewriter.create<stablehlo::AddOp>(
+        loc, broadcastIndices, broadcastDepth);
+    Value normalizedIndices = rewriter.create<stablehlo::SelectOp>(
+        loc, indexType, compareGeZero, broadcastIndices, positiveIndices);
+    Value compare = rewriter.create<stablehlo::CompareOp>(
+        loc, normalizedIndices, iota, stablehlo::ComparisonDirection::EQ);
+    Type indexElementType = rewriter.getI64Type();
+    Type valueType = values.getType().cast<ShapedType>().getElementType();
+    Value offValue = rewriter.create<stablehlo::SliceOp>(loc,
+        RankedTensorType::get({1}, valueType), values,
+        DenseIntElementsAttr::get(
+            RankedTensorType::get({1}, indexElementType), ArrayRef<int64_t>{0}),
+        DenseIntElementsAttr::get(
+            RankedTensorType::get({1}, indexElementType), ArrayRef<int64_t>{1}),
+        DenseIntElementsAttr::get(RankedTensorType::get({1}, indexElementType),
+            ArrayRef<int64_t>{1}));
+    Value onValue = rewriter.create<stablehlo::SliceOp>(loc,
+        RankedTensorType::get({1}, valueType), values,
+        DenseIntElementsAttr::get(
+            RankedTensorType::get({1}, indexElementType), ArrayRef<int64_t>{1}),
+        DenseIntElementsAttr::get(
+            RankedTensorType::get({1}, indexElementType), ArrayRef<int64_t>{2}),
+        DenseIntElementsAttr::get(RankedTensorType::get({1}, indexElementType),
+            ArrayRef<int64_t>{1}));
+    Value offValueBroadcast = rewriter.create<stablehlo::BroadcastInDimOp>(
+        loc, outputType, offValue, rewriter.getI64TensorAttr({0}));
+    Value onValueBroadcast = rewriter.create<stablehlo::BroadcastInDimOp>(
+        loc, outputType, onValue, rewriter.getI64TensorAttr({0}));
+    Value result = rewriter.create<stablehlo::SelectOp>(
+        loc, outputType, compare, onValueBroadcast, offValueBroadcast);
+    rewriter.replaceOp(op, {result});
+    return success();
+  }
+};
+
+void populateLoweringONNXOneHotOpToStableHloPattern(
+    RewritePatternSet &patterns, MLIRContext *ctx) {
+  patterns.insert<ONNXOneHotOpLoweringToStableHlo>(ctx);
+}
+
+} // namespace onnx_mlir
diff --git a/src/Conversion/ONNXToStableHlo/Tensor/Pad.cpp b/src/Conversion/ONNXToStableHlo/Tensor/Pad.cpp
index 7ccb44ceb0..55f279719a 100644
--- a/src/Conversion/ONNXToStableHlo/Tensor/Pad.cpp
+++ b/src/Conversion/ONNXToStableHlo/Tensor/Pad.cpp
@@ -60,7 +60,7 @@ struct ONNXPadOpLoweringToStablehlo : public ConversionPattern {
     SmallVector<int64_t> edgePaddingLowVec(rank, 0);
     SmallVector<int64_t> edgePaddingHighVec(rank, 0);
     SmallVector<int64_t> interiorPaddingVec(rank, 0);
-    if (auto valueAttribute = getElementAttributeFromStablehloValue(pads)) {
+    if (auto valueAttribute = getElementAttributeFromConstValue(pads)) {
       // If `pads` are constants, read them."
       int64_t idx = 0;
       for (IntegerAttr value : valueAttribute.getValues<IntegerAttr>()) {
diff --git a/src/Conversion/ONNXToStableHlo/Tensor/ScatterND.cpp b/src/Conversion/ONNXToStableHlo/Tensor/ScatterND.cpp
new file mode 100644
index 0000000000..aaa1d6bd3d
--- /dev/null
+++ b/src/Conversion/ONNXToStableHlo/Tensor/ScatterND.cpp
@@ -0,0 +1,92 @@
+/*
+ * SPDX-License-Identifier: Apache-2.0
+ */
+
+//===--------------- ScatterND.cpp - Lowering ScatterND Op ----------------===//
+//
+// Copyright 2023
+//
+// =============================================================================
+//
+// This file lowers the ONNX ScatterND Operator to StableHlo dialect.
+//
+//===----------------------------------------------------------------------===//
+
+#include "src/Conversion/ONNXToStableHlo/ONNXToStableHloCommon.hpp"
+#include "src/Dialect/ONNX/ONNXOps/ShapeHelper.hpp"
+
+using namespace mlir;
+
+namespace onnx_mlir {
+
+struct ONNXScatterNDOpLoweringToStableHlo
+    : public OpConversionPattern<ONNXScatterNDOp> {
+  ONNXScatterNDOpLoweringToStableHlo(MLIRContext *ctx)
+      : OpConversionPattern(ctx) {}
+
+  LogicalResult matchAndRewrite(ONNXScatterNDOp scatterNDOp,
+      ONNXScatterNDOpAdaptor adaptor,
+      ConversionPatternRewriter &rewriter) const final {
+    Operation *op = scatterNDOp.getOperation();
+    Location loc = ONNXLoc<ONNXScatterNDOp>(op);
+
+    // Operands and attributes.
+    Value data = adaptor.getData();
+    Value updates = adaptor.getUpdates();
+    Value indices = adaptor.getIndices();
+    auto dataType = data.getType().cast<ShapedType>();
+    auto indicesType = indices.getType().cast<ShapedType>();
+    int64_t dataRank = dataType.getRank();
+    int64_t indicesRank = indicesType.getRank();
+    assert(indicesType.hasStaticShape() &&
+           "only support indices with static shape");
+    int64_t partialIdxDim = indicesType.getDimSize(indicesRank - 1);
+
+    assert(dataRank >= 1 && "The rank of 'data' must be >= 1");
+    assert(indicesRank >= 1 && "The rank of 'indices' must be >= 1");
+
+    Type outputType = *op->result_type_begin();
+    assert(isRankedShapedType(outputType) && "Expected Ranked ShapedType");
+    ShapedType outputShapedType = outputType.cast<ShapedType>();
+    int64_t outputRank = outputShapedType.getRank();
+    assert(outputRank == dataRank && "Output rank not equal to data rank");
+    auto scatter_dimension_numbers =
+        mlir::stablehlo::ScatterDimensionNumbersAttr::get(
+            /*context=*/rewriter.getContext(),
+            /*updateWindowDims*/
+            llvm::to_vector<4>(llvm::seq<int64_t>(partialIdxDim, dataRank)),
+            /*insertedWindowDims*/
+            llvm::to_vector<4>(llvm::seq<int64_t>(0, partialIdxDim)),
+            /*scatterDimsToOperandDims*/
+            llvm::to_vector<4>(llvm::seq<int64_t>(0, partialIdxDim)),
+            /*indexVectorDim=*/indicesRank - 1);
+    auto scatterOp = rewriter.create<stablehlo::ScatterOp>(
+        loc, outputType, data, indices, updates, scatter_dimension_numbers);
+    // config update computation function: just return the element from src.
+    Block &block = scatterOp.getUpdateComputation().emplaceBlock();
+    // add block arguments
+    auto blockArgumentType =
+        RankedTensorType::get({}, dataType.getElementType());
+    block.addArgument(blockArgumentType, loc);
+    block.addArgument(blockArgumentType, loc);
+
+    auto *lhsArg = block.args_begin();
+    auto *rhsArg = std::next(lhsArg);
+
+    {
+      OpBuilder::InsertionGuard guard(rewriter);
+      rewriter.setInsertionPointToStart(&block);
+      rewriter.create<stablehlo::ReturnOp>(loc, *rhsArg);
+    }
+
+    rewriter.replaceOp(op, scatterOp.getResults());
+    return success();
+  }
+};
+
+void populateLoweringONNXScatterNDOpToStableHloPattern(
+    RewritePatternSet &patterns, MLIRContext *ctx) {
+  patterns.insert<ONNXScatterNDOpLoweringToStableHlo>(ctx);
+}
+
+} // namespace onnx_mlir
diff --git a/src/Tools/onnx-mlir-opt/RegisterPasses.cpp b/src/Tools/onnx-mlir-opt/RegisterPasses.cpp
index c45aa32922..a38469c649 100644
--- a/src/Tools/onnx-mlir-opt/RegisterPasses.cpp
+++ b/src/Tools/onnx-mlir-opt/RegisterPasses.cpp
@@ -124,6 +124,10 @@ void registerOMPasses(int optLevel) {
     return createSimplifyShapeRelatedOpsPass();
   });

+  mlir::registerPass([]() -> std::unique_ptr<mlir::Pass> {
+    return createStandardFuncReturnPass();
+  });
+
   mlir::registerPass([]() -> std::unique_ptr<mlir::Pass> {
     return createONNXDimAnalysisPass();
   });
diff --git a/test/mlir/conversion/onnx_to_stablehlo/Math/Elementwise.mlir b/test/mlir/conversion/onnx_to_stablehlo/Math/Elementwise.mlir
index 5bf3bf10d1..73ec128390 100644
--- a/test/mlir/conversion/onnx_to_stablehlo/Math/Elementwise.mlir
+++ b/test/mlir/conversion/onnx_to_stablehlo/Math/Elementwise.mlir
@@ -382,6 +382,21 @@ func.func @test_max(%arg0 : tensor<10x10xf32>, %arg1 : tensor<10x10xf32>) -> ten

 // -----

+func.func @test_min(%arg0 : tensor<10x10xf32>, %arg1 : tensor<10x10xf32>) -> tensor<10x10xf32> {
+  %0 = "onnx.Min"(%arg0, %arg1) : (tensor<10x10xf32>, tensor<10x10xf32>) -> tensor<10x10xf32>
+  "func.return"(%0) : (tensor<10x10xf32>) -> ()
+// CHECK-LABEL:  func.func @test_min
+// CHECK-SAME:   ([[PARAM_0_:%.+]]: tensor<10x10xf32>, [[PARAM_1_:%.+]]: tensor<10x10xf32>) -> tensor<10x10xf32> {
+// CHECK:           [[VAR_0_:%.+]] = shape.const_shape [10, 10] : tensor<2xindex>
+// CHECK-DAG:       [[VAR_1_:%.+]] = stablehlo.dynamic_broadcast_in_dim [[PARAM_0_]], [[VAR_0_]], dims = [0, 1] : (tensor<10x10xf32>, tensor<2xindex>) -> tensor<10x10xf32>
+// CHECK-DAG:       [[VAR_2_:%.+]] = stablehlo.dynamic_broadcast_in_dim [[PARAM_1_]], [[VAR_0_]], dims = [0, 1] : (tensor<10x10xf32>, tensor<2xindex>) -> tensor<10x10xf32>
+// CHECK:           [[VAR_3_:%.+]] = stablehlo.minimum [[VAR_1_]], [[VAR_2_]] : tensor<10x10xf32>
+// CHECK:           return [[VAR_3_]] : tensor<10x10xf32>
+// CHECK:         }
+}
+
+// -----
+
 func.func @test_leakyrelu_dynamic(%arg0 : tensor<?x10xf32>) -> tensor<?x10xf32> {
   %0 = "onnx.LeakyRelu"(%arg0) {alpha=0.5:f32} : (tensor<?x10xf32>) -> tensor<?x10xf32>
   "func.return"(%0) : (tensor<?x10xf32>) -> ()
@@ -403,6 +418,29 @@ func.func @test_leakyrelu_dynamic(%arg0 : tensor<?x10xf32>) -> tensor<?x10xf32>

 // -----

+func.func @test_prelu_dynamic(%arg0 : tensor<?x10x12x12xf32>, %arg1: tensor<10x1x1xf32>) -> tensor<?x10x12x12xf32> {
+  %0 = "onnx.PRelu"(%arg0, %arg1) : (tensor<?x10x12x12xf32>, tensor<10x1x1xf32>) -> tensor<?x10x12x12xf32>
+  "func.return"(%0) : (tensor<?x10x12x12xf32>) -> ()
+// CHECK-LABEL:  func.func @test_prelu_dynamic
+// CHECK-SAME:   ([[PARAM_0_:%.+]]: tensor<?x10x12x12xf32>, [[PARAM_1_:%.+]]: tensor<10x1x1xf32>) -> tensor<?x10x12x12xf32> {
+// CHECK-DAG:       [[VAR_0_:%.+]] = stablehlo.constant dense<0.000000e+00> : tensor<f32>
+// CHECK-DAG:       [[VAR_1_:%.+]] = shape.const_shape [10, 1, 1] : tensor<3xindex>
+// CHECK-DAG:       [[VAR_2_:%.+]] = shape.shape_of [[PARAM_0_]] : tensor<?x10x12x12xf32> -> tensor<4xindex>
+// CHECK:           [[VAR_3_:%.+]] = shape.broadcast [[VAR_2_]], [[VAR_1_]] : tensor<4xindex>, tensor<3xindex> -> tensor<4xindex>
+// CHECK-DAG:       [[VAR_4_:%.+]] = stablehlo.dynamic_broadcast_in_dim [[PARAM_0_]], [[VAR_3_]], dims = [0, 1, 2, 3] : (tensor<?x10x12x12xf32>, tensor<4xindex>) -> tensor<?x10x12x12xf32>
+// CHECK-DAG:       [[VAR_5_:%.+]] = stablehlo.dynamic_broadcast_in_dim [[PARAM_1_]], [[VAR_3_]], dims = [1, 2, 3] : (tensor<10x1x1xf32>, tensor<4xindex>) -> tensor<?x10x12x12xf32>
+// CHECK-NOT: separator of consecutive DAGs
+// CHECK-DAG:       [[VAR_6_:%.+]] = stablehlo.multiply [[VAR_4_]], [[VAR_5_]] : tensor<?x10x12x12xf32>
+// CHECK-DAG:       [[VAR_7_:%.+]] = shape.shape_of [[VAR_4_]] : tensor<?x10x12x12xf32> -> tensor<4xindex>
+// CHECK:           [[VAR_8_:%.+]] = stablehlo.dynamic_broadcast_in_dim [[VAR_0_]], [[VAR_7_]], dims = [] : (tensor<f32>, tensor<4xindex>) -> tensor<?x10x12x12xf32>
+// CHECK:           [[VAR_9_:%.+]] = stablehlo.compare  GT, [[VAR_4_]], [[VAR_8_]],  NOTYPE : (tensor<?x10x12x12xf32>, tensor<?x10x12x12xf32>) -> tensor<?x10x12x12xi1>
+// CHECK:           [[VAR_10_:%.+]] = stablehlo.select [[VAR_9_]], [[VAR_4_]], [[VAR_6_]] : tensor<?x10x12x12xi1>, tensor<?x10x12x12xf32>
+// CHECK:           return [[VAR_10_]] : tensor<?x10x12x12xf32>
+// CHECK:         }
+}
+
+// -----
+
 func.func @test_neg(%arg0 : tensor<10x10xf32>) -> tensor<10x10xf32> {
   %0 = "onnx.Neg"(%arg0) : (tensor<10x10xf32>) -> tensor<10x10xf32>
   "func.return"(%0) : (tensor<10x10xf32>) -> ()
@@ -426,3 +464,17 @@ func.func @test_sin(%arg0 : tensor<10x10xf32>) -> tensor<10x10xf32> {
 // CHECK:           [[VAR_0_:%.+]] = stablehlo.sine [[PARAM_0_]] : tensor<10x10xf32>
 // CHECK:           return [[VAR_0_]] : tensor<10x10xf32>
 // CHECK:         }
+
+func.func @test_where(%arg0 : tensor<16x24x36xi1>, %arg1 : tensor<16x24x36xi64>, %arg2 : tensor<16x24x36xi64>) -> tensor<16x24x36xi64> {
+  %0 = "onnx.Where"(%arg0, %arg1, %arg2) : (tensor<16x24x36xi1>, tensor<16x24x36xi64>, tensor<16x24x36xi64>) -> tensor<16x24x36xi64>
+  "func.return"(%0) : (tensor<16x24x36xi64>) -> ()
+// CHECK-LABEL:  func.func @test_where
+// CHECK-SAME:   ([[PARAM_0_:%.+]]: tensor<16x24x36xi1>, [[PARAM_1_:%.+]]: tensor<16x24x36xi64>, [[PARAM_2_:%.+]]: tensor<16x24x36xi64>) -> tensor<16x24x36xi64> {
+// CHECK:           [[VAR_0_:%.+]] = shape.const_shape [16, 24, 36] : tensor<3xindex>
+// CHECK-DAG:       [[VAR_1_:%.+]] = stablehlo.dynamic_broadcast_in_dim [[PARAM_0_]], [[VAR_0_]], dims = [0, 1, 2] : (tensor<16x24x36xi1>, tensor<3xindex>) -> tensor<16x24x36xi1>
+// CHECK-DAG:       [[VAR_2_:%.+]] = stablehlo.dynamic_broadcast_in_dim [[PARAM_1_]], [[VAR_0_]], dims = [0, 1, 2] : (tensor<16x24x36xi64>, tensor<3xindex>) -> tensor<16x24x36xi64>
+// CHECK-DAG:       [[VAR_3_:%.+]] = stablehlo.dynamic_broadcast_in_dim [[PARAM_2_]], [[VAR_0_]], dims = [0, 1, 2] : (tensor<16x24x36xi64>, tensor<3xindex>) -> tensor<16x24x36xi64>
+// CHECK:           [[VAR_4_:%.+]] = stablehlo.select [[VAR_1_]], [[VAR_2_]], [[VAR_3_]] : tensor<16x24x36xi1>, tensor<16x24x36xi64>
+// CHECK:           return [[VAR_4_]] : tensor<16x24x36xi64>
+// CHECK:         }
+}
diff --git a/test/mlir/conversion/onnx_to_stablehlo/RNN/LSTM-loop.mlir b/test/mlir/conversion/onnx_to_stablehlo/RNN/LSTM-loop.mlir
new file mode 100644
index 0000000000..c6414342bb
--- /dev/null
+++ b/test/mlir/conversion/onnx_to_stablehlo/RNN/LSTM-loop.mlir
@@ -0,0 +1,621 @@
+// RUN: onnx-mlir-opt --shape-inference --convert-onnx-to-stablehlo="enable-unroll=false" --canonicalize -split-input-file %s | FileCheck %s
+func.func @test_lstm_loop(%arg0 : tensor<128x16x512xf32>, %arg1 : tensor<2x2048xf32>, %arg2 : tensor<2x1024x512xf32>, %arg3 : tensor<2x1024x256xf32>) -> tensor<128x2x16x256xf32> {
+  %0 = onnx.Constant dense<0.000000e+00> : tensor<2x16x256xf32>
+  %1 = "onnx.NoValue"() {value} : () -> none
+  %Y, %Y_h, %Y_c = "onnx.LSTM"(%arg0, %arg2, %arg3, %arg1, %1, %0, %0, %1) {direction = "bidirectional", hidden_size = 256 : si64, input_forget = 0 : si64, layout = 0 : si64} : (tensor<128x16x512xf32>, tensor<2x1024x512xf32>, tensor<2x1024x256xf32>, tensor<2x2048xf32>, none, tensor<2x16x256xf32>, tensor<2x16x256xf32>, none) -> (tensor<128x2x16x256xf32>, tensor<2x16x256xf32>, tensor<2x16x256xf32>)
+  return %Y : tensor<128x2x16x256xf32>
+// CHECK-LABEL:  func.func @test_lstm_loop
+// CHECK-SAME:   ([[PARAM_0_:%.+]]: tensor<128x16x512xf32>, [[PARAM_1_:%.+]]: tensor<2x2048xf32>, [[PARAM_2_:%.+]]: tensor<2x1024x512xf32>, [[PARAM_3_:%.+]]: tensor<2x1024x256xf32>) -> tensor<128x2x16x256xf32> {
+// CHECK-DAG:       [[VAR_0_:%.+]] = shape.const_shape [16, 256] : tensor<2xindex>
+// CHECK-DAG:       [[VAR_1_:%.+]] = shape.const_shape [1, 1] : tensor<2xindex>
+// CHECK-DAG:       [[VAR_2_:%.+]] = shape.const_shape [1, 1, 16, 256] : tensor<4xindex>
+// CHECK-DAG:       [[VAR_3_:%.+]] = shape.const_shape [16, 512] : tensor<2xindex>
+// CHECK-DAG:       [[VAR_4_:%.+]] = shape.const_shape [128, 16, 512] : tensor<3xindex>
+// CHECK-DAG:       [[VAR_5_:%.+]] = shape.const_shape [2048] : tensor<1xindex>
+// CHECK-DAG:       [[VAR_6_:%.+]] = shape.const_shape [1024, 256] : tensor<2xindex>
+// CHECK-DAG:       [[VAR_7_:%.+]] = shape.const_shape [1024, 512] : tensor<2xindex>
+// CHECK-DAG:       [[VAR_8_:%.+]] = shape.const_shape [2, 16, 256] : tensor<3xindex>
+// CHECK-DAG:       [[VAR_9_:%.+]] = stablehlo.constant dense<127> : tensor<1xi64>
+// CHECK-DAG:       [[VAR_10_:%.+]] = stablehlo.constant dense<1024> : tensor<1xi64>
+// CHECK-DAG:       [[VAR_11_:%.+]] = stablehlo.constant dense<768> : tensor<1xi64>
+// CHECK-DAG:       [[VAR_12_:%.+]] = shape.const_shape [16, 1024] : tensor<2xindex>
+// CHECK-DAG:       [[VAR_13_:%.+]] = stablehlo.constant dense<512> : tensor<1xi64>
+// CHECK-DAG:       [[VAR_14_:%.+]] = shape.const_shape [1] : tensor<1xindex>
+// CHECK-DAG:       [[VAR_15_:%.+]] = stablehlo.constant dense<128> : tensor<1xi64>
+// CHECK-DAG:       [[VAR_16_:%.+]] = stablehlo.constant dense<256> : tensor<1xi64>
+// CHECK-DAG:       [[VAR_17_:%.+]] = stablehlo.constant dense<16> : tensor<1xi64>
+// CHECK-DAG:       [[VAR_18_:%.+]] = stablehlo.constant dense<0.000000e+00> : tensor<2x16x256xf32>
+// CHECK-DAG:       [[VAR_19_:%.+]] = stablehlo.constant dense<0.000000e+00> : tensor<128x1x16x256xf32>
+// CHECK-DAG:       [[VAR_20_:%.+]] = stablehlo.constant dense<0> : tensor<1xi64>
+// CHECK-DAG:       [[VAR_21_:%.+]] = stablehlo.constant dense<1> : tensor<1xi64>
+// CHECK-DAG:       [[VAR_22_:%.+]] = stablehlo.constant dense<2> : tensor<1xi64>
+// CHECK-NOT: separator of consecutive DAGs
+// CHECK-DAG:       [[VAR_23_:%.+]] = stablehlo.slice [[VAR_20_]] [0:1] : (tensor<1xi64>) -> tensor<1xi64>
+// CHECK-DAG:       [[VAR_24_:%.+]] = stablehlo.slice [[VAR_21_]] [0:1] : (tensor<1xi64>) -> tensor<1xi64>
+// CHECK-DAG:       [[VAR_25_:%.+]] = stablehlo.slice [[VAR_21_]] [0:1] : (tensor<1xi64>) -> tensor<1xi64>
+// CHECK:           [[VAR_26_:%.+]] = stablehlo.compare  LT, [[VAR_24_]], [[VAR_20_]],  NOTYPE : (tensor<1xi64>, tensor<1xi64>) -> tensor<1xi1>
+// CHECK-DAG:       [[VAR_27_:%.+]] = stablehlo.dynamic_broadcast_in_dim [[VAR_26_]], [[VAR_8_]], dims = [0] : (tensor<1xi1>, tensor<3xindex>) -> tensor<2x16x256xi1>
+// CHECK-DAG:       [[VAR_28_:%.+]] = stablehlo.negate [[VAR_24_]] : tensor<1xi64>
+// CHECK-DAG:       [[VAR_29_:%.+]] = stablehlo.add [[VAR_25_]], [[VAR_21_]] : tensor<1xi64>
+// CHECK-DAG:       [[VAR_30_:%.+]] = stablehlo.add [[VAR_23_]], [[VAR_21_]] : tensor<1xi64>
+// CHECK-DAG:       [[VAR_31_:%.+]] = stablehlo.reverse [[VAR_18_]], dims = [0] : tensor<2x16x256xf32>
+// CHECK-NOT: separator of consecutive DAGs
+// CHECK-DAG:       [[VAR_32_:%.+]] = stablehlo.select [[VAR_26_]], [[VAR_29_]], [[VAR_23_]] : tensor<1xi1>, tensor<1xi64>
+// CHECK-DAG:       [[VAR_33_:%.+]] = stablehlo.select [[VAR_26_]], [[VAR_30_]], [[VAR_25_]] : tensor<1xi1>, tensor<1xi64>
+// CHECK-DAG:       [[VAR_34_:%.+]] = stablehlo.select [[VAR_26_]], [[VAR_28_]], [[VAR_24_]] : tensor<1xi1>, tensor<1xi64>
+// CHECK-DAG:       [[VAR_35_:%.+]] = stablehlo.select [[VAR_27_]], [[VAR_31_]], [[VAR_18_]] : tensor<2x16x256xi1>, tensor<2x16x256xf32>
+// CHECK:           [[VAR_36_:%.+]] = stablehlo.compare  GT, [[VAR_33_]], [[VAR_22_]],  NOTYPE : (tensor<1xi64>, tensor<1xi64>) -> tensor<1xi1>
+// CHECK:           [[VAR_37_:%.+]] = stablehlo.select [[VAR_36_]], [[VAR_22_]], [[VAR_33_]] : tensor<1xi1>, tensor<1xi64>
+// CHECK-DAG:       [[VAR_38_:%.+]] = stablehlo.compare  LT, [[VAR_37_]], [[VAR_20_]],  NOTYPE : (tensor<1xi64>, tensor<1xi64>) -> tensor<1xi1>
+// CHECK-DAG:       [[VAR_39_:%.+]] = stablehlo.add [[VAR_37_]], [[VAR_22_]] : tensor<1xi64>
+// CHECK-NOT: separator of consecutive DAGs
+// CHECK-DAG:       [[VAR_40_:%.+]] = stablehlo.select [[VAR_38_]], [[VAR_39_]], [[VAR_37_]] : tensor<1xi1>, tensor<1xi64>
+// CHECK-DAG:       [[VAR_41_:%.+]] = stablehlo.compare  LT, [[VAR_32_]], [[VAR_20_]],  NOTYPE : (tensor<1xi64>, tensor<1xi64>) -> tensor<1xi1>
+// CHECK-DAG:       [[VAR_42_:%.+]] = stablehlo.add [[VAR_32_]], [[VAR_22_]] : tensor<1xi64>
+// CHECK:           [[VAR_43_:%.+]] = stablehlo.select [[VAR_41_]], [[VAR_42_]], [[VAR_32_]] : tensor<1xi1>, tensor<1xi64>
+// CHECK-DAG:       [[VAR_44_:%.+]] = stablehlo.concatenate [[VAR_43_]], [[VAR_20_]], [[VAR_20_]], dim = 0 : (tensor<1xi64>, tensor<1xi64>, tensor<1xi64>) -> tensor<3xi64>
+// CHECK-DAG:       [[VAR_45_:%.+]] = stablehlo.concatenate [[VAR_40_]], [[VAR_17_]], [[VAR_16_]], dim = 0 : (tensor<1xi64>, tensor<1xi64>, tensor<1xi64>) -> tensor<3xi64>
+// CHECK-DAG:       [[VAR_46_:%.+]] = stablehlo.concatenate [[VAR_34_]], [[VAR_21_]], [[VAR_21_]], dim = 0 : (tensor<1xi64>, tensor<1xi64>, tensor<1xi64>) -> tensor<3xi64>
+// CHECK:           [[VAR_47_:%.+]] = stablehlo.real_dynamic_slice [[VAR_35_]], [[VAR_44_]], [[VAR_45_]], [[VAR_46_]] : (tensor<2x16x256xf32>, tensor<3xi64>, tensor<3xi64>, tensor<3xi64>) -> tensor<1x16x256xf32>
+// CHECK-DAG:       [[VAR_48_:%.+]] = stablehlo.dynamic_reshape [[VAR_47_]], [[VAR_0_]] : (tensor<1x16x256xf32>, tensor<2xindex>) -> tensor<16x256xf32>
+// CHECK-DAG:       [[VAR_49_:%.+]] = stablehlo.slice [[VAR_20_]] [0:1] : (tensor<1xi64>) -> tensor<1xi64>
+// CHECK-DAG:       [[VAR_50_:%.+]] = stablehlo.slice [[VAR_21_]] [0:1] : (tensor<1xi64>) -> tensor<1xi64>
+// CHECK-DAG:       [[VAR_51_:%.+]] = stablehlo.slice [[VAR_21_]] [0:1] : (tensor<1xi64>) -> tensor<1xi64>
+// CHECK:           [[VAR_52_:%.+]] = stablehlo.compare  LT, [[VAR_50_]], [[VAR_20_]],  NOTYPE : (tensor<1xi64>, tensor<1xi64>) -> tensor<1xi1>
+// CHECK-DAG:       [[VAR_53_:%.+]] = stablehlo.dynamic_broadcast_in_dim [[VAR_52_]], [[VAR_8_]], dims = [0] : (tensor<1xi1>, tensor<3xindex>) -> tensor<2x16x256xi1>
+// CHECK-DAG:       [[VAR_54_:%.+]] = stablehlo.negate [[VAR_50_]] : tensor<1xi64>
+// CHECK-DAG:       [[VAR_55_:%.+]] = stablehlo.add [[VAR_51_]], [[VAR_21_]] : tensor<1xi64>
+// CHECK-DAG:       [[VAR_56_:%.+]] = stablehlo.add [[VAR_49_]], [[VAR_21_]] : tensor<1xi64>
+// CHECK-DAG:       [[VAR_57_:%.+]] = stablehlo.reverse [[VAR_18_]], dims = [0] : tensor<2x16x256xf32>
+// CHECK-NOT: separator of consecutive DAGs
+// CHECK-DAG:       [[VAR_58_:%.+]] = stablehlo.select [[VAR_52_]], [[VAR_55_]], [[VAR_49_]] : tensor<1xi1>, tensor<1xi64>
+// CHECK-DAG:       [[VAR_59_:%.+]] = stablehlo.select [[VAR_52_]], [[VAR_56_]], [[VAR_51_]] : tensor<1xi1>, tensor<1xi64>
+// CHECK-DAG:       [[VAR_60_:%.+]] = stablehlo.select [[VAR_52_]], [[VAR_54_]], [[VAR_50_]] : tensor<1xi1>, tensor<1xi64>
+// CHECK-DAG:       [[VAR_61_:%.+]] = stablehlo.select [[VAR_53_]], [[VAR_57_]], [[VAR_18_]] : tensor<2x16x256xi1>, tensor<2x16x256xf32>
+// CHECK:           [[VAR_62_:%.+]] = stablehlo.compare  GT, [[VAR_59_]], [[VAR_22_]],  NOTYPE : (tensor<1xi64>, tensor<1xi64>) -> tensor<1xi1>
+// CHECK:           [[VAR_63_:%.+]] = stablehlo.select [[VAR_62_]], [[VAR_22_]], [[VAR_59_]] : tensor<1xi1>, tensor<1xi64>
+// CHECK-DAG:       [[VAR_64_:%.+]] = stablehlo.compare  LT, [[VAR_63_]], [[VAR_20_]],  NOTYPE : (tensor<1xi64>, tensor<1xi64>) -> tensor<1xi1>
+// CHECK-DAG:       [[VAR_65_:%.+]] = stablehlo.add [[VAR_63_]], [[VAR_22_]] : tensor<1xi64>
+// CHECK-NOT: separator of consecutive DAGs
+// CHECK-DAG:       [[VAR_66_:%.+]] = stablehlo.select [[VAR_64_]], [[VAR_65_]], [[VAR_63_]] : tensor<1xi1>, tensor<1xi64>
+// CHECK-DAG:       [[VAR_67_:%.+]] = stablehlo.compare  LT, [[VAR_58_]], [[VAR_20_]],  NOTYPE : (tensor<1xi64>, tensor<1xi64>) -> tensor<1xi1>
+// CHECK-DAG:       [[VAR_68_:%.+]] = stablehlo.add [[VAR_58_]], [[VAR_22_]] : tensor<1xi64>
+// CHECK:           [[VAR_69_:%.+]] = stablehlo.select [[VAR_67_]], [[VAR_68_]], [[VAR_58_]] : tensor<1xi1>, tensor<1xi64>
+// CHECK-DAG:       [[VAR_70_:%.+]] = stablehlo.concatenate [[VAR_69_]], [[VAR_20_]], [[VAR_20_]], dim = 0 : (tensor<1xi64>, tensor<1xi64>, tensor<1xi64>) -> tensor<3xi64>
+// CHECK-DAG:       [[VAR_71_:%.+]] = stablehlo.concatenate [[VAR_66_]], [[VAR_17_]], [[VAR_16_]], dim = 0 : (tensor<1xi64>, tensor<1xi64>, tensor<1xi64>) -> tensor<3xi64>
+// CHECK-DAG:       [[VAR_72_:%.+]] = stablehlo.concatenate [[VAR_60_]], [[VAR_21_]], [[VAR_21_]], dim = 0 : (tensor<1xi64>, tensor<1xi64>, tensor<1xi64>) -> tensor<3xi64>
+// CHECK:           [[VAR_73_:%.+]] = stablehlo.real_dynamic_slice [[VAR_61_]], [[VAR_70_]], [[VAR_71_]], [[VAR_72_]] : (tensor<2x16x256xf32>, tensor<3xi64>, tensor<3xi64>, tensor<3xi64>) -> tensor<1x16x256xf32>
+// CHECK-DAG:       [[VAR_74_:%.+]] = stablehlo.dynamic_reshape [[VAR_73_]], [[VAR_0_]] : (tensor<1x16x256xf32>, tensor<2xindex>) -> tensor<16x256xf32>
+// CHECK-DAG:       [[VAR_75_:%.+]] = stablehlo.slice [[VAR_21_]] [0:1] : (tensor<1xi64>) -> tensor<1xi64>
+// CHECK-DAG:       [[VAR_76_:%.+]] = stablehlo.slice [[VAR_21_]] [0:1] : (tensor<1xi64>) -> tensor<1xi64>
+// CHECK-DAG:       [[VAR_77_:%.+]] = stablehlo.slice [[VAR_22_]] [0:1] : (tensor<1xi64>) -> tensor<1xi64>
+// CHECK:           [[VAR_78_:%.+]] = stablehlo.compare  LT, [[VAR_76_]], [[VAR_20_]],  NOTYPE : (tensor<1xi64>, tensor<1xi64>) -> tensor<1xi1>
+// CHECK-DAG:       [[VAR_79_:%.+]] = stablehlo.dynamic_broadcast_in_dim [[VAR_78_]], [[VAR_8_]], dims = [0] : (tensor<1xi1>, tensor<3xindex>) -> tensor<2x16x256xi1>
+// CHECK-DAG:       [[VAR_80_:%.+]] = stablehlo.negate [[VAR_76_]] : tensor<1xi64>
+// CHECK-DAG:       [[VAR_81_:%.+]] = stablehlo.add [[VAR_77_]], [[VAR_21_]] : tensor<1xi64>
+// CHECK-DAG:       [[VAR_82_:%.+]] = stablehlo.add [[VAR_75_]], [[VAR_21_]] : tensor<1xi64>
+// CHECK-DAG:       [[VAR_83_:%.+]] = stablehlo.reverse [[VAR_18_]], dims = [0] : tensor<2x16x256xf32>
+// CHECK-NOT: separator of consecutive DAGs
+// CHECK-DAG:       [[VAR_84_:%.+]] = stablehlo.select [[VAR_78_]], [[VAR_81_]], [[VAR_75_]] : tensor<1xi1>, tensor<1xi64>
+// CHECK-DAG:       [[VAR_85_:%.+]] = stablehlo.select [[VAR_78_]], [[VAR_82_]], [[VAR_77_]] : tensor<1xi1>, tensor<1xi64>
+// CHECK-DAG:       [[VAR_86_:%.+]] = stablehlo.select [[VAR_78_]], [[VAR_80_]], [[VAR_76_]] : tensor<1xi1>, tensor<1xi64>
+// CHECK-DAG:       [[VAR_87_:%.+]] = stablehlo.select [[VAR_79_]], [[VAR_83_]], [[VAR_18_]] : tensor<2x16x256xi1>, tensor<2x16x256xf32>
+// CHECK:           [[VAR_88_:%.+]] = stablehlo.compare  GT, [[VAR_85_]], [[VAR_22_]],  NOTYPE : (tensor<1xi64>, tensor<1xi64>) -> tensor<1xi1>
+// CHECK:           [[VAR_89_:%.+]] = stablehlo.select [[VAR_88_]], [[VAR_22_]], [[VAR_85_]] : tensor<1xi1>, tensor<1xi64>
+// CHECK-DAG:       [[VAR_90_:%.+]] = stablehlo.compare  LT, [[VAR_89_]], [[VAR_20_]],  NOTYPE : (tensor<1xi64>, tensor<1xi64>) -> tensor<1xi1>
+// CHECK-DAG:       [[VAR_91_:%.+]] = stablehlo.add [[VAR_89_]], [[VAR_22_]] : tensor<1xi64>
+// CHECK-NOT: separator of consecutive DAGs
+// CHECK-DAG:       [[VAR_92_:%.+]] = stablehlo.select [[VAR_90_]], [[VAR_91_]], [[VAR_89_]] : tensor<1xi1>, tensor<1xi64>
+// CHECK-DAG:       [[VAR_93_:%.+]] = stablehlo.compare  LT, [[VAR_84_]], [[VAR_20_]],  NOTYPE : (tensor<1xi64>, tensor<1xi64>) -> tensor<1xi1>
+// CHECK-DAG:       [[VAR_94_:%.+]] = stablehlo.add [[VAR_84_]], [[VAR_22_]] : tensor<1xi64>
+// CHECK:           [[VAR_95_:%.+]] = stablehlo.select [[VAR_93_]], [[VAR_94_]], [[VAR_84_]] : tensor<1xi1>, tensor<1xi64>
+// CHECK-DAG:       [[VAR_96_:%.+]] = stablehlo.concatenate [[VAR_95_]], [[VAR_20_]], [[VAR_20_]], dim = 0 : (tensor<1xi64>, tensor<1xi64>, tensor<1xi64>) -> tensor<3xi64>
+// CHECK-DAG:       [[VAR_97_:%.+]] = stablehlo.concatenate [[VAR_92_]], [[VAR_17_]], [[VAR_16_]], dim = 0 : (tensor<1xi64>, tensor<1xi64>, tensor<1xi64>) -> tensor<3xi64>
+// CHECK-DAG:       [[VAR_98_:%.+]] = stablehlo.concatenate [[VAR_86_]], [[VAR_21_]], [[VAR_21_]], dim = 0 : (tensor<1xi64>, tensor<1xi64>, tensor<1xi64>) -> tensor<3xi64>
+// CHECK:           [[VAR_99_:%.+]] = stablehlo.real_dynamic_slice [[VAR_87_]], [[VAR_96_]], [[VAR_97_]], [[VAR_98_]] : (tensor<2x16x256xf32>, tensor<3xi64>, tensor<3xi64>, tensor<3xi64>) -> tensor<1x16x256xf32>
+// CHECK-DAG:       [[VAR_100_:%.+]] = stablehlo.dynamic_reshape [[VAR_99_]], [[VAR_0_]] : (tensor<1x16x256xf32>, tensor<2xindex>) -> tensor<16x256xf32>
+// CHECK-DAG:       [[VAR_101_:%.+]] = stablehlo.slice [[VAR_21_]] [0:1] : (tensor<1xi64>) -> tensor<1xi64>
+// CHECK-DAG:       [[VAR_102_:%.+]] = stablehlo.slice [[VAR_21_]] [0:1] : (tensor<1xi64>) -> tensor<1xi64>
+// CHECK-DAG:       [[VAR_103_:%.+]] = stablehlo.slice [[VAR_22_]] [0:1] : (tensor<1xi64>) -> tensor<1xi64>
+// CHECK:           [[VAR_104_:%.+]] = stablehlo.compare  LT, [[VAR_102_]], [[VAR_20_]],  NOTYPE : (tensor<1xi64>, tensor<1xi64>) -> tensor<1xi1>
+// CHECK-DAG:       [[VAR_105_:%.+]] = stablehlo.dynamic_broadcast_in_dim [[VAR_104_]], [[VAR_8_]], dims = [0] : (tensor<1xi1>, tensor<3xindex>) -> tensor<2x16x256xi1>
+// CHECK-DAG:       [[VAR_106_:%.+]] = stablehlo.negate [[VAR_102_]] : tensor<1xi64>
+// CHECK-DAG:       [[VAR_107_:%.+]] = stablehlo.add [[VAR_103_]], [[VAR_21_]] : tensor<1xi64>
+// CHECK-DAG:       [[VAR_108_:%.+]] = stablehlo.add [[VAR_101_]], [[VAR_21_]] : tensor<1xi64>
+// CHECK-DAG:       [[VAR_109_:%.+]] = stablehlo.reverse [[VAR_18_]], dims = [0] : tensor<2x16x256xf32>
+// CHECK-NOT: separator of consecutive DAGs
+// CHECK-DAG:       [[VAR_110_:%.+]] = stablehlo.select [[VAR_104_]], [[VAR_107_]], [[VAR_101_]] : tensor<1xi1>, tensor<1xi64>
+// CHECK-DAG:       [[VAR_111_:%.+]] = stablehlo.select [[VAR_104_]], [[VAR_108_]], [[VAR_103_]] : tensor<1xi1>, tensor<1xi64>
+// CHECK-DAG:       [[VAR_112_:%.+]] = stablehlo.select [[VAR_104_]], [[VAR_106_]], [[VAR_102_]] : tensor<1xi1>, tensor<1xi64>
+// CHECK-DAG:       [[VAR_113_:%.+]] = stablehlo.select [[VAR_105_]], [[VAR_109_]], [[VAR_18_]] : tensor<2x16x256xi1>, tensor<2x16x256xf32>
+// CHECK:           [[VAR_114_:%.+]] = stablehlo.compare  GT, [[VAR_111_]], [[VAR_22_]],  NOTYPE : (tensor<1xi64>, tensor<1xi64>) -> tensor<1xi1>
+// CHECK:           [[VAR_115_:%.+]] = stablehlo.select [[VAR_114_]], [[VAR_22_]], [[VAR_111_]] : tensor<1xi1>, tensor<1xi64>
+// CHECK-DAG:       [[VAR_116_:%.+]] = stablehlo.compare  LT, [[VAR_115_]], [[VAR_20_]],  NOTYPE : (tensor<1xi64>, tensor<1xi64>) -> tensor<1xi1>
+// CHECK-DAG:       [[VAR_117_:%.+]] = stablehlo.add [[VAR_115_]], [[VAR_22_]] : tensor<1xi64>
+// CHECK-NOT: separator of consecutive DAGs
+// CHECK-DAG:       [[VAR_118_:%.+]] = stablehlo.select [[VAR_116_]], [[VAR_117_]], [[VAR_115_]] : tensor<1xi1>, tensor<1xi64>
+// CHECK-DAG:       [[VAR_119_:%.+]] = stablehlo.compare  LT, [[VAR_110_]], [[VAR_20_]],  NOTYPE : (tensor<1xi64>, tensor<1xi64>) -> tensor<1xi1>
+// CHECK-DAG:       [[VAR_120_:%.+]] = stablehlo.add [[VAR_110_]], [[VAR_22_]] : tensor<1xi64>
+// CHECK:           [[VAR_121_:%.+]] = stablehlo.select [[VAR_119_]], [[VAR_120_]], [[VAR_110_]] : tensor<1xi1>, tensor<1xi64>
+// CHECK-DAG:       [[VAR_122_:%.+]] = stablehlo.concatenate [[VAR_121_]], [[VAR_20_]], [[VAR_20_]], dim = 0 : (tensor<1xi64>, tensor<1xi64>, tensor<1xi64>) -> tensor<3xi64>
+// CHECK-DAG:       [[VAR_123_:%.+]] = stablehlo.concatenate [[VAR_118_]], [[VAR_17_]], [[VAR_16_]], dim = 0 : (tensor<1xi64>, tensor<1xi64>, tensor<1xi64>) -> tensor<3xi64>
+// CHECK-DAG:       [[VAR_124_:%.+]] = stablehlo.concatenate [[VAR_112_]], [[VAR_21_]], [[VAR_21_]], dim = 0 : (tensor<1xi64>, tensor<1xi64>, tensor<1xi64>) -> tensor<3xi64>
+// CHECK:           [[VAR_125_:%.+]] = stablehlo.real_dynamic_slice [[VAR_113_]], [[VAR_122_]], [[VAR_123_]], [[VAR_124_]] : (tensor<2x16x256xf32>, tensor<3xi64>, tensor<3xi64>, tensor<3xi64>) -> tensor<1x16x256xf32>
+// CHECK-DAG:       [[VAR_126_:%.+]] = stablehlo.dynamic_reshape [[VAR_125_]], [[VAR_0_]] : (tensor<1x16x256xf32>, tensor<2xindex>) -> tensor<16x256xf32>
+// CHECK-DAG:       [[VAR_127_:%.+]] = stablehlo.slice [[PARAM_2_]] [0:1, 0:1024, 0:512] : (tensor<2x1024x512xf32>) -> tensor<1x1024x512xf32>
+// CHECK-DAG:       [[VAR_128_:%.+]] = stablehlo.slice [[PARAM_2_]] [1:2, 0:1024, 0:512] : (tensor<2x1024x512xf32>) -> tensor<1x1024x512xf32>
+// CHECK-NOT: separator of consecutive DAGs
+// CHECK-DAG:       [[VAR_129_:%.+]] = stablehlo.dynamic_reshape [[VAR_127_]], [[VAR_7_]] : (tensor<1x1024x512xf32>, tensor<2xindex>) -> tensor<1024x512xf32>
+// CHECK-DAG:       [[VAR_130_:%.+]] = stablehlo.dynamic_reshape [[VAR_128_]], [[VAR_7_]] : (tensor<1x1024x512xf32>, tensor<2xindex>) -> tensor<1024x512xf32>
+// CHECK-DAG:       [[VAR_131_:%.+]] = stablehlo.slice [[PARAM_3_]] [0:1, 0:1024, 0:256] : (tensor<2x1024x256xf32>) -> tensor<1x1024x256xf32>
+// CHECK-DAG:       [[VAR_132_:%.+]] = stablehlo.slice [[PARAM_3_]] [1:2, 0:1024, 0:256] : (tensor<2x1024x256xf32>) -> tensor<1x1024x256xf32>
+// CHECK-NOT: separator of consecutive DAGs
+// CHECK-DAG:       [[VAR_133_:%.+]] = stablehlo.dynamic_reshape [[VAR_131_]], [[VAR_6_]] : (tensor<1x1024x256xf32>, tensor<2xindex>) -> tensor<1024x256xf32>
+// CHECK-DAG:       [[VAR_134_:%.+]] = stablehlo.dynamic_reshape [[VAR_132_]], [[VAR_6_]] : (tensor<1x1024x256xf32>, tensor<2xindex>) -> tensor<1024x256xf32>
+// CHECK-DAG:       [[VAR_135_:%.+]] = stablehlo.transpose [[VAR_129_]], dims = [1, 0] : (tensor<1024x512xf32>) -> tensor<512x1024xf32>
+// CHECK-NOT: separator of consecutive DAGs
+// CHECK-DAG:       [[VAR_136_:%.+]] = stablehlo.transpose [[VAR_133_]], dims = [1, 0] : (tensor<1024x256xf32>) -> tensor<256x1024xf32>
+// CHECK-DAG:       [[VAR_137_:%.+]] = stablehlo.transpose [[VAR_130_]], dims = [1, 0] : (tensor<1024x512xf32>) -> tensor<512x1024xf32>
+// CHECK-DAG:       [[VAR_138_:%.+]] = stablehlo.transpose [[VAR_134_]], dims = [1, 0] : (tensor<1024x256xf32>) -> tensor<256x1024xf32>
+// CHECK-DAG:       [[VAR_139_:%.+]] = stablehlo.slice [[PARAM_1_]] [0:1, 0:2048] : (tensor<2x2048xf32>) -> tensor<1x2048xf32>
+// CHECK-DAG:       [[VAR_140_:%.+]] = stablehlo.slice [[PARAM_1_]] [1:2, 0:2048] : (tensor<2x2048xf32>) -> tensor<1x2048xf32>
+// CHECK-NOT: separator of consecutive DAGs
+// CHECK-DAG:       [[VAR_141_:%.+]] = stablehlo.dynamic_reshape [[VAR_139_]], [[VAR_5_]] : (tensor<1x2048xf32>, tensor<1xindex>) -> tensor<2048xf32>
+// CHECK-DAG:       [[VAR_142_:%.+]] = stablehlo.dynamic_reshape [[VAR_140_]], [[VAR_5_]] : (tensor<1x2048xf32>, tensor<1xindex>) -> tensor<2048xf32>
+// CHECK-NOT: separator of consecutive DAGs
+// CHECK-DAG:       [[VAR_143_:%.+]] = stablehlo.slice [[VAR_141_]] [0:256] : (tensor<2048xf32>) -> tensor<256xf32>
+// CHECK-DAG:       [[VAR_144_:%.+]] = stablehlo.slice [[VAR_141_]] [256:512] : (tensor<2048xf32>) -> tensor<256xf32>
+// CHECK-DAG:       [[VAR_145_:%.+]] = stablehlo.slice [[VAR_141_]] [512:768] : (tensor<2048xf32>) -> tensor<256xf32>
+// CHECK-DAG:       [[VAR_146_:%.+]] = stablehlo.slice [[VAR_141_]] [768:1024] : (tensor<2048xf32>) -> tensor<256xf32>
+// CHECK-DAG:       [[VAR_147_:%.+]] = stablehlo.slice [[VAR_141_]] [1024:1280] : (tensor<2048xf32>) -> tensor<256xf32>
+// CHECK-DAG:       [[VAR_148_:%.+]] = stablehlo.slice [[VAR_141_]] [1280:1536] : (tensor<2048xf32>) -> tensor<256xf32>
+// CHECK-DAG:       [[VAR_149_:%.+]] = stablehlo.slice [[VAR_141_]] [1536:1792] : (tensor<2048xf32>) -> tensor<256xf32>
+// CHECK-DAG:       [[VAR_150_:%.+]] = stablehlo.slice [[VAR_141_]] [1792:2048] : (tensor<2048xf32>) -> tensor<256xf32>
+// CHECK-DAG:       [[VAR_151_:%.+]] = stablehlo.slice [[VAR_142_]] [0:256] : (tensor<2048xf32>) -> tensor<256xf32>
+// CHECK-DAG:       [[VAR_152_:%.+]] = stablehlo.slice [[VAR_142_]] [256:512] : (tensor<2048xf32>) -> tensor<256xf32>
+// CHECK-DAG:       [[VAR_153_:%.+]] = stablehlo.slice [[VAR_142_]] [512:768] : (tensor<2048xf32>) -> tensor<256xf32>
+// CHECK-DAG:       [[VAR_154_:%.+]] = stablehlo.slice [[VAR_142_]] [768:1024] : (tensor<2048xf32>) -> tensor<256xf32>
+// CHECK-DAG:       [[VAR_155_:%.+]] = stablehlo.slice [[VAR_142_]] [1024:1280] : (tensor<2048xf32>) -> tensor<256xf32>
+// CHECK-DAG:       [[VAR_156_:%.+]] = stablehlo.slice [[VAR_142_]] [1280:1536] : (tensor<2048xf32>) -> tensor<256xf32>
+// CHECK-DAG:       [[VAR_157_:%.+]] = stablehlo.slice [[VAR_142_]] [1536:1792] : (tensor<2048xf32>) -> tensor<256xf32>
+// CHECK-DAG:       [[VAR_158_:%.+]] = stablehlo.slice [[VAR_142_]] [1792:2048] : (tensor<2048xf32>) -> tensor<256xf32>
+// CHECK-DAG:       [[VAR_159_:%.+]]:4 = stablehlo.while([[VAR_iterArg_:%.+]] = [[VAR_20_]], [[VAR_iterArg_0_:%.+]] = [[VAR_19_]], [[VAR_iterArg_1_:%.+]] = [[VAR_48_]], [[VAR_iterArg_2_:%.+]] = [[VAR_74_]]) : tensor<1xi64>, tensor<128x1x16x256xf32>, tensor<16x256xf32>, tensor<16x256xf32>
+// CHECK:            cond {
+// CHECK:             [[VAR_162_:%.+]] = stablehlo.compare  LT, [[VAR_iterArg_]], [[VAR_15_]],  NOTYPE : (tensor<1xi64>, tensor<1xi64>) -> tensor<1xi1>
+// CHECK:             [[VAR_163_:%.+]] = stablehlo.reshape [[VAR_162_]] : (tensor<1xi1>) -> tensor<i1>
+// CHECK:             stablehlo.return [[VAR_163_]] : tensor<i1>
+// CHECK:           } do {
+// CHECK-DAG:         [[VAR_162_1_:%.+]] = stablehlo.dynamic_broadcast_in_dim [[VAR_iterArg_]], [[VAR_14_]], dims = [0] : (tensor<1xi64>, tensor<1xindex>) -> tensor<1xi64>
+// CHECK-DAG:         [[VAR_163_1_:%.+]] = stablehlo.dynamic_broadcast_in_dim [[VAR_21_]], [[VAR_14_]], dims = [0] : (tensor<1xi64>, tensor<1xindex>) -> tensor<1xi64>
+// CHECK-NOT: separator of consecutive DAGs
+// CHECK-DAG:         [[VAR_164_:%.+]] = stablehlo.add [[VAR_162_1_]], [[VAR_163_1_]] : tensor<1xi64>
+// CHECK-DAG:         [[VAR_165_:%.+]] = stablehlo.slice [[VAR_iterArg_]] [0:1] : (tensor<1xi64>) -> tensor<1xi64>
+// CHECK-DAG:         [[VAR_166_:%.+]] = stablehlo.slice [[VAR_21_]] [0:1] : (tensor<1xi64>) -> tensor<1xi64>
+// CHECK-NOT: separator of consecutive DAGs
+// CHECK-DAG:         [[VAR_167_:%.+]] = stablehlo.slice [[VAR_164_]] [0:1] : (tensor<1xi64>) -> tensor<1xi64>
+// CHECK-DAG:         [[VAR_168_:%.+]] = stablehlo.compare  LT, [[VAR_166_]], [[VAR_20_]],  NOTYPE : (tensor<1xi64>, tensor<1xi64>) -> tensor<1xi1>
+// CHECK-NOT: separator of consecutive DAGs
+// CHECK-DAG:         [[VAR_169_:%.+]] = stablehlo.dynamic_broadcast_in_dim [[VAR_168_]], [[VAR_4_]], dims = [0] : (tensor<1xi1>, tensor<3xindex>) -> tensor<128x16x512xi1>
+// CHECK-DAG:         [[VAR_170_:%.+]] = stablehlo.negate [[VAR_166_]] : tensor<1xi64>
+// CHECK-DAG:         [[VAR_171_:%.+]] = stablehlo.add [[VAR_167_]], [[VAR_21_]] : tensor<1xi64>
+// CHECK-DAG:         [[VAR_172_:%.+]] = stablehlo.add [[VAR_165_]], [[VAR_21_]] : tensor<1xi64>
+// CHECK-DAG:         [[VAR_173_:%.+]] = stablehlo.reverse [[PARAM_0_]], dims = [0] : tensor<128x16x512xf32>
+// CHECK-NOT: separator of consecutive DAGs
+// CHECK-DAG:         [[VAR_174_:%.+]] = stablehlo.select [[VAR_168_]], [[VAR_171_]], [[VAR_165_]] : tensor<1xi1>, tensor<1xi64>
+// CHECK-DAG:         [[VAR_175_:%.+]] = stablehlo.select [[VAR_168_]], [[VAR_172_]], [[VAR_167_]] : tensor<1xi1>, tensor<1xi64>
+// CHECK-DAG:         [[VAR_176_:%.+]] = stablehlo.select [[VAR_168_]], [[VAR_170_]], [[VAR_166_]] : tensor<1xi1>, tensor<1xi64>
+// CHECK-DAG:         [[VAR_177_:%.+]] = stablehlo.select [[VAR_169_]], [[VAR_173_]], [[PARAM_0_]] : tensor<128x16x512xi1>, tensor<128x16x512xf32>
+// CHECK:             [[VAR_178_:%.+]] = stablehlo.compare  GT, [[VAR_175_]], [[VAR_15_]],  NOTYPE : (tensor<1xi64>, tensor<1xi64>) -> tensor<1xi1>
+// CHECK:             [[VAR_179_:%.+]] = stablehlo.select [[VAR_178_]], [[VAR_15_]], [[VAR_175_]] : tensor<1xi1>, tensor<1xi64>
+// CHECK-DAG:         [[VAR_180_:%.+]] = stablehlo.compare  LT, [[VAR_179_]], [[VAR_20_]],  NOTYPE : (tensor<1xi64>, tensor<1xi64>) -> tensor<1xi1>
+// CHECK-DAG:         [[VAR_181_:%.+]] = stablehlo.add [[VAR_179_]], [[VAR_15_]] : tensor<1xi64>
+// CHECK-NOT: separator of consecutive DAGs
+// CHECK-DAG:         [[VAR_182_:%.+]] = stablehlo.select [[VAR_180_]], [[VAR_181_]], [[VAR_179_]] : tensor<1xi1>, tensor<1xi64>
+// CHECK-DAG:         [[VAR_183_:%.+]] = stablehlo.compare  LT, [[VAR_174_]], [[VAR_20_]],  NOTYPE : (tensor<1xi64>, tensor<1xi64>) -> tensor<1xi1>
+// CHECK-DAG:         [[VAR_184_:%.+]] = stablehlo.add [[VAR_174_]], [[VAR_15_]] : tensor<1xi64>
+// CHECK:             [[VAR_185_:%.+]] = stablehlo.select [[VAR_183_]], [[VAR_184_]], [[VAR_174_]] : tensor<1xi1>, tensor<1xi64>
+// CHECK-DAG:         [[VAR_186_:%.+]] = stablehlo.concatenate [[VAR_185_]], [[VAR_20_]], [[VAR_20_]], dim = 0 : (tensor<1xi64>, tensor<1xi64>, tensor<1xi64>) -> tensor<3xi64>
+// CHECK-DAG:         [[VAR_187_:%.+]] = stablehlo.concatenate [[VAR_182_]], [[VAR_17_]], [[VAR_13_]], dim = 0 : (tensor<1xi64>, tensor<1xi64>, tensor<1xi64>) -> tensor<3xi64>
+// CHECK-DAG:         [[VAR_188_:%.+]] = stablehlo.concatenate [[VAR_176_]], [[VAR_21_]], [[VAR_21_]], dim = 0 : (tensor<1xi64>, tensor<1xi64>, tensor<1xi64>) -> tensor<3xi64>
+// CHECK:             [[VAR_189_:%.+]] = stablehlo.real_dynamic_slice [[VAR_177_]], [[VAR_186_]], [[VAR_187_]], [[VAR_188_]] : (tensor<128x16x512xf32>, tensor<3xi64>, tensor<3xi64>, tensor<3xi64>) -> tensor<1x16x512xf32>
+// CHECK:             [[VAR_190_:%.+]] = stablehlo.dynamic_reshape [[VAR_189_]], [[VAR_3_]] : (tensor<1x16x512xf32>, tensor<2xindex>) -> tensor<16x512xf32>
+// CHECK-DAG:         [[VAR_191_:%.+]] = stablehlo.broadcast_in_dim [[VAR_190_]], dims = [0, 1] : (tensor<16x512xf32>) -> tensor<16x512xf32>
+// CHECK-DAG:         [[VAR_192_:%.+]] = stablehlo.broadcast_in_dim [[VAR_135_]], dims = [0, 1] : (tensor<512x1024xf32>) -> tensor<512x1024xf32>
+// CHECK-NOT: separator of consecutive DAGs
+// CHECK-DAG:         [[VAR_193_:%.+]] = stablehlo.dot [[VAR_191_]], [[VAR_192_]] : (tensor<16x512xf32>, tensor<512x1024xf32>) -> tensor<16x1024xf32>
+// CHECK-DAG:         [[VAR_194_:%.+]] = stablehlo.broadcast_in_dim [[VAR_iterArg_1_]], dims = [0, 1] : (tensor<16x256xf32>) -> tensor<16x256xf32>
+// CHECK-DAG:         [[VAR_195_:%.+]] = stablehlo.broadcast_in_dim [[VAR_136_]], dims = [0, 1] : (tensor<256x1024xf32>) -> tensor<256x1024xf32>
+// CHECK-NOT: separator of consecutive DAGs
+// CHECK-DAG:         [[VAR_196_:%.+]] = stablehlo.dot [[VAR_194_]], [[VAR_195_]] : (tensor<16x256xf32>, tensor<256x1024xf32>) -> tensor<16x1024xf32>
+// CHECK-DAG:         [[VAR_197_:%.+]] = stablehlo.dynamic_broadcast_in_dim [[VAR_193_]], [[VAR_12_]], dims = [0, 1] : (tensor<16x1024xf32>, tensor<2xindex>) -> tensor<16x1024xf32>
+// CHECK:             [[VAR_198_:%.+]] = stablehlo.dynamic_broadcast_in_dim [[VAR_196_]], [[VAR_12_]], dims = [0, 1] : (tensor<16x1024xf32>, tensor<2xindex>) -> tensor<16x1024xf32>
+// CHECK-DAG:         [[VAR_199_:%.+]] = stablehlo.add [[VAR_197_]], [[VAR_198_]] : tensor<16x1024xf32>
+// CHECK-DAG:         [[VAR_200_:%.+]] = stablehlo.slice [[VAR_20_]] [0:1] : (tensor<1xi64>) -> tensor<1xi64>
+// CHECK-DAG:         [[VAR_201_:%.+]] = stablehlo.slice [[VAR_21_]] [0:1] : (tensor<1xi64>) -> tensor<1xi64>
+// CHECK-DAG:         [[VAR_202_:%.+]] = stablehlo.slice [[VAR_16_]] [0:1] : (tensor<1xi64>) -> tensor<1xi64>
+// CHECK:             [[VAR_203_:%.+]] = stablehlo.compare  LT, [[VAR_201_]], [[VAR_20_]],  NOTYPE : (tensor<1xi64>, tensor<1xi64>) -> tensor<1xi1>
+// CHECK-DAG:         [[VAR_204_:%.+]] = stablehlo.dynamic_broadcast_in_dim [[VAR_203_]], [[VAR_12_]], dims = [0] : (tensor<1xi1>, tensor<2xindex>) -> tensor<16x1024xi1>
+// CHECK-DAG:         [[VAR_205_:%.+]] = stablehlo.negate [[VAR_201_]] : tensor<1xi64>
+// CHECK-DAG:         [[VAR_206_:%.+]] = stablehlo.add [[VAR_202_]], [[VAR_21_]] : tensor<1xi64>
+// CHECK-DAG:         [[VAR_207_:%.+]] = stablehlo.add [[VAR_200_]], [[VAR_21_]] : tensor<1xi64>
+// CHECK-DAG:         [[VAR_208_:%.+]] = stablehlo.reverse [[VAR_199_]], dims = [1] : tensor<16x1024xf32>
+// CHECK-NOT: separator of consecutive DAGs
+// CHECK-DAG:         [[VAR_209_:%.+]] = stablehlo.select [[VAR_203_]], [[VAR_206_]], [[VAR_200_]] : tensor<1xi1>, tensor<1xi64>
+// CHECK-DAG:         [[VAR_210_:%.+]] = stablehlo.select [[VAR_203_]], [[VAR_207_]], [[VAR_202_]] : tensor<1xi1>, tensor<1xi64>
+// CHECK-DAG:         [[VAR_211_:%.+]] = stablehlo.select [[VAR_203_]], [[VAR_205_]], [[VAR_201_]] : tensor<1xi1>, tensor<1xi64>
+// CHECK-DAG:         [[VAR_212_:%.+]] = stablehlo.select [[VAR_204_]], [[VAR_208_]], [[VAR_199_]] : tensor<16x1024xi1>, tensor<16x1024xf32>
+// CHECK:             [[VAR_213_:%.+]] = stablehlo.compare  GT, [[VAR_210_]], [[VAR_10_]],  NOTYPE : (tensor<1xi64>, tensor<1xi64>) -> tensor<1xi1>
+// CHECK:             [[VAR_214_:%.+]] = stablehlo.select [[VAR_213_]], [[VAR_10_]], [[VAR_210_]] : tensor<1xi1>, tensor<1xi64>
+// CHECK-DAG:         [[VAR_215_:%.+]] = stablehlo.compare  LT, [[VAR_214_]], [[VAR_20_]],  NOTYPE : (tensor<1xi64>, tensor<1xi64>) -> tensor<1xi1>
+// CHECK-DAG:         [[VAR_216_:%.+]] = stablehlo.add [[VAR_214_]], [[VAR_10_]] : tensor<1xi64>
+// CHECK-NOT: separator of consecutive DAGs
+// CHECK-DAG:         [[VAR_217_:%.+]] = stablehlo.select [[VAR_215_]], [[VAR_216_]], [[VAR_214_]] : tensor<1xi1>, tensor<1xi64>
+// CHECK-DAG:         [[VAR_218_:%.+]] = stablehlo.compare  LT, [[VAR_209_]], [[VAR_20_]],  NOTYPE : (tensor<1xi64>, tensor<1xi64>) -> tensor<1xi1>
+// CHECK-DAG:         [[VAR_219_:%.+]] = stablehlo.add [[VAR_209_]], [[VAR_10_]] : tensor<1xi64>
+// CHECK:             [[VAR_220_:%.+]] = stablehlo.select [[VAR_218_]], [[VAR_219_]], [[VAR_209_]] : tensor<1xi1>, tensor<1xi64>
+// CHECK-DAG:         [[VAR_221_:%.+]] = stablehlo.concatenate [[VAR_20_]], [[VAR_220_]], dim = 0 : (tensor<1xi64>, tensor<1xi64>) -> tensor<2xi64>
+// CHECK-DAG:         [[VAR_222_:%.+]] = stablehlo.concatenate [[VAR_17_]], [[VAR_217_]], dim = 0 : (tensor<1xi64>, tensor<1xi64>) -> tensor<2xi64>
+// CHECK-DAG:         [[VAR_223_:%.+]] = stablehlo.concatenate [[VAR_21_]], [[VAR_21_]]1, dim = 0 : (tensor<1xi64>, tensor<1xi64>) -> tensor<2xi64>
+// CHECK-NOT: separator of consecutive DAGs
+// CHECK-DAG:         [[VAR_224_:%.+]] = stablehlo.real_dynamic_slice [[VAR_212_]], [[VAR_221_]], [[VAR_222_]], [[VAR_223_]] : (tensor<16x1024xf32>, tensor<2xi64>, tensor<2xi64>, tensor<2xi64>) -> tensor<16x256xf32>
+// CHECK-DAG:         [[VAR_225_:%.+]] = stablehlo.slice [[VAR_16_]] [0:1] : (tensor<1xi64>) -> tensor<1xi64>
+// CHECK-DAG:         [[VAR_226_:%.+]] = stablehlo.slice [[VAR_21_]] [0:1] : (tensor<1xi64>) -> tensor<1xi64>
+// CHECK-DAG:         [[VAR_227_:%.+]] = stablehlo.slice [[VAR_13_]] [0:1] : (tensor<1xi64>) -> tensor<1xi64>
+// CHECK:             [[VAR_228_:%.+]] = stablehlo.compare  LT, [[VAR_226_]], [[VAR_20_]],  NOTYPE : (tensor<1xi64>, tensor<1xi64>) -> tensor<1xi1>
+// CHECK-DAG:         [[VAR_229_:%.+]] = stablehlo.dynamic_broadcast_in_dim [[VAR_228_]], [[VAR_12_]], dims = [0] : (tensor<1xi1>, tensor<2xindex>) -> tensor<16x1024xi1>
+// CHECK-DAG:         [[VAR_230_:%.+]] = stablehlo.negate [[VAR_226_]] : tensor<1xi64>
+// CHECK-DAG:         [[VAR_231_:%.+]] = stablehlo.add [[VAR_227_]], [[VAR_21_]] : tensor<1xi64>
+// CHECK-DAG:         [[VAR_232_:%.+]] = stablehlo.add [[VAR_225_]], [[VAR_21_]] : tensor<1xi64>
+// CHECK-DAG:         [[VAR_233_:%.+]] = stablehlo.reverse [[VAR_199_]], dims = [1] : tensor<16x1024xf32>
+// CHECK-NOT: separator of consecutive DAGs
+// CHECK-DAG:         [[VAR_234_:%.+]] = stablehlo.select [[VAR_228_]], [[VAR_231_]], [[VAR_225_]] : tensor<1xi1>, tensor<1xi64>
+// CHECK-DAG:         [[VAR_235_:%.+]] = stablehlo.select [[VAR_228_]], [[VAR_232_]], [[VAR_227_]] : tensor<1xi1>, tensor<1xi64>
+// CHECK-DAG:         [[VAR_236_:%.+]] = stablehlo.select [[VAR_228_]], [[VAR_230_]], [[VAR_226_]] : tensor<1xi1>, tensor<1xi64>
+// CHECK-DAG:         [[VAR_237_:%.+]] = stablehlo.select [[VAR_229_]], [[VAR_233_]], [[VAR_199_]] : tensor<16x1024xi1>, tensor<16x1024xf32>
+// CHECK:             [[VAR_238_:%.+]] = stablehlo.compare  GT, [[VAR_235_]], [[VAR_10_]],  NOTYPE : (tensor<1xi64>, tensor<1xi64>) -> tensor<1xi1>
+// CHECK:             [[VAR_239_:%.+]] = stablehlo.select [[VAR_238_]], [[VAR_10_]], [[VAR_235_]] : tensor<1xi1>, tensor<1xi64>
+// CHECK-DAG:         [[VAR_240_:%.+]] = stablehlo.compare  LT, [[VAR_239_]], [[VAR_20_]],  NOTYPE : (tensor<1xi64>, tensor<1xi64>) -> tensor<1xi1>
+// CHECK-DAG:         [[VAR_241_:%.+]] = stablehlo.add [[VAR_239_]], [[VAR_10_]] : tensor<1xi64>
+// CHECK-NOT: separator of consecutive DAGs
+// CHECK-DAG:         [[VAR_242_:%.+]] = stablehlo.select [[VAR_240_]], [[VAR_241_]], [[VAR_239_]] : tensor<1xi1>, tensor<1xi64>
+// CHECK-DAG:         [[VAR_243_:%.+]] = stablehlo.compare  LT, [[VAR_234_]], [[VAR_20_]],  NOTYPE : (tensor<1xi64>, tensor<1xi64>) -> tensor<1xi1>
+// CHECK-DAG:         [[VAR_244_:%.+]] = stablehlo.add [[VAR_234_]], [[VAR_10_]] : tensor<1xi64>
+// CHECK:             [[VAR_245_:%.+]] = stablehlo.select [[VAR_243_]], [[VAR_244_]], [[VAR_234_]] : tensor<1xi1>, tensor<1xi64>
+// CHECK-DAG:         [[VAR_246_:%.+]] = stablehlo.concatenate [[VAR_20_]], [[VAR_245_]], dim = 0 : (tensor<1xi64>, tensor<1xi64>) -> tensor<2xi64>
+// CHECK-DAG:         [[VAR_247_:%.+]] = stablehlo.concatenate [[VAR_17_]], [[VAR_242_]], dim = 0 : (tensor<1xi64>, tensor<1xi64>) -> tensor<2xi64>
+// CHECK-DAG:         [[VAR_248_:%.+]] = stablehlo.concatenate [[VAR_21_]], [[VAR_236_]], dim = 0 : (tensor<1xi64>, tensor<1xi64>) -> tensor<2xi64>
+// CHECK-NOT: separator of consecutive DAGs
+// CHECK-DAG:         [[VAR_249_:%.+]] = stablehlo.real_dynamic_slice [[VAR_237_]], [[VAR_246_]], [[VAR_247_]], [[VAR_248_]] : (tensor<16x1024xf32>, tensor<2xi64>, tensor<2xi64>, tensor<2xi64>) -> tensor<16x256xf32>
+// CHECK-DAG:         [[VAR_250_:%.+]] = stablehlo.slice [[VAR_13_]] [0:1] : (tensor<1xi64>) -> tensor<1xi64>
+// CHECK-DAG:         [[VAR_251_:%.+]] = stablehlo.slice [[VAR_21_]] [0:1] : (tensor<1xi64>) -> tensor<1xi64>
+// CHECK-DAG:         [[VAR_252_:%.+]] = stablehlo.slice [[VAR_11_]] [0:1] : (tensor<1xi64>) -> tensor<1xi64>
+// CHECK:             [[VAR_253_:%.+]] = stablehlo.compare  LT, [[VAR_251_]], [[VAR_20_]],  NOTYPE : (tensor<1xi64>, tensor<1xi64>) -> tensor<1xi1>
+// CHECK-DAG:         [[VAR_254_:%.+]] = stablehlo.dynamic_broadcast_in_dim [[VAR_253_]], [[VAR_12_]], dims = [0] : (tensor<1xi1>, tensor<2xindex>) -> tensor<16x1024xi1>
+// CHECK-DAG:         [[VAR_255_:%.+]] = stablehlo.negate [[VAR_251_]] : tensor<1xi64>
+// CHECK-DAG:         [[VAR_256_:%.+]] = stablehlo.add [[VAR_252_]], [[VAR_21_]] : tensor<1xi64>
+// CHECK-DAG:         [[VAR_257_:%.+]] = stablehlo.add [[VAR_250_]], [[VAR_21_]] : tensor<1xi64>
+// CHECK-DAG:         [[VAR_258_:%.+]] = stablehlo.reverse [[VAR_199_]], dims = [1] : tensor<16x1024xf32>
+// CHECK-NOT: separator of consecutive DAGs
+// CHECK-DAG:         [[VAR_259_:%.+]] = stablehlo.select [[VAR_253_]], [[VAR_256_]], [[VAR_250_]] : tensor<1xi1>, tensor<1xi64>
+// CHECK-DAG:         [[VAR_260_:%.+]] = stablehlo.select [[VAR_253_]], [[VAR_257_]], [[VAR_252_]] : tensor<1xi1>, tensor<1xi64>
+// CHECK-DAG:         [[VAR_261_:%.+]] = stablehlo.select [[VAR_253_]], [[VAR_255_]], [[VAR_251_]] : tensor<1xi1>, tensor<1xi64>
+// CHECK-DAG:         [[VAR_262_:%.+]] = stablehlo.select [[VAR_254_]], [[VAR_258_]], [[VAR_199_]] : tensor<16x1024xi1>, tensor<16x1024xf32>
+// CHECK:             [[VAR_263_:%.+]] = stablehlo.compare  GT, [[VAR_260_]], [[VAR_10_]],  NOTYPE : (tensor<1xi64>, tensor<1xi64>) -> tensor<1xi1>
+// CHECK:             [[VAR_264_:%.+]] = stablehlo.select [[VAR_263_]], [[VAR_10_]], [[VAR_260_]] : tensor<1xi1>, tensor<1xi64>
+// CHECK-DAG:         [[VAR_265_:%.+]] = stablehlo.compare  LT, [[VAR_264_]], [[VAR_20_]],  NOTYPE : (tensor<1xi64>, tensor<1xi64>) -> tensor<1xi1>
+// CHECK-DAG:         [[VAR_266_:%.+]] = stablehlo.add [[VAR_264_]], [[VAR_10_]] : tensor<1xi64>
+// CHECK-NOT: separator of consecutive DAGs
+// CHECK-DAG:         [[VAR_267_:%.+]] = stablehlo.select [[VAR_265_]], [[VAR_266_]], [[VAR_264_]] : tensor<1xi1>, tensor<1xi64>
+// CHECK-DAG:         [[VAR_268_:%.+]] = stablehlo.compare  LT, [[VAR_259_]], [[VAR_20_]],  NOTYPE : (tensor<1xi64>, tensor<1xi64>) -> tensor<1xi1>
+// CHECK-DAG:         [[VAR_269_:%.+]] = stablehlo.add [[VAR_259_]], [[VAR_10_]] : tensor<1xi64>
+// CHECK:             [[VAR_270_:%.+]] = stablehlo.select [[VAR_268_]], [[VAR_269_]], [[VAR_259_]] : tensor<1xi1>, tensor<1xi64>
+// CHECK-DAG:         [[VAR_271_:%.+]] = stablehlo.concatenate [[VAR_20_]], [[VAR_270_]], dim = 0 : (tensor<1xi64>, tensor<1xi64>) -> tensor<2xi64>
+// CHECK-DAG:         [[VAR_272_:%.+]] = stablehlo.concatenate [[VAR_17_]], [[VAR_267_]], dim = 0 : (tensor<1xi64>, tensor<1xi64>) -> tensor<2xi64>
+// CHECK-DAG:         [[VAR_273_:%.+]] = stablehlo.concatenate [[VAR_21_]], [[VAR_261_]], dim = 0 : (tensor<1xi64>, tensor<1xi64>) -> tensor<2xi64>
+// CHECK-NOT: separator of consecutive DAGs
+// CHECK-DAG:         [[VAR_274_:%.+]] = stablehlo.real_dynamic_slice [[VAR_262_]], [[VAR_271_]], [[VAR_272_]], [[VAR_273_]] : (tensor<16x1024xf32>, tensor<2xi64>, tensor<2xi64>, tensor<2xi64>) -> tensor<16x256xf32>
+// CHECK-DAG:         [[VAR_275_:%.+]] = stablehlo.slice [[VAR_11_]] [0:1] : (tensor<1xi64>) -> tensor<1xi64>
+// CHECK-DAG:         [[VAR_276_:%.+]] = stablehlo.slice [[VAR_21_]] [0:1] : (tensor<1xi64>) -> tensor<1xi64>
+// CHECK-DAG:         [[VAR_277_:%.+]] = stablehlo.slice [[VAR_10_]] [0:1] : (tensor<1xi64>) -> tensor<1xi64>
+// CHECK:             [[VAR_278_:%.+]] = stablehlo.compare  LT, [[VAR_276_]], [[VAR_20_]],  NOTYPE : (tensor<1xi64>, tensor<1xi64>) -> tensor<1xi1>
+// CHECK-DAG:         [[VAR_279_:%.+]] = stablehlo.dynamic_broadcast_in_dim [[VAR_278_]], [[VAR_12_]], dims = [0] : (tensor<1xi1>, tensor<2xindex>) -> tensor<16x1024xi1>
+// CHECK-DAG:         [[VAR_280_:%.+]] = stablehlo.negate [[VAR_276_]] : tensor<1xi64>
+// CHECK-DAG:         [[VAR_281_:%.+]] = stablehlo.add [[VAR_277_]], [[VAR_21_]] : tensor<1xi64>
+// CHECK-DAG:         [[VAR_282_:%.+]] = stablehlo.add [[VAR_275_]], [[VAR_21_]] : tensor<1xi64>
+// CHECK-DAG:         [[VAR_283_:%.+]] = stablehlo.reverse [[VAR_199_]], dims = [1] : tensor<16x1024xf32>
+// CHECK-NOT: separator of consecutive DAGs
+// CHECK-DAG:         [[VAR_284_:%.+]] = stablehlo.select [[VAR_278_]], [[VAR_281_]], [[VAR_275_]] : tensor<1xi1>, tensor<1xi64>
+// CHECK-DAG:         [[VAR_285_:%.+]] = stablehlo.select [[VAR_278_]], [[VAR_282_]], [[VAR_277_]] : tensor<1xi1>, tensor<1xi64>
+// CHECK-DAG:         [[VAR_286_:%.+]] = stablehlo.select [[VAR_278_]], [[VAR_280_]], [[VAR_276_]] : tensor<1xi1>, tensor<1xi64>
+// CHECK-DAG:         [[VAR_287_:%.+]] = stablehlo.select [[VAR_279_]], [[VAR_283_]], [[VAR_199_]] : tensor<16x1024xi1>, tensor<16x1024xf32>
+// CHECK:             [[VAR_288_:%.+]] = stablehlo.compare  GT, [[VAR_285_]], [[VAR_10_]],  NOTYPE : (tensor<1xi64>, tensor<1xi64>) -> tensor<1xi1>
+// CHECK:             [[VAR_289_:%.+]] = stablehlo.select [[VAR_288_]], [[VAR_10_]], [[VAR_285_]] : tensor<1xi1>, tensor<1xi64>
+// CHECK-DAG:         [[VAR_290_:%.+]] = stablehlo.compare  LT, [[VAR_289_]], [[VAR_20_]],  NOTYPE : (tensor<1xi64>, tensor<1xi64>) -> tensor<1xi1>
+// CHECK-DAG:         [[VAR_291_:%.+]] = stablehlo.add [[VAR_289_]], [[VAR_10_]] : tensor<1xi64>
+// CHECK-NOT: separator of consecutive DAGs
+// CHECK-DAG:         [[VAR_292_:%.+]] = stablehlo.select [[VAR_290_]], [[VAR_291_]], [[VAR_289_]] : tensor<1xi1>, tensor<1xi64>
+// CHECK-DAG:         [[VAR_293_:%.+]] = stablehlo.compare  LT, [[VAR_284_]], [[VAR_20_]],  NOTYPE : (tensor<1xi64>, tensor<1xi64>) -> tensor<1xi1>
+// CHECK-DAG:         [[VAR_294_:%.+]] = stablehlo.add [[VAR_284_]], [[VAR_10_]] : tensor<1xi64>
+// CHECK:             [[VAR_295_:%.+]] = stablehlo.select [[VAR_293_]], [[VAR_294_]], [[VAR_284_]] : tensor<1xi1>, tensor<1xi64>
+// CHECK-DAG:         [[VAR_296_:%.+]] = stablehlo.concatenate [[VAR_20_]], [[VAR_295_]], dim = 0 : (tensor<1xi64>, tensor<1xi64>) -> tensor<2xi64>
+// CHECK-DAG:         [[VAR_297_:%.+]] = stablehlo.concatenate [[VAR_17_]], [[VAR_292_]], dim = 0 : (tensor<1xi64>, tensor<1xi64>) -> tensor<2xi64>
+// CHECK-DAG:         [[VAR_298_:%.+]] = stablehlo.concatenate [[VAR_21_]], [[VAR_286_]], dim = 0 : (tensor<1xi64>, tensor<1xi64>) -> tensor<2xi64>
+// CHECK-NOT: separator of consecutive DAGs
+// CHECK-DAG:         [[VAR_299_:%.+]] = stablehlo.real_dynamic_slice [[VAR_287_]], [[VAR_296_]], [[VAR_297_]], [[VAR_298_]] : (tensor<16x1024xf32>, tensor<2xi64>, tensor<2xi64>, tensor<2xi64>) -> tensor<16x256xf32>
+// CHECK-DAG:         [[VAR_300_:%.+]] = stablehlo.dynamic_broadcast_in_dim [[VAR_224_]], [[VAR_0_]], dims = [0, 1] : (tensor<16x256xf32>, tensor<2xindex>) -> tensor<16x256xf32>
+// CHECK-DAG:         [[VAR_301_:%.+]] = stablehlo.dynamic_broadcast_in_dim [[VAR_143_]], [[VAR_0_]], dims = [1] : (tensor<256xf32>, tensor<2xindex>) -> tensor<16x256xf32>
+// CHECK:             [[VAR_302_:%.+]] = stablehlo.add [[VAR_300_]], [[VAR_301_]] : tensor<16x256xf32>
+// CHECK-DAG:         [[VAR_303_:%.+]] = stablehlo.dynamic_broadcast_in_dim [[VAR_302_]], [[VAR_0_]], dims = [0, 1] : (tensor<16x256xf32>, tensor<2xindex>) -> tensor<16x256xf32>
+// CHECK-DAG:         [[VAR_304_:%.+]] = stablehlo.dynamic_broadcast_in_dim [[VAR_147_]], [[VAR_0_]], dims = [1] : (tensor<256xf32>, tensor<2xindex>) -> tensor<16x256xf32>
+// CHECK:             [[VAR_305_:%.+]] = stablehlo.add [[VAR_303_]], [[VAR_304_]] : tensor<16x256xf32>
+// CHECK-DAG:         [[VAR_306_:%.+]] = stablehlo.logistic [[VAR_305_]] : tensor<16x256xf32>
+// CHECK-DAG:         [[VAR_307_:%.+]] = stablehlo.dynamic_broadcast_in_dim [[VAR_274_]], [[VAR_0_]], dims = [0, 1] : (tensor<16x256xf32>, tensor<2xindex>) -> tensor<16x256xf32>
+// CHECK-DAG:         [[VAR_308_:%.+]] = stablehlo.dynamic_broadcast_in_dim [[VAR_145_]], [[VAR_0_]], dims = [1] : (tensor<256xf32>, tensor<2xindex>) -> tensor<16x256xf32>
+// CHECK:             [[VAR_309_:%.+]] = stablehlo.add [[VAR_307_]], [[VAR_308_]] : tensor<16x256xf32>
+// CHECK-DAG:         [[VAR_310_:%.+]] = stablehlo.dynamic_broadcast_in_dim [[VAR_309_]], [[VAR_0_]], dims = [0, 1] : (tensor<16x256xf32>, tensor<2xindex>) -> tensor<16x256xf32>
+// CHECK-DAG:         [[VAR_311_:%.+]] = stablehlo.dynamic_broadcast_in_dim [[VAR_149_]], [[VAR_0_]], dims = [1] : (tensor<256xf32>, tensor<2xindex>) -> tensor<16x256xf32>
+// CHECK:             [[VAR_312_:%.+]] = stablehlo.add [[VAR_310_]], [[VAR_311_]] : tensor<16x256xf32>
+// CHECK-DAG:         [[VAR_313_:%.+]] = stablehlo.logistic [[VAR_312_]] : tensor<16x256xf32>
+// CHECK-DAG:         [[VAR_314_:%.+]] = stablehlo.dynamic_broadcast_in_dim [[VAR_299_]], [[VAR_0_]], dims = [0, 1] : (tensor<16x256xf32>, tensor<2xindex>) -> tensor<16x256xf32>
+// CHECK-DAG:         [[VAR_315_:%.+]] = stablehlo.dynamic_broadcast_in_dim [[VAR_146_]], [[VAR_0_]], dims = [1] : (tensor<256xf32>, tensor<2xindex>) -> tensor<16x256xf32>
+// CHECK:             [[VAR_316_:%.+]] = stablehlo.add [[VAR_314_]], [[VAR_315_]] : tensor<16x256xf32>
+// CHECK-DAG:         [[VAR_317_:%.+]] = stablehlo.dynamic_broadcast_in_dim [[VAR_316_]], [[VAR_0_]], dims = [0, 1] : (tensor<16x256xf32>, tensor<2xindex>) -> tensor<16x256xf32>
+// CHECK-DAG:         [[VAR_318_:%.+]] = stablehlo.dynamic_broadcast_in_dim [[VAR_150_]], [[VAR_0_]], dims = [1] : (tensor<256xf32>, tensor<2xindex>) -> tensor<16x256xf32>
+// CHECK:             [[VAR_319_:%.+]] = stablehlo.add [[VAR_317_]], [[VAR_318_]] : tensor<16x256xf32>
+// CHECK-DAG:         [[VAR_320_:%.+]] = stablehlo.tanh [[VAR_319_]] : tensor<16x256xf32>
+// CHECK-DAG:         [[VAR_321_:%.+]] = stablehlo.dynamic_broadcast_in_dim [[VAR_313_]], [[VAR_0_]], dims = [0, 1] : (tensor<16x256xf32>, tensor<2xindex>) -> tensor<16x256xf32>
+// CHECK-DAG:         [[VAR_322_:%.+]] = stablehlo.dynamic_broadcast_in_dim [[VAR_iterArg_2_]], [[VAR_0_]], dims = [0, 1] : (tensor<16x256xf32>, tensor<2xindex>) -> tensor<16x256xf32>
+// CHECK-NOT: separator of consecutive DAGs
+// CHECK-DAG:         [[VAR_323_:%.+]] = stablehlo.multiply [[VAR_321_]], [[VAR_322_]] : tensor<16x256xf32>
+// CHECK-DAG:         [[VAR_324_:%.+]] = stablehlo.dynamic_broadcast_in_dim [[VAR_306_]], [[VAR_0_]], dims = [0, 1] : (tensor<16x256xf32>, tensor<2xindex>) -> tensor<16x256xf32>
+// CHECK-DAG:         [[VAR_325_:%.+]] = stablehlo.dynamic_broadcast_in_dim [[VAR_320_]], [[VAR_0_]], dims = [0, 1] : (tensor<16x256xf32>, tensor<2xindex>) -> tensor<16x256xf32>
+// CHECK-NOT: separator of consecutive DAGs
+// CHECK-DAG:         [[VAR_326_:%.+]] = stablehlo.multiply [[VAR_324_]], [[VAR_325_]] : tensor<16x256xf32>
+// CHECK-DAG:         [[VAR_327_:%.+]] = stablehlo.dynamic_broadcast_in_dim [[VAR_323_]], [[VAR_0_]], dims = [0, 1] : (tensor<16x256xf32>, tensor<2xindex>) -> tensor<16x256xf32>
+// CHECK:             [[VAR_328_:%.+]] = stablehlo.dynamic_broadcast_in_dim [[VAR_326_]], [[VAR_0_]], dims = [0, 1] : (tensor<16x256xf32>, tensor<2xindex>) -> tensor<16x256xf32>
+// CHECK-DAG:         [[VAR_329_:%.+]] = stablehlo.add [[VAR_327_]], [[VAR_328_]] : tensor<16x256xf32>
+// CHECK-DAG:         [[VAR_330_:%.+]] = stablehlo.dynamic_broadcast_in_dim [[VAR_249_]], [[VAR_0_]], dims = [0, 1] : (tensor<16x256xf32>, tensor<2xindex>) -> tensor<16x256xf32>
+// CHECK-DAG:         [[VAR_331_:%.+]] = stablehlo.dynamic_broadcast_in_dim [[VAR_144_]], [[VAR_0_]], dims = [1] : (tensor<256xf32>, tensor<2xindex>) -> tensor<16x256xf32>
+// CHECK:             [[VAR_332_:%.+]] = stablehlo.add [[VAR_330_]], [[VAR_331_]] : tensor<16x256xf32>
+// CHECK-DAG:         [[VAR_333_:%.+]] = stablehlo.dynamic_broadcast_in_dim [[VAR_332_]], [[VAR_0_]], dims = [0, 1] : (tensor<16x256xf32>, tensor<2xindex>) -> tensor<16x256xf32>
+// CHECK-DAG:         [[VAR_334_:%.+]] = stablehlo.dynamic_broadcast_in_dim [[VAR_148_]], [[VAR_0_]], dims = [1] : (tensor<256xf32>, tensor<2xindex>) -> tensor<16x256xf32>
+// CHECK:             [[VAR_335_:%.+]] = stablehlo.add [[VAR_333_]], [[VAR_334_]] : tensor<16x256xf32>
+// CHECK-DAG:         [[VAR_336_:%.+]] = stablehlo.logistic [[VAR_335_]] : tensor<16x256xf32>
+// CHECK-DAG:         [[VAR_337_:%.+]] = stablehlo.tanh [[VAR_329_]] : tensor<16x256xf32>
+// CHECK-NOT: separator of consecutive DAGs
+// CHECK-DAG:         [[VAR_338_:%.+]] = stablehlo.dynamic_broadcast_in_dim [[VAR_336_]], [[VAR_0_]], dims = [0, 1] : (tensor<16x256xf32>, tensor<2xindex>) -> tensor<16x256xf32>
+// CHECK-DAG:         [[VAR_339_:%.+]] = stablehlo.dynamic_broadcast_in_dim [[VAR_337_]], [[VAR_0_]], dims = [0, 1] : (tensor<16x256xf32>, tensor<2xindex>) -> tensor<16x256xf32>
+// CHECK:             [[VAR_340_:%.+]] = stablehlo.multiply [[VAR_338_]], [[VAR_339_]] : tensor<16x256xf32>
+// CHECK-DAG:         [[VAR_341_:%.+]] = stablehlo.dynamic_reshape [[VAR_340_]], [[VAR_2_]] : (tensor<16x256xf32>, tensor<4xindex>) -> tensor<1x1x16x256xf32>
+// CHECK-DAG:         [[VAR_342_:%.+]] = stablehlo.dynamic_reshape [[VAR_iterArg_]], [[VAR_1_]] : (tensor<1xi64>, tensor<2xindex>) -> tensor<1x1xi64>
+// CHECK:             [[VAR_343_:%.+]] = "stablehlo.scatter"([[VAR_iterArg_0_]], [[VAR_342_]], [[VAR_341_]]) ({
+// CHECK:             ^bb0([[arg4_:%.+]]: tensor<f32>, [[arg5_:%.+]]: tensor<f32>):
+// CHECK:               stablehlo.return [[arg5_]] : tensor<f32>
+// CHECK:             }) {indices_are_sorted = false, scatter_dimension_numbers = #stablehlo.scatter<update_window_dims = [1, 2, 3], inserted_window_dims = [0], scatter_dims_to_operand_dims = [0], index_vector_dim = 1>, unique_indices = false} : (tensor<128x1x16x256xf32>, tensor<1x1xi64>, tensor<1x1x16x256xf32>) -> tensor<128x1x16x256xf32>
+// CHECK-DAG:         [[VAR_344_:%.+]] = stablehlo.dynamic_broadcast_in_dim [[VAR_iterArg_]], [[VAR_14_]], dims = [0] : (tensor<1xi64>, tensor<1xindex>) -> tensor<1xi64>
+// CHECK-DAG:         [[VAR_345_:%.+]] = stablehlo.dynamic_broadcast_in_dim [[VAR_21_]], [[VAR_14_]], dims = [0] : (tensor<1xi64>, tensor<1xindex>) -> tensor<1xi64>
+// CHECK:             [[VAR_346_:%.+]] = stablehlo.add [[VAR_344_]], [[VAR_345_]] : tensor<1xi64>
+// CHECK:             stablehlo.return [[VAR_346_]], [[VAR_343_]], [[VAR_340_]], [[VAR_329_]] : tensor<1xi64>, tensor<128x1x16x256xf32>, tensor<16x256xf32>, tensor<16x256xf32>
+// CHECK:           }
+// CHECK:           [[VAR_160_:%.+]]:4 = stablehlo.while([[VAR_iterArg_1_:%.+]] = [[VAR_9_]], [[VAR_iterArg_0_1_:%.+]] = [[VAR_19_]], [[VAR_iterArg_1_1_:%.+]] = [[VAR_100_]], [[VAR_iterArg_2_1_:%.+]] = [[VAR_126_]]) : tensor<1xi64>, tensor<128x1x16x256xf32>, tensor<16x256xf32>, tensor<16x256xf32>
+// CHECK:            cond {
+// CHECK:             [[VAR_162_2_:%.+]] = stablehlo.compare  GE, [[VAR_iterArg_1_]], [[VAR_20_]],  NOTYPE : (tensor<1xi64>, tensor<1xi64>) -> tensor<1xi1>
+// CHECK:             [[VAR_163_2_:%.+]] = stablehlo.reshape [[VAR_162_2_]] : (tensor<1xi1>) -> tensor<i1>
+// CHECK:             stablehlo.return [[VAR_163_2_]] : tensor<i1>
+// CHECK:           } do {
+// CHECK-DAG:         [[VAR_162_3_:%.+]] = stablehlo.dynamic_broadcast_in_dim [[VAR_iterArg_1_]], [[VAR_14_]], dims = [0] : (tensor<1xi64>, tensor<1xindex>) -> tensor<1xi64>
+// CHECK-DAG:         [[VAR_163_3_:%.+]] = stablehlo.dynamic_broadcast_in_dim [[VAR_21_]], [[VAR_14_]], dims = [0] : (tensor<1xi64>, tensor<1xindex>) -> tensor<1xi64>
+// CHECK-NOT: separator of consecutive DAGs
+// CHECK-DAG:         [[VAR_164_1_:%.+]] = stablehlo.add [[VAR_162_3_]], [[VAR_163_3_]] : tensor<1xi64>
…
+    return rewriter
+        .create<ONNXUnsqueezeV11Op>(loc, tensorType,
+            create.onnx.toTensor(input), rewriter.getI64ArrayAttr(axis))
+        .getResult();
+  }
+}
+
+/// Emit an ONNXSplitOp. If the input is constant, do const propagation, and
+/// return constants.
+/// Only support evenly splitting.
+std::vector<Value> OnnxBuilder::foldOrEmitONNXSplitOp(
+    ConversionPatternRewriter &rewriter, Location loc,
+    ArrayRef<Type> resultTypes, Value input, int64_t axis,
+    DenseElementsAttrGetter getDenseElementAttrFromConstValue) {
+  MultiDialectBuilder<OnnxBuilder> create(rewriter, loc);
+  std::vector<Value> resVals;
+  int outputNum = resultTypes.size();
+  if (DenseElementsAttr inputElements =
+          getDenseElementAttrFromConstValue(input)) {
+    auto inputShape = inputElements.getType().getShape();
+    assert(outputNum == 0 || inputShape[axis] % outputNum == 0);
+    int64_t sizeOfEachSplit = outputNum != 0 ? inputShape[axis] / outputNum : 0;
+    SmallVector<int64_t, 4> sizes(outputNum, sizeOfEachSplit);
+
+    OnnxElementsAttrBuilder elementsBuilder(rewriter.getContext());
+    std::vector<ElementsAttr> splits =
+        elementsBuilder.split(inputElements, axis, sizes);
+    for (ElementsAttr splitElements : splits) {
+      // Avoid DisposableElementsAttr during conversion.
+      DenseElementsAttr denseSplitElements =
+          elementsBuilder.toDenseElementsAttr(splitElements);
+      Value constVal = create.onnx.constant(denseSplitElements);
+      resVals.emplace_back(constVal);
+    }
+  } else {
+    SmallVector<Type, 4> convertedTypes;
+    SmallVector<int64_t> splitSizesI64;
+    for (auto t : resultTypes) {
+      convertedTypes.emplace_back(create.onnx.toTensor(t));
+      splitSizesI64.emplace_back(t.cast<ShapedType>().getShape()[axis]);
+    }
+    Value splitSizes = create.onnx.constantInt64(splitSizesI64);
+    ONNXSplitOp split = rewriter.create<ONNXSplitOp>(loc, convertedTypes,
+        create.onnx.toTensor(input), splitSizes,
+        /*axis=*/axis, nullptr);
+    for (int i = 0; i < outputNum; ++i)
+      resVals.emplace_back(split.getOutputs()[i]);
+  }
+  return resVals;
+}
+
+/// Emit an ONNXSplitV11Op. If the input is constant, do const propagation, and
+/// return constants.
+/// Only support evenly splitting.
+std::vector<Value> OnnxBuilder::foldOrEmitONNXSplitV11Op(
+    ConversionPatternRewriter &rewriter, Location loc,
+    ArrayRef<Type> resultTypes, Value input, int64_t axis,
+    DenseElementsAttrGetter getDenseElementAttrFromConstValue) {
+
+  MultiDialectBuilder<OnnxBuilder> create(rewriter, loc);
+
+  std::vector<Value> resVals;
+  int outputNum = resultTypes.size();
+
+  if (DenseElementsAttr inputElements =
+          getDenseElementAttrFromConstValue(input)) {
+    auto inputShape = inputElements.getType().getShape();
+    assert(outputNum == 0 || inputShape[axis] % outputNum == 0);
+    int64_t sizeOfEachSplit = outputNum != 0 ? inputShape[axis] / outputNum : 0;
+    SmallVector<int64_t, 4> sizes(outputNum, sizeOfEachSplit);
+
+    OnnxElementsAttrBuilder elementsBuilder(rewriter.getContext());
+    std::vector<ElementsAttr> splits =
+        elementsBuilder.split(inputElements, axis, sizes);
+    for (ElementsAttr splitElements : splits) {
+      // Avoid DisposableElementsAttr during conversion.
+      DenseElementsAttr denseSplitElements =
+          elementsBuilder.toDenseElementsAttr(splitElements);
+      resVals.emplace_back(create.onnx.constant(denseSplitElements));
+    }
+  } else {
+    SmallVector<Type, 4> convertedTypes;
+    for (auto t : resultTypes) {
+      convertedTypes.emplace_back(create.onnx.toTensor(t));
+    }
+    ONNXSplitV11Op split = rewriter.create<ONNXSplitV11Op>(loc, convertedTypes,
+        create.onnx.toTensor(input),
+        /*axis=*/axis, nullptr);
+    for (int i = 0; i < outputNum; ++i)
+      resVals.emplace_back(split.getOutputs()[i]);
+  }
+  return resVals;
+}
+
+/// Emit an ONNXTransposeOp. If the input is constant, do const propagation,
+/// and return a constant.
+Value OnnxBuilder::foldOrEmitONNXTransposeOp(
+    ConversionPatternRewriter &rewriter, Location loc, Type resultType,
+    Value input, ArrayAttr permAttr,
+    DenseElementsAttrGetter getDenseElementAttrFromConstValue) {
+  MultiDialectBuilder<OnnxBuilder> create(rewriter, loc);
+  if (DenseElementsAttr inputElements =
+          getDenseElementAttrFromConstValue(input)) {
+    SmallVector<uint64_t, 4> perm;
+    for (auto permVal : permAttr.getValue())
+      perm.emplace_back(permVal.cast<IntegerAttr>().getInt());
+
+    OnnxElementsAttrBuilder elementsBuilder(rewriter.getContext());
+    ElementsAttr transposedElements =
+        elementsBuilder.transpose(inputElements, perm);
+    // Avoid DisposableElementsAttr during conversion.
+    DenseElementsAttr denseTransposedElements =
+        elementsBuilder.toDenseElementsAttr(transposedElements);
+    return create.onnx.constant(denseTransposedElements);
+  } else {
+    return rewriter
+        .create<ONNXTransposeOp>(loc, create.onnx.toTensor(resultType),
+            create.onnx.toTensor(input), permAttr)
+        .getResult();
+  }
+}
+
 // =============================================================================
 // IndexExpr Builder for Analysis
 // =============================================================================
diff --git a/src/Dialect/ONNX/DialectBuilder.hpp b/src/Dialect/ONNX/DialectBuilder.hpp
index 95aa233979..e7712c19c7 100644
--- a/src/Dialect/ONNX/DialectBuilder.hpp
+++ b/src/Dialect/ONNX/DialectBuilder.hpp
@@ -34,11 +34,11 @@ struct OnnxBuilder : DialectBuilder {

   // Create operation and infer shape.
   template <typename OnnxOpType, typename... Args>
-  OnnxOpType createOpAndInferShapes(Args &&... args) const;
+  OnnxOpType createOpAndInferShapes(Args &&...args) const;

   template <typename OnnxOpType, typename... Args>
   OnnxOpType createTypedOpAndInferShapes(
-      mlir::Type result_ty, Args &&... args) const;
+      mlir::Type result_ty, Args &&...args) const;

   // ONNXAddOp
   mlir::Value add(mlir::Value A, mlir::Value B) const;
@@ -212,6 +212,68 @@ struct OnnxBuilder : DialectBuilder {
   mlir::Value where(mlir::Type outputType, mlir::Value condition, mlir::Value X,
       mlir::Value Y) const;

+  // =============================================================================
+  // Fold and emit support.
+  // =============================================================================
+
+  // These utilities emit an ONNXOp and try to fold it if possible. If the input
+  // is constant, do const propagation, and return a constant. The funcion needs
+  // to have std::function<DenseElementsAttr(mlir::Value value)> as the last
+  // argument. It is used to get the DenseElementsAttr from the value if the
+  // value is a constant.
+
+  using DenseElementsAttrGetter =
+      std::function<mlir::DenseElementsAttr(mlir::Value)>;
+
+  /// Emit an ONNXSqueezeOp. If the input is constant, do const propagation, and
+  /// return a constant.
+  mlir::Value foldOrEmitONNXSqueezeOp(mlir::ConversionPatternRewriter &rewriter,
+      mlir::Location loc, mlir::Type resultType, mlir::Value input,
+      int64_t axis, DenseElementsAttrGetter getDenseElementAttrFromConstValue);
+
+  /// Emit an ONNXSqueezeV11Op. If the input is constant, do const propagation,
+  /// and return a constant.
+  mlir::Value foldOrEmitONNXSqueezeV11Op(
+      mlir::ConversionPatternRewriter &rewriter, mlir::Location loc,
+      mlir::Type resultType, mlir::Value input, int64_t axis,
+      DenseElementsAttrGetter getDenseElementAttrFromConstValue);
+
+  /// Emit an ONNXUnsqueezeOp. If the input is constant, do const propagation,
+  /// and return a constant.
+  mlir::Value foldOrEmitONNXUnsqueezeOp(
+      mlir::ConversionPatternRewriter &rewriter, mlir::Location loc,
+      mlir::Type resultType, mlir::Value input, int64_t axis,
+      DenseElementsAttrGetter getDenseElementAttrFromConstValue);
+
+  /// Emit an ONNXUnsqueezeV11Op. If the input is constant, do const
+  /// propagation, and return a constant.
+  mlir::Value foldOrEmitONNXUnsqueezeV11Op(
+      mlir::ConversionPatternRewriter &rewriter, mlir::Location loc,
+      mlir::Type resultType, mlir::Value input, int64_t axis,
+      DenseElementsAttrGetter getDenseElementAttrFromConstValue);
+
+  /// Emit an ONNXSplitOp. If the input is constant, do const propagation, and
+  /// return constants.
+  /// Only support evenly splitting.
+  std::vector<mlir::Value> foldOrEmitONNXSplitOp(
+      mlir::ConversionPatternRewriter &rewriter, mlir::Location loc,
+      llvm::ArrayRef<mlir::Type> resultTypes, mlir::Value input, int64_t axis,
+      DenseElementsAttrGetter getDenseElementAttrFromConstValue);
+
+  /// Emit an ONNXSplitV11Op. If the input is constant, do const propagation,
+  /// and return constants. Only support evenly splitting.
+  std::vector<mlir::Value> foldOrEmitONNXSplitV11Op(
+      mlir::ConversionPatternRewriter &rewriter, mlir::Location loc,
+      llvm::ArrayRef<mlir::Type> resultTypes, mlir::Value input, int64_t axis,
+      DenseElementsAttrGetter getDenseElementAttrFromConstValue);
+
+  /// Emit an ONNXTransposeOp. If the input is constant, do const propagation,
+  /// and return a constant.
+  mlir::Value foldOrEmitONNXTransposeOp(
+      mlir::ConversionPatternRewriter &rewriter, mlir::Location loc,
+      mlir::Type resultType, mlir::Value input, mlir::ArrayAttr permAttr,
+      DenseElementsAttrGetter getDenseElementAttrFromConstValue);
+
 private:
   mlir::IntegerAttr getSignedInt64Attr(int64_t n) const;
 };

From 3f4797d82e8e4d81bb2adc2c2aca1c86c94eb7db Mon Sep 17 00:00:00 2001
From: Yan Xu <yan.xu0210@bytedance.com>
Date: Thu, 11 Jan 2024 06:56:26 -0500
Subject: [PATCH 10/11] fix clang format

Signed-off-by: Yan Xu <yan.xu0210@bytedance.com>
---
 src/Dialect/ONNX/DialectBuilder.hpp | 4 ++--
 1 file changed, 2 insertions(+), 2 deletions(-)

diff --git a/src/Dialect/ONNX/DialectBuilder.hpp b/src/Dialect/ONNX/DialectBuilder.hpp
index e7712c19c7..2df39afd98 100644
--- a/src/Dialect/ONNX/DialectBuilder.hpp
+++ b/src/Dialect/ONNX/DialectBuilder.hpp
@@ -34,11 +34,11 @@ struct OnnxBuilder : DialectBuilder {

   // Create operation and infer shape.
   template <typename OnnxOpType, typename... Args>
-  OnnxOpType createOpAndInferShapes(Args &&...args) const;
+  OnnxOpType createOpAndInferShapes(Args &&... args) const;

   template <typename OnnxOpType, typename... Args>
   OnnxOpType createTypedOpAndInferShapes(
-      mlir::Type result_ty, Args &&...args) const;
+      mlir::Type result_ty, Args &&... args) const;

   // ONNXAddOp
   mlir::Value add(mlir::Value A, mlir::Value B) const;

From 9ec2829fa0907f4460a8aaeabf7c0deac05605c2 Mon Sep 17 00:00:00 2001
From: Yan Xu <yan.xu0210@bytedance.com>
Date: Tue, 16 Jan 2024 01:38:50 -0500
Subject: [PATCH 11/11] move common RNN utilities into
 src/Conversion/ONNXConversionCommon

Signed-off-by: Yan Xu <yan.xu0210@bytedance.com>
---
 src/Conversion/CMakeLists.txt                 |   1 +
 .../ONNXConversionCommon/CMakeLists.txt       |  12 ++
 .../ONNXConversionCommon/RNN/LSTM.cpp         | 154 ++++++++++++++++
 .../ONNXConversionCommon/RNN/LSTM.hpp         |  54 ++++++
 .../ONNXConversionCommon/RNN/RNNBase.cpp      |  73 ++++++++
 .../ONNXConversionCommon/RNN/RNNBase.hpp      |  55 ++++++
 src/Conversion/ONNXToKrnl/CMakeLists.txt      |   9 +-
 src/Conversion/ONNXToKrnl/RNN/LSTM.cpp        | 161 +----------------
 src/Conversion/ONNXToKrnl/RNN/RNNBase.cpp     |  51 ------
 src/Conversion/ONNXToKrnl/RNN/RNNBase.hpp     |  25 +--
 src/Conversion/ONNXToStablehlo/CMakeLists.txt |   1 +
 src/Conversion/ONNXToStablehlo/RNN/LSTM.cpp   | 170 +-----------------
 .../ONNXToStablehlo/RNN/RNNBase.cpp           |  51 ------
 .../ONNXToStablehlo/RNN/RNNBase.hpp           |  26 +--
 14 files changed, 361 insertions(+), 482 deletions(-)
 create mode 100644 src/Conversion/ONNXConversionCommon/CMakeLists.txt
 create mode 100644 src/Conversion/ONNXConversionCommon/RNN/LSTM.cpp
 create mode 100644 src/Conversion/ONNXConversionCommon/RNN/LSTM.hpp
 create mode 100644 src/Conversion/ONNXConversionCommon/RNN/RNNBase.cpp
 create mode 100644 src/Conversion/ONNXConversionCommon/RNN/RNNBase.hpp

diff --git a/src/Conversion/CMakeLists.txt b/src/Conversion/CMakeLists.txt
index 19c7b4f046..c99192f261 100644
--- a/src/Conversion/CMakeLists.txt
+++ b/src/Conversion/CMakeLists.txt
@@ -1,5 +1,6 @@
 # SPDX-License-Identifier: Apache-2.0

+add_subdirectory(ONNXConversionCommon)
 add_subdirectory(ONNXToKrnl)
 add_subdirectory(KrnlToLLVM)
 add_subdirectory(KrnlToAffine)
diff --git a/src/Conversion/ONNXConversionCommon/CMakeLists.txt b/src/Conversion/ONNXConversionCommon/CMakeLists.txt
new file mode 100644
index 0000000000..bb707912c1
--- /dev/null
+++ b/src/Conversion/ONNXConversionCommon/CMakeLists.txt
@@ -0,0 +1,12 @@
+# SPDX-License-Identifier: Apache-2.0
+
+add_onnx_mlir_library(OMONNXConversionCommon
+  RNN/RNNBase.cpp
+  RNN/LSTM.cpp
+
+  LINK_LIBS PUBLIC
+
+  OMONNXOps
+  OMSupport
+  MLIRTransforms
+)
diff --git a/src/Conversion/ONNXConversionCommon/RNN/LSTM.cpp b/src/Conversion/ONNXConversionCommon/RNN/LSTM.cpp
new file mode 100644
index 0000000000..3de32358f6
--- /dev/null
+++ b/src/Conversion/ONNXConversionCommon/RNN/LSTM.cpp
@@ -0,0 +1,154 @@
+/*
+ * SPDX-License-Identifier: Apache-2.0
+ */
+
+//===--------------- LSTM.cpp - Lowering LSTM Op --------------------------===//
+//
+// Copyright 2019-2024 The IBM Research Authors.
+// Modifications Copyright 2023-2024
+//
+// =============================================================================
+//
+// This file includes utilities for lowering the ONNX LSTM Operators.
+//
+//===----------------------------------------------------------------------===//
+
+#include "src/Conversion/ONNXConversionCommon/RNN/LSTM.hpp"
+
+using namespace mlir;
+
+namespace onnx_mlir {
+
+template <>
+bool hasAllNoneOutput<ONNXLSTMOp>(ONNXLSTMOp *op) {
+  return (isNoneValue(op->getY()) && isNoneValue(op->getYH()) &&
+          isNoneValue(op->getYC()));
+}
+
+template <>
+std::tuple<LstmActivationPack, LstmActivationPack>
+getActivationPack<ONNXLSTMOp, LstmActivationPack>(ONNXLSTMOp *op) {
+  auto direction = op->getDirection();
+  auto activations = op->getActivations();
+  auto activationAlpha = op->getActivationAlpha();
+  auto activationBeta = op->getActivationBeta();
+
+  LstmActivationPack activationForward, activationReverse;
+
+  // Get activation function name.
+  // Default forward functions
+  activationForward.f.name = "sigmoid";
+  activationForward.g.name = "tanh";
+  activationForward.h.name = "tanh";
+  // Default backward functions
+  activationReverse.f.name = "sigmoid";
+  activationReverse.g.name = "tanh";
+  activationReverse.h.name = "tanh";
+  if (activations) {
+    ArrayAttr activationArrAttr = activations.value();
+    if (direction == FORWARD || direction == BIDIRECTIONAL) {
+      // Forward activations.
+      if (activationArrAttr.size() > 0) {
+        activationForward.f.name =
+            activationArrAttr[0].cast<StringAttr>().getValue();
+      }
+      if (activationArrAttr.size() > 1) {
+        activationForward.g.name =
+            activationArrAttr[1].cast<StringAttr>().getValue();
+      }
+      if (activationArrAttr.size() > 2) {
+        activationForward.h.name =
+            activationArrAttr[2].cast<StringAttr>().getValue();
+      }
+    }
+
+    // Reverse activations.
+    if (direction == REVERSE || direction == BIDIRECTIONAL) {
+      unsigned int startIndex = (direction == REVERSE) ? 0 : 3;
+      if (activationArrAttr.size() > startIndex) {
+        activationReverse.f.name =
+            activationArrAttr[startIndex].cast<StringAttr>().getValue();
+      }
+      if (activationArrAttr.size() > startIndex + 1) {
+        activationReverse.g.name =
+            activationArrAttr[startIndex + 1].cast<StringAttr>().getValue();
+      }
+      if (activationArrAttr.size() > startIndex + 2) {
+        activationReverse.h.name =
+            activationArrAttr[startIndex + 2].cast<StringAttr>().getValue();
+      }
+    }
+  }
+
+  // Get alpha attributes.
+  if (activationAlpha) {
+    ArrayAttr activationArrAttr = activationAlpha.value();
+    if (direction == FORWARD || direction == BIDIRECTIONAL) {
+      // Forward activations.
+      if (activationArrAttr.size() > 0) {
+        activationForward.f.alpha = activationArrAttr[0].cast<FloatAttr>();
+      }
+      if (activationArrAttr.size() > 1) {
+        activationForward.g.alpha = activationArrAttr[1].cast<FloatAttr>();
+      }
+      if (activationArrAttr.size() > 2) {
+        activationForward.h.alpha = activationArrAttr[2].cast<FloatAttr>();
+      }
+    }
+
+    // Reverse activations.
+    if (direction == REVERSE || direction == BIDIRECTIONAL) {
+      unsigned int startIndex = (direction == REVERSE) ? 0 : 3;
+      if (activationArrAttr.size() > startIndex) {
+        activationReverse.f.alpha =
+            activationArrAttr[startIndex].cast<FloatAttr>();
+      }
+      if (activationArrAttr.size() > startIndex + 1) {
+        activationReverse.g.alpha =
+            activationArrAttr[startIndex + 1].cast<FloatAttr>();
+      }
+      if (activationArrAttr.size() > startIndex + 2) {
+        activationReverse.h.alpha =
+            activationArrAttr[startIndex + 2].cast<FloatAttr>();
+      }
+    }
+  }
+
+  // Get beta attributes.
+  if (activationBeta) {
+    ArrayAttr activationArrAttr = activationBeta.value();
+    if (direction == FORWARD || direction == BIDIRECTIONAL) {
+      // Forward activations.
+      if (activationArrAttr.size() > 0) {
+        activationForward.f.beta = activationArrAttr[0].cast<FloatAttr>();
+      }
+      if (activationArrAttr.size() > 1) {
+        activationForward.g.beta = activationArrAttr[1].cast<FloatAttr>();
+      }
+      if (activationArrAttr.size() > 2) {
+        activationForward.h.beta = activationArrAttr[2].cast<FloatAttr>();
+      }
+    }
+
+    // Reverse activations.
+    if (direction == REVERSE || direction == BIDIRECTIONAL) {
+      unsigned int startIndex = (direction == REVERSE) ? 0 : 3;
+      if (activationArrAttr.size() > startIndex) {
+        activationReverse.f.beta =
+            activationArrAttr[startIndex].cast<FloatAttr>();
+      }
+      if (activationArrAttr.size() > startIndex + 1) {
+        activationReverse.g.beta =
+            activationArrAttr[startIndex + 1].cast<FloatAttr>();
+      }
+      if (activationArrAttr.size() > startIndex + 2) {
+        activationReverse.h.beta =
+            activationArrAttr[startIndex + 2].cast<FloatAttr>();
+      }
+    }
+  }
+
+  return std::make_tuple(activationForward, activationReverse);
+}
+
+} // namespace onnx_mlir
diff --git a/src/Conversion/ONNXConversionCommon/RNN/LSTM.hpp b/src/Conversion/ONNXConversionCommon/RNN/LSTM.hpp
new file mode 100644
index 0000000000..913b10cea5
--- /dev/null
+++ b/src/Conversion/ONNXConversionCommon/RNN/LSTM.hpp
@@ -0,0 +1,54 @@
+/*
+ * SPDX-License-Identifier: Apache-2.0
+ */
+
+//===--------------- LSTM.hpp - Lowering LSTM Op --------------------------===//
+//
+// Copyright 2024
+//
+// =============================================================================
+//
+// This file includes utilities for lowering the ONNX LSTM Operators.
+//
+//===----------------------------------------------------------------------===//
+
+#include "src/Conversion/ONNXConversionCommon/RNN/RNNBase.hpp"
+
+namespace onnx_mlir {
+
+struct LstmActivationPack {
+  RNNActivation f;
+  RNNActivation g;
+  RNNActivation h;
+};
+
+struct LstmWeightPack {
+  mlir::Value WT;
+  mlir::Value RT;
+};
+
+struct LstmBiasPack {
+  bool hasBias = false;
+  mlir::Value Wbi;
+  mlir::Value Wbo;
+  mlir::Value Wbf;
+  mlir::Value Wbc;
+  mlir::Value Rbi;
+  mlir::Value Rbo;
+  mlir::Value Rbf;
+  mlir::Value Rbc;
+  // Put peephole here.
+  bool hasPeephole = false;
+  mlir::Value Pi;
+  mlir::Value Po;
+  mlir::Value Pf;
+};
+
+template <>
+bool hasAllNoneOutput<mlir::ONNXLSTMOp>(mlir::ONNXLSTMOp *op);
+
+template <>
+std::tuple<LstmActivationPack, LstmActivationPack>
+getActivationPack<mlir::ONNXLSTMOp, LstmActivationPack>(mlir::ONNXLSTMOp *op);
+
+} // namespace onnx_mlir
diff --git a/src/Conversion/ONNXConversionCommon/RNN/RNNBase.cpp b/src/Conversion/ONNXConversionCommon/RNN/RNNBase.cpp
new file mode 100644
index 0000000000..5ab59dd830
--- /dev/null
+++ b/src/Conversion/ONNXConversionCommon/RNN/RNNBase.cpp
@@ -0,0 +1,73 @@
+/*
+ * SPDX-License-Identifier: Apache-2.0
+ */
+
+//===--------------- RNNBase.cpp - Lowering RNN Ops -----------------------===//
+//
+// Copyright 2019-2024 The IBM Research Authors.
+// Modifications Copyright 2023-2024
+//
+// =============================================================================
+//
+// This file defines common base utilities for lowering the ONNX RNN Operators.
+//
+//===----------------------------------------------------------------------===//
+
+#include "src/Conversion/ONNXConversionCommon/RNN/RNNBase.hpp"
+
+using namespace mlir;
+
+namespace onnx_mlir {
+
+// Get a dimension of the tensor's shape.
+int64_t dimAt(Value val, int index) {
+  return val.getType().cast<ShapedType>().getShape()[index];
+}
+
+// Apply an activation function on a given scalar operand.
+Value applyActivation(OpBuilder &rewriter, Location loc,
+    RNNActivation activation, Value operand) {
+  Value res;
+
+  std::vector<mlir::NamedAttribute> attributes;
+  if (activation.alpha) {
+    attributes.emplace_back(
+        rewriter.getNamedAttr("alpha", activation.alpha.value()));
+  }
+  if (activation.beta) {
+    attributes.emplace_back(
+        rewriter.getNamedAttr("beta", activation.beta.value()));
+  }
+  Type resType = operand.getType();
+
+  // Change equality to be case insensitive.
+  if (activation.name.equals_insensitive("relu"))
+    res = rewriter.create<ONNXReluOp>(loc, resType, operand);
+  else if (activation.name.equals_insensitive("tanh"))
+    res = rewriter.create<ONNXTanhOp>(loc, resType, operand);
+  else if (activation.name.equals_insensitive("sigmoid"))
+    res = rewriter.create<ONNXSigmoidOp>(loc, resType, operand);
+  else if (activation.name.equals_insensitive("affine"))
+    llvm_unreachable("Unsupported activation");
+  else if (activation.name.equals_insensitive("leakyrelu"))
+    res = rewriter.create<ONNXLeakyReluOp>(loc, resType, operand, attributes);
+  else if (activation.name.equals_insensitive("thresholdedrelu"))
+    res = rewriter.create<ONNXThresholdedReluOp>(
+        loc, resType, operand, attributes);
+  else if (activation.name.equals_insensitive("scaledtanh"))
+    llvm_unreachable("Unsupported activation");
+  else if (activation.name.equals_insensitive("hardsigmoid"))
+    res = rewriter.create<ONNXHardSigmoidOp>(loc, resType, operand, attributes);
+  else if (activation.name.equals_insensitive("elu"))
+    res = rewriter.create<ONNXEluOp>(loc, resType, operand, attributes);
+  else if (activation.name.equals_insensitive("softsign"))
+    res = rewriter.create<ONNXSoftsignOp>(loc, resType, operand);
+  else if (activation.name.equals_insensitive("softplus"))
+    res = rewriter.create<ONNXSoftplusOp>(loc, resType, operand);
+  else
+    llvm_unreachable("Unsupported activation");
+
+  return res;
+}
+
+} // namespace onnx_mlir
diff --git a/src/Conversion/ONNXConversionCommon/RNN/RNNBase.hpp b/src/Conversion/ONNXConversionCommon/RNN/RNNBase.hpp
new file mode 100644
index 0000000000..c33dde1555
--- /dev/null
+++ b/src/Conversion/ONNXConversionCommon/RNN/RNNBase.hpp
@@ -0,0 +1,55 @@
+/*
+ * SPDX-License-Identifier: Apache-2.0
+ */
+
+//===--------------- RNNBase.hpp - Lowering RNN Ops -----------------------===//
+//
+// Copyright 2019-2024 The IBM Research Authors.
+// Modifications Copyright 2023-2024
+//
+// =============================================================================
+//
+// This file defines common base utilities for lowering the ONNX RNN Operators.
+//
+//===----------------------------------------------------------------------===//
+
+#pragma once
+
+#include "mlir/IR/BuiltinAttributes.h"
+#include "mlir/Transforms/DialectConversion.h"
+
+#include "src/Dialect/ONNX/ONNXOps.hpp"
+#include "src/Dialect/ONNX/ONNXOps/OpHelper.hpp"
+
+static constexpr llvm::StringRef FORWARD = "forward";
+static constexpr llvm::StringRef REVERSE = "reverse";
+static constexpr llvm::StringRef BIDIRECTIONAL = "bidirectional";
+
+namespace onnx_mlir {
+
+struct RNNActivation {
+  llvm::StringRef name;
+  std::optional<mlir::FloatAttr> alpha;
+  std::optional<mlir::FloatAttr> beta;
+};
+
+/// Get a dimension of the tensor's shape.
+int64_t dimAt(mlir::Value val, int index);
+
+/// Apply an activation function on a given operand.
+mlir::Value applyActivation(mlir::OpBuilder &rewriter, mlir::Location loc,
+    RNNActivation activation, mlir::Value operand);
+
+// Override the following methods when lowering an RNN operation:
+// - hasAllNoneOutput
+// - getActivationPack
+
+// Check whether all outputs have NoneType or not.
+template <typename RNNOp>
+bool hasAllNoneOutput(RNNOp *op);
+
+// Obtain activations functions for a specific operation.
+template <typename RNNOp, typename A>
+std::tuple<A, A> getActivationPack(RNNOp *op);
+
+} // namespace onnx_mlir
diff --git a/src/Conversion/ONNXToKrnl/CMakeLists.txt b/src/Conversion/ONNXToKrnl/CMakeLists.txt
index 6b5f473260..df968f8444 100644
--- a/src/Conversion/ONNXToKrnl/CMakeLists.txt
+++ b/src/Conversion/ONNXToKrnl/CMakeLists.txt
@@ -43,7 +43,7 @@ add_onnx_mlir_library(OMONNXToKrnl
   Sequence/SequenceInsert.cpp
   Sequence/SequenceLength.cpp
   Tensor/ArgMinMax.cpp
-  Tensor/Compress.cpp
+  Tensor/Compress.cpp
   Tensor/Concat.cpp
   Tensor/ConcatShapeTranspose.cpp
   Tensor/Constant.cpp
@@ -57,7 +57,7 @@ add_onnx_mlir_library(OMONNXToKrnl
   Tensor/GatherND.cpp
   Tensor/Identity.cpp
   Tensor/NonZero.cpp
-  Tensor/OneHot.cpp
+  Tensor/OneHot.cpp
   Tensor/Pad.cpp
   Tensor/PrintSignature.cpp
   Tensor/Range.cpp
@@ -65,9 +65,9 @@ add_onnx_mlir_library(OMONNXToKrnl
   Tensor/Resize.cpp
   Tensor/ReverseSequence.cpp
   Tensor/ScatterElements.cpp
-  Tensor/ScatterND.cpp
+  Tensor/ScatterND.cpp
   Tensor/Shape.cpp
-  Tensor/Size.cpp
+  Tensor/Size.cpp
   Tensor/Slice.cpp
   Tensor/SpaceToDepth.cpp
   Tensor/Split.cpp
@@ -79,6 +79,7 @@ add_onnx_mlir_library(OMONNXToKrnl

   LINK_LIBS PUBLIC
   OMAccelerator
+  OMONNXConversionCommon
   OMONNXOps
   OMSupport
   MLIRFuncDialect
diff --git a/src/Conversion/ONNXToKrnl/RNN/LSTM.cpp b/src/Conversion/ONNXToKrnl/RNN/LSTM.cpp
index f1855c829a..f8744681c9 100644
--- a/src/Conversion/ONNXToKrnl/RNN/LSTM.cpp
+++ b/src/Conversion/ONNXToKrnl/RNN/LSTM.cpp
@@ -12,6 +12,7 @@
 //
 //===----------------------------------------------------------------------===//

+#include "src/Conversion/ONNXConversionCommon/RNN/LSTM.hpp"
 #include "src/Conversion/ONNXToKrnl/RNN/RNNBase.hpp"
 #include "src/Dialect/Mlir/DialectBuilder.hpp"

@@ -31,166 +32,6 @@ struct LstmState {
   Value reverseCt;
 };

-struct LstmActivationPack {
-  RNNActivation f;
-  RNNActivation g;
-  RNNActivation h;
-};
-
-struct LstmWeightPack {
-  Value WT;
-  Value RT;
-};
-
-struct LstmBiasPack {
-  bool hasBias = false;
-  Value Wbi;
-  Value Wbo;
-  Value Wbf;
-  Value Wbc;
-  Value Rbi;
-  Value Rbo;
-  Value Rbf;
-  Value Rbc;
-  // Put peephole here.
-  bool hasPeephole = false;
-  Value Pi;
-  Value Po;
-  Value Pf;
-};
-
-template <>
-bool hasAllNoneOutput<ONNXLSTMOp>(ONNXLSTMOp *op) {
-  return (isNoneValue(op->getY()) && isNoneValue(op->getYH()) &&
-          isNoneValue(op->getYC()));
-}
-
-template <>
-std::tuple<LstmActivationPack, LstmActivationPack>
-getActivationPack<ONNXLSTMOp, LstmActivationPack>(ONNXLSTMOp *op) {
-  auto direction = op->getDirection();
-  auto activations = op->getActivations();
-  auto activationAlpha = op->getActivationAlpha();
-  auto activationBeta = op->getActivationBeta();
-
-  LstmActivationPack activationForward, activationReverse;
-
-  // Get activation function name.
-  // Default forward functions
-  activationForward.f.name = "sigmoid";
-  activationForward.g.name = "tanh";
-  activationForward.h.name = "tanh";
-  // Default backward functions
-  activationReverse.f.name = "sigmoid";
-  activationReverse.g.name = "tanh";
-  activationReverse.h.name = "tanh";
-  if (activations) {
-    ArrayAttr activationArrAttr = activations.value();
-    if (direction == FORWARD || direction == BIDIRECTIONAL) {
-      // Forward activations.
-      if (activationArrAttr.size() > 0) {
-        activationForward.f.name =
-            activationArrAttr[0].cast<StringAttr>().getValue();
-      }
-      if (activationArrAttr.size() > 1) {
-        activationForward.g.name =
-            activationArrAttr[1].cast<StringAttr>().getValue();
-      }
-      if (activationArrAttr.size() > 2) {
-        activationForward.h.name =
-            activationArrAttr[2].cast<StringAttr>().getValue();
-      }
-    }
-
-    // Reverse activations.
-    if (direction == REVERSE || direction == BIDIRECTIONAL) {
-      unsigned int startIndex = (direction == REVERSE) ? 0 : 3;
-      if (activationArrAttr.size() > startIndex) {
-        activationReverse.f.name =
-            activationArrAttr[startIndex].cast<StringAttr>().getValue();
-      }
-      if (activationArrAttr.size() > startIndex + 1) {
-        activationReverse.g.name =
-            activationArrAttr[startIndex + 1].cast<StringAttr>().getValue();
-      }
-      if (activationArrAttr.size() > startIndex + 2) {
-        activationReverse.h.name =
-            activationArrAttr[startIndex + 2].cast<StringAttr>().getValue();
-      }
-    }
-  }
-
-  // Get alpha attributes.
-  if (activationAlpha) {
-    ArrayAttr activationArrAttr = activationAlpha.value();
-    if (direction == FORWARD || direction == BIDIRECTIONAL) {
-      // Forward activations.
-      if (activationArrAttr.size() > 0) {
-        activationForward.f.alpha = activationArrAttr[0].cast<FloatAttr>();
-      }
-      if (activationArrAttr.size() > 1) {
-        activationForward.g.alpha = activationArrAttr[1].cast<FloatAttr>();
-      }
-      if (activationArrAttr.size() > 2) {
-        activationForward.h.alpha = activationArrAttr[2].cast<FloatAttr>();
-      }
-    }
-
-    // Reverse activations.
-    if (direction == REVERSE || direction == BIDIRECTIONAL) {
-      unsigned int startIndex = (direction == REVERSE) ? 0 : 3;
-      if (activationArrAttr.size() > startIndex) {
-        activationReverse.f.alpha =
-            activationArrAttr[startIndex].cast<FloatAttr>();
-      }
-      if (activationArrAttr.size() > startIndex + 1) {
-        activationReverse.g.alpha =
-            activationArrAttr[startIndex + 1].cast<FloatAttr>();
-      }
-      if (activationArrAttr.size() > startIndex + 2) {
-        activationReverse.h.alpha =
-            activationArrAttr[startIndex + 2].cast<FloatAttr>();
-      }
-    }
-  }
-
-  // Get beta attributes.
-  if (activationBeta) {
-    ArrayAttr activationArrAttr = activationBeta.value();
-    if (direction == FORWARD || direction == BIDIRECTIONAL) {
-      // Forward activations.
-      if (activationArrAttr.size() > 0) {
-        activationForward.f.beta = activationArrAttr[0].cast<FloatAttr>();
-      }
-      if (activationArrAttr.size() > 1) {
-        activationForward.g.beta = activationArrAttr[1].cast<FloatAttr>();
-      }
-      if (activationArrAttr.size() > 2) {
-        activationForward.h.beta = activationArrAttr[2].cast<FloatAttr>();
-      }
-    }
-
-    // Reverse activations.
-    if (direction == REVERSE || direction == BIDIRECTIONAL) {
-      unsigned int startIndex = (direction == REVERSE) ? 0 : 3;
-      if (activationArrAttr.size() > startIndex) {
-        activationReverse.f.beta =
-            activationArrAttr[startIndex].cast<FloatAttr>();
-      }
-      if (activationArrAttr.size() > startIndex + 1) {
-        activationReverse.g.beta =
-            activationArrAttr[startIndex + 1].cast<FloatAttr>();
-      }
-      if (activationArrAttr.size() > startIndex + 2) {
-        activationReverse.h.beta =
-            activationArrAttr[startIndex + 2].cast<FloatAttr>();
-      }
-    }
-  }
-
-  return std::make_tuple(activationForward, activationReverse);
-}
-
 template <>
 std::tuple<LstmWeightPack, LstmWeightPack>
 getWeightPack<ONNXLSTMOp, LstmWeightPack>(
diff --git a/src/Conversion/ONNXToKrnl/RNN/RNNBase.cpp b/src/Conversion/ONNXToKrnl/RNN/RNNBase.cpp
index b12747e174..8c680397a5 100644
--- a/src/Conversion/ONNXToKrnl/RNN/RNNBase.cpp
+++ b/src/Conversion/ONNXToKrnl/RNN/RNNBase.cpp
@@ -19,11 +19,6 @@ using namespace mlir;

 namespace onnx_mlir {

-// Get a dimension of the tensor's shape.
-int64_t dimAt(Value val, int index) {
-  return val.getType().cast<ShapedType>().getShape()[index];
-}
-
 /// Insert Allocate and Deallocate for the all hidden output.
 /// Shape :: [seq_length, num_directions, batch_size, hidden_size]
 Value allocAllHidden(ConversionPatternRewriter &rewriter, Location loc,
@@ -249,52 +244,6 @@ void stateToOutputForHiddenOrCell(ConversionPatternRewriter &rewriter,
   }
 }

-// Apply an activation function on a given scalar operand.
-Value applyActivation(OpBuilder &rewriter, Location loc,
-    RNNActivation activation, Value operand) {
-  Value res;
-
-  std::vector<mlir::NamedAttribute> attributes;
-  if (activation.alpha) {
-    attributes.emplace_back(
-        rewriter.getNamedAttr("alpha", activation.alpha.value()));
-  }
-  if (activation.beta) {
-    attributes.emplace_back(
-        rewriter.getNamedAttr("beta", activation.beta.value()));
-  }
-  Type resType = operand.getType();
-
-  // Change equality to be case insensitive.
-  if (activation.name.equals_insensitive("relu"))
-    res = rewriter.create<ONNXReluOp>(loc, resType, operand);
-  else if (activation.name.equals_insensitive("tanh"))
-    res = rewriter.create<ONNXTanhOp>(loc, resType, operand);
-  else if (activation.name.equals_insensitive("sigmoid"))
-    res = rewriter.create<ONNXSigmoidOp>(loc, resType, operand);
-  else if (activation.name.equals_insensitive("affine"))
-    llvm_unreachable("Unsupported activation");
-  else if (activation.name.equals_insensitive("leakyrelu"))
-    res = rewriter.create<ONNXLeakyReluOp>(loc, resType, operand, attributes);
-  else if (activation.name.equals_insensitive("thresholdedrelu"))
-    res = rewriter.create<ONNXThresholdedReluOp>(
-        loc, resType, operand, attributes);
-  else if (activation.name.equals_insensitive("scaledtanh"))
-    llvm_unreachable("Unsupported activation");
-  else if (activation.name.equals_insensitive("hardsigmoid"))
-    res = rewriter.create<ONNXHardSigmoidOp>(loc, resType, operand, attributes);
-  else if (activation.name.equals_insensitive("elu"))
-    res = rewriter.create<ONNXEluOp>(loc, resType, operand, attributes);
-  else if (activation.name.equals_insensitive("softsign"))
-    res = rewriter.create<ONNXSoftsignOp>(loc, resType, operand);
-  else if (activation.name.equals_insensitive("softplus"))
-    res = rewriter.create<ONNXSoftplusOp>(loc, resType, operand);
-  else
-    llvm_unreachable("Unsupported activation");
-
-  return res;
-}
-
 /// Create a copy of a slice of X at a specific timestep.
 /// This function is not able correctly to emit 'dealloc' for the copy since it
 /// does not have enough information about the parent context. Users must
diff --git a/src/Conversion/ONNXToKrnl/RNN/RNNBase.hpp b/src/Conversion/ONNXToKrnl/RNN/RNNBase.hpp
index ec0b28c8ec..4c5f179dbd 100644
--- a/src/Conversion/ONNXToKrnl/RNN/RNNBase.hpp
+++ b/src/Conversion/ONNXToKrnl/RNN/RNNBase.hpp
@@ -16,24 +16,13 @@

 #include "mlir/IR/AffineExpr.h"

+#include "src/Conversion/ONNXConversionCommon/RNN/RNNBase.hpp"
 #include "src/Conversion/ONNXToKrnl/ONNXToKrnlCommon.hpp"

 static constexpr int BUFFER_ALIGN = 128;
-static constexpr llvm::StringRef FORWARD = "forward";
-static constexpr llvm::StringRef REVERSE = "reverse";
-static constexpr llvm::StringRef BIDIRECTIONAL = "bidirectional";

 namespace onnx_mlir {

-struct RNNActivation {
-  llvm::StringRef name;
-  std::optional<mlir::FloatAttr> alpha;
-  std::optional<mlir::FloatAttr> beta;
-};
-
-/// Get a dimension of the tensor's shape.
-int64_t dimAt(mlir::Value val, int index);
-
 /// Insert Allocate and Deallocate for the all hidden output.
 mlir::Value allocAllHidden(mlir::ConversionPatternRewriter &rewriter,
     mlir::Location loc, const mlir::TypeConverter *typeConverter, mlir::Value X,
@@ -67,10 +56,6 @@ void stateToOutputForHiddenOrCell(mlir::ConversionPatternRewriter &rewriter,
     mlir::Location loc, mlir::Value forwardVal, mlir::Value reverseVal,
     llvm::StringRef direction, mlir::Value output);

-/// Apply an activation function on a given operand.
-mlir::Value applyActivation(mlir::OpBuilder &rewriter, mlir::Location loc,
-    RNNActivation activation, mlir::Value operand);
-
 /// Get a slice of X at a specific timestep.
 mlir::Value emitXSliceAt(mlir::ConversionPatternRewriter &rewriter,
     mlir::Location loc, mlir::Value X, mlir::Value timestep);
@@ -93,14 +78,6 @@ mlir::Value handleSequenceLens(KrnlBuilder &createKrnl, MathBuilder &createMath,
 // - calculateState
 // - stateToOutput

-// Check whether all outputs have NoneType or not.
-template <typename RNNOp>
-bool hasAllNoneOutput(RNNOp *op);
-
-// Obtain activations functions for a specific operation.
-template <typename RNNOp, typename A>
-std::tuple<A, A> getActivationPack(RNNOp *op);
-
 /// Obtain weight tensors in 2D for each gate.
 /// In ONNX, weights for gates and directions are combined in a single tensor.
 /// This function splits them into 2D tensors.
diff --git a/src/Conversion/ONNXToStablehlo/CMakeLists.txt b/src/Conversion/ONNXToStablehlo/CMakeLists.txt
index 8255395b36..690c58ef44 100644
--- a/src/Conversion/ONNXToStablehlo/CMakeLists.txt
+++ b/src/Conversion/ONNXToStablehlo/CMakeLists.txt
@@ -78,6 +78,7 @@ add_onnx_mlir_library(OMONNXToStablehlo
   MLIRQuantDialect
   MLIRTransforms
   OMAccelerator
+  OMONNXConversionCommon
   OMONNXRewrite
   OMONNXOps
   OMSupport
diff --git a/src/Conversion/ONNXToStablehlo/RNN/LSTM.cpp b/src/Conversion/ONNXToStablehlo/RNN/LSTM.cpp
index d2fd54cd70..e3d4ee24a5 100644
--- a/src/Conversion/ONNXToStablehlo/RNN/LSTM.cpp
+++ b/src/Conversion/ONNXToStablehlo/RNN/LSTM.cpp
@@ -12,14 +12,11 @@
 //
 //===----------------------------------------------------------------------===//

+#include "src/Conversion/ONNXConversionCommon/RNN/LSTM.hpp"
 #include "src/Conversion/ONNXToStablehlo/DialectBuilder.hpp"
 #include "src/Conversion/ONNXToStablehlo/RNN/RNNBase.hpp"
 #include "src/Dialect/Mlir/DialectBuilder.hpp"

-#include "llvm/Support/Debug.h"
-
-#define DEBUG_TYPE "lstm"
-
 using namespace mlir;

 namespace onnx_mlir {
@@ -42,166 +39,6 @@ struct LstmState {
   Value reverseCt;
 };

-struct LstmActivationPack {
-  RNNActivation f;
-  RNNActivation g;
-  RNNActivation h;
-};
-
-struct LstmWeightPack {
-  Value WT;
-  Value RT;
-};
-
-struct LstmBiasPack {
-  bool hasBias = false;
-  Value Wbi;
-  Value Wbo;
-  Value Wbf;
-  Value Wbc;
-  Value Rbi;
-  Value Rbo;
-  Value Rbf;
-  Value Rbc;
-  // Put peephole here.
-  bool hasPeephole = false;
-  Value Pi;
-  Value Po;
-  Value Pf;
-};
-
-template <>
-bool hasAllNoneOutput<ONNXLSTMOp>(ONNXLSTMOp *op) {
-  return (isNoneValue(op->getY()) && isNoneValue(op->getYH()) &&
-          isNoneValue(op->getYC()));
-}
-
-template <>
-std::tuple<LstmActivationPack, LstmActivationPack>
-getActivationPack<ONNXLSTMOp, LstmActivationPack>(ONNXLSTMOp *op) {
-  auto direction = op->getDirection();
-  auto activations = op->getActivations();
-  auto activationAlpha = op->getActivationAlpha();
-  auto activationBeta = op->getActivationBeta();
-
-  LstmActivationPack activationForward, activationReverse;
-
-  // Get activation function name.
-  // Default forward functions
-  activationForward.f.name = "sigmoid";
-  activationForward.g.name = "tanh";
-  activationForward.h.name = "tanh";
-  // Default backward functions
-  activationReverse.f.name = "sigmoid";
-  activationReverse.g.name = "tanh";
-  activationReverse.h.name = "tanh";
-  if (activations) {
-    ArrayAttr activationArrAttr = activations.value();
-    if (direction == FORWARD || direction == BIDIRECTIONAL) {
-      // Forward activations.
-      if (activationArrAttr.size() > 0) {
-        activationForward.f.name =
-            activationArrAttr[0].cast<StringAttr>().getValue();
-      }
-      if (activationArrAttr.size() > 1) {
-        activationForward.g.name =
-            activationArrAttr[1].cast<StringAttr>().getValue();
-      }
-      if (activationArrAttr.size() > 2) {
-        activationForward.h.name =
-            activationArrAttr[2].cast<StringAttr>().getValue();
-      }
-    }
-
-    // Reverse activations.
-    if (direction == REVERSE || direction == BIDIRECTIONAL) {
-      unsigned int startIndex = (direction == REVERSE) ? 0 : 3;
-      if (activationArrAttr.size() > startIndex) {
-        activationReverse.f.name =
-            activationArrAttr[startIndex].cast<StringAttr>().getValue();
-      }
-      if (activationArrAttr.size() > startIndex + 1) {
-        activationReverse.g.name =
-            activationArrAttr[startIndex + 1].cast<StringAttr>().getValue();
-      }
-      if (activationArrAttr.size() > startIndex + 2) {
-        activationReverse.h.name =
-            activationArrAttr[startIndex + 2].cast<StringAttr>().getValue();
-      }
-    }
-  }
-
-  // Get alpha attributes.
-  if (activationAlpha) {
-    ArrayAttr activationArrAttr = activationAlpha.value();
-    if (direction == FORWARD || direction == BIDIRECTIONAL) {
-      // Forward activations.
-      if (activationArrAttr.size() > 0) {
-        activationForward.f.alpha = activationArrAttr[0].cast<FloatAttr>();
-      }
-      if (activationArrAttr.size() > 1) {
-        activationForward.g.alpha = activationArrAttr[1].cast<FloatAttr>();
-      }
-      if (activationArrAttr.size() > 2) {
-        activationForward.h.alpha = activationArrAttr[2].cast<FloatAttr>();
-      }
-    }
-
-    // Reverse activations.
-    if (direction == REVERSE || direction == BIDIRECTIONAL) {
-      unsigned int startIndex = (direction == REVERSE) ? 0 : 3;
-      if (activationArrAttr.size() > startIndex) {
-        activationReverse.f.alpha =
-            activationArrAttr[startIndex].cast<FloatAttr>();
-      }
-      if (activationArrAttr.size() > startIndex + 1) {
-        activationReverse.g.alpha =
-            activationArrAttr[startIndex + 1].cast<FloatAttr>();
-      }
-      if (activationArrAttr.size() > startIndex + 2) {
-        activationReverse.h.alpha =
-            activationArrAttr[startIndex + 2].cast<FloatAttr>();
-      }
-    }
-  }
-
-  // Get beta attributes.
-  if (activationBeta) {
-    ArrayAttr activationArrAttr = activationBeta.value();
-    if (direction == FORWARD || direction == BIDIRECTIONAL) {
-      // Forward activations.
-      if (activationArrAttr.size() > 0) {
-        activationForward.f.beta = activationArrAttr[0].cast<FloatAttr>();
-      }
-      if (activationArrAttr.size() > 1) {
-        activationForward.g.beta = activationArrAttr[1].cast<FloatAttr>();
-      }
-      if (activationArrAttr.size() > 2) {
-        activationForward.h.beta = activationArrAttr[2].cast<FloatAttr>();
-      }
-    }
-
-    // Reverse activations.
-    if (direction == REVERSE || direction == BIDIRECTIONAL) {
-      unsigned int startIndex = (direction == REVERSE) ? 0 : 3;
-      if (activationArrAttr.size() > startIndex) {
-        activationReverse.f.beta =
-            activationArrAttr[startIndex].cast<FloatAttr>();
-      }
-      if (activationArrAttr.size() > startIndex + 1) {
-        activationReverse.g.beta =
-            activationArrAttr[startIndex + 1].cast<FloatAttr>();
-      }
-      if (activationArrAttr.size() > startIndex + 2) {
-        activationReverse.h.beta =
-            activationArrAttr[startIndex + 2].cast<FloatAttr>();
-      }
-    }
-  }
-
-  return std::make_tuple(activationForward, activationReverse);
-}
-
 template <>
 std::tuple<LstmWeightPack, LstmWeightPack>
 getWeightPack<ONNXLSTMOp, LstmWeightPack>(
@@ -823,9 +660,8 @@ void calculateStateWithLoop<ONNXLSTMOp, LstmState, LstmActivationPack,
 void populateLoweringONNXLSTMOpToStablehloPattern(
     RewritePatternSet &patterns, MLIRContext *ctx, bool enableUnroll) {
   patterns.insert<onnx_mlir::stablehlo::ONNXRNNOpLowering<ONNXLSTMOp,
-      onnx_mlir::stablehlo::LstmState, onnx_mlir::stablehlo::LstmActivationPack,
-      onnx_mlir::stablehlo::LstmWeightPack,
-      onnx_mlir::stablehlo::LstmBiasPack>>(ctx, enableUnroll);
+      onnx_mlir::stablehlo::LstmState, onnx_mlir::LstmActivationPack,
+      onnx_mlir::LstmWeightPack, onnx_mlir::LstmBiasPack>>(ctx, enableUnroll);
 }

 } // namespace onnx_mlir
diff --git a/src/Conversion/ONNXToStablehlo/RNN/RNNBase.cpp b/src/Conversion/ONNXToStablehlo/RNN/RNNBase.cpp
index ab110b2e61..cb30905dcb 100644
--- a/src/Conversion/ONNXToStablehlo/RNN/RNNBase.cpp
+++ b/src/Conversion/ONNXToStablehlo/RNN/RNNBase.cpp
@@ -21,11 +21,6 @@ namespace onnx_mlir {

 namespace stablehlo {

-// Get a dimension of the tensor's shape.
-int64_t dimAt(Value val, int index) {
-  return val.getType().cast<ShapedType>().getShape()[index];
-}
-
 /// Allocate the all hidden output.
 /// Shape :: [seq_length, num_directions, batch_size, hidden_size]
 Value allocAllHidden(
@@ -157,52 +152,6 @@ void stateToOutputForHiddenOrCell(ConversionPatternRewriter &rewriter,
   }
 }

-// Apply an activation function on a given scalar operand.
-Value applyActivation(OpBuilder &rewriter, Location loc,
-    RNNActivation activation, Value operand) {
-  Value res;
-
-  std::vector<mlir::NamedAttribute> attributes;
-  if (activation.alpha) {
-    attributes.emplace_back(
-        rewriter.getNamedAttr("alpha", activation.alpha.value()));
-  }
-  if (activation.beta) {
-    attributes.emplace_back(
-        rewriter.getNamedAttr("beta", activation.beta.value()));
-  }
-  Type resType = operand.getType();
-
-  // Change equality to be case insensitive.
-  if (activation.name.equals_insensitive("relu"))
-    res = rewriter.create<ONNXReluOp>(loc, resType, operand);
-  else if (activation.name.equals_insensitive("tanh"))
-    res = rewriter.create<ONNXTanhOp>(loc, resType, operand);
-  else if (activation.name.equals_insensitive("sigmoid"))
-    res = rewriter.create<ONNXSigmoidOp>(loc, resType, operand);
-  else if (activation.name.equals_insensitive("affine"))
-    llvm_unreachable("Unsupported activation");
-  else if (activation.name.equals_insensitive("leakyrelu"))
-    res = rewriter.create<ONNXLeakyReluOp>(loc, resType, operand, attributes);
-  else if (activation.name.equals_insensitive("thresholdedrelu"))
-    res = rewriter.create<ONNXThresholdedReluOp>(
-        loc, resType, operand, attributes);
-  else if (activation.name.equals_insensitive("scaledtanh"))
-    llvm_unreachable("Unsupported activation");
-  else if (activation.name.equals_insensitive("hardsigmoid"))
-    res = rewriter.create<ONNXHardSigmoidOp>(loc, resType, operand, attributes);
-  else if (activation.name.equals_insensitive("elu"))
-    res = rewriter.create<ONNXEluOp>(loc, resType, operand, attributes);
-  else if (activation.name.equals_insensitive("softsign"))
-    res = rewriter.create<ONNXSoftsignOp>(loc, resType, operand);
-  else if (activation.name.equals_insensitive("softplus"))
-    res = rewriter.create<ONNXSoftplusOp>(loc, resType, operand);
-  else
-    llvm_unreachable("Unsupported activation");
-
-  return res;
-}
-
 /// Create a copy of a slice of X at a specific timestep.
 Value emitXSliceAt(ConversionPatternRewriter &rewriter, Location loc, Value X,
     Value timestepIV) {
diff --git a/src/Conversion/ONNXToStablehlo/RNN/RNNBase.hpp b/src/Conversion/ONNXToStablehlo/RNN/RNNBase.hpp
index a635f3ec9c..c065c77218 100644
--- a/src/Conversion/ONNXToStablehlo/RNN/RNNBase.hpp
+++ b/src/Conversion/ONNXToStablehlo/RNN/RNNBase.hpp
@@ -14,25 +14,13 @@

 #pragma once

+#include "src/Conversion/ONNXConversionCommon/RNN/RNNBase.hpp"
 #include "src/Conversion/ONNXToStablehlo/ONNXToStablehloCommon.hpp"

-static constexpr llvm::StringRef FORWARD = "forward";
-static constexpr llvm::StringRef REVERSE = "reverse";
-static constexpr llvm::StringRef BIDIRECTIONAL = "bidirectional";
-
 namespace onnx_mlir {

 namespace stablehlo {

-struct RNNActivation {
-  llvm::StringRef name;
-  std::optional<mlir::FloatAttr> alpha;
-  std::optional<mlir::FloatAttr> beta;
-};
-
-/// Get a dimension of the tensor's shape.
-int64_t dimAt(mlir::Value val, int index);
-
 /// Allocate the all hidden output.
 mlir::Value allocAllHidden(mlir::ConversionPatternRewriter &rewriter,
     mlir::Location loc, mlir::Value X, mlir::Value R);
@@ -59,10 +47,6 @@ void stateToOutputForHiddenOrCell(mlir::ConversionPatternRewriter &rewriter,
     mlir::Location loc, mlir::Value forwardVal, mlir::Value reverseVal,
     llvm::StringRef direction, mlir::Value &output);

-/// Apply an activation function on a given operand.
-mlir::Value applyActivation(mlir::OpBuilder &rewriter, mlir::Location loc,
-    RNNActivation activation, mlir::Value operand);
-
 /// Get a slice of X at a specific timestep.
 mlir::Value emitXSliceAt(mlir::ConversionPatternRewriter &rewriter,
     mlir::Location loc, mlir::Value X, mlir::Value timestep);
@@ -76,14 +60,6 @@ mlir::Value emitXSliceAt(mlir::ConversionPatternRewriter &rewriter,
 // - calculateState
 // - stateToOutput

-// Check whether all outputs have NoneType or not.
-template <typename RNNOp>
-bool hasAllNoneOutput(RNNOp *op);
-
-// Obtain activations functions for a specific operation.
-template <typename RNNOp, typename A>
-std::tuple<A, A> getActivationPack(RNNOp *op);
-
 /// Obtain weight tensors in 2D for each gate.
 /// In ONNX, weights for gates and directions are combined in a single tensor.
 /// This function splits them into 2D tensors.
